hnam_experiments/Fit_and_Predict/models/Walmart/HNAM/lightning_logs/version_7/checkpoints/model-04-0.578.ckpt (torch, 200392 bytes, 228 tensors)

input_embeddings.embeddings.Sporting.weight f4 [19, 8]
00000000: 3099 84bf 525b 9fbf ffc8 9abe 8ad7 b3be
00000010: fa5c 723f 0f63 0d3f 0f30 58be 8b10 0bc0
00000020: 9f01 b33e 5580 a7bf 34ff 9a3e 2179 a23e
00000030: 717a fb3d c61c 9c3f 59c3 943f 0375 63be
00000040: 7838 a7bf f90a d8bf 92a3 0e3f 8286 403f
00000050: 7447 293f 52ef cebf 5f64 92be 53ab e23f
00000060: e320 4d3f 4b4d 26bf 36e8 56be aefb 613e
00000070: 5535 b43f 74aa ca3f ead9 773f fb3f 59bf
00000080: c51c 0cbf 4ea6 b0bc 1218 fabe e4bd 973e
00000090: 93c6 f33e 26b6 853d 3431 293f 6035 c13e
000000a0: 41c2 8ebd 4c96 473f dda5 b8be b5c1 c83d
000000b0: 26e3 0b3f 3212 1140 f124 b6bf 142c cebf
000000c0: ad91 28bf 0bcc 503f b38b 853f 53c6 663e
000000d0: 00ae 5ebe 7140 e1be 7141 103f 41ee b5be
000000e0: b707 dabe 453b 323f d22e bd3f 3377 5a40
000000f0: 5d39 c4bf 877d 9cbf 7dd1 f13f 2797 13bf
00000100: dc5e 08bf b30a 603f 5aec 8d3f 2bd1 a43f
00000110: 2e12 b7bf 7dee 2040 55c0 d9be b72d 913e
00000120: ba51 cdbf 3351 fcbe fcdf 0dbf 43d7 dcbe
00000130: 9e6f 78bf 0d05 873f c137 eebd 7db8 393f
00000140: f532 8ebd 0344 223f fc0e 5dbf ad31 323d
00000150: d377 503f 0091 cbbe 768b 8e3f e237 9d3e
00000160: f564 33be b3c5 0c40 6634 f2bf 4891 97bd
00000170: 078f 89bf 781a 72bf e3fc fa3d 2921 243f
00000180: e2c5 cc3f 3d63 b2bf 4857 a93e 9aef 063f
00000190: 47e5 25c0 c0e4 d6bf b611 23be 737a 833e
000001a0: 5d3f 5b3e f8f5 fe3d 7065 913e f786 e33e
000001b0: 68b4 fc3e f89e 50bf 5d94 583f 6405 7ebf
000001c0: 5568 78be 08bb 1ac0 1a2b cfbb 1a55 e4bd
000001d0: dec0 833f cb12 9d3e d584 69bf 9482 73bd
000001e0: ac02 1abf e888 11bf f570 f73f 6498 c2be
000001f0: 2aaf c23d a171 953f 7ac3 7c3f 0fcb aa3f
00000200: 13a4 5ebf 15a4 efbe c978 4dbf 10b4 163f
00000210: b0fa 1d3f 6fbe ef3e 261f f83f d565 87bf
00000220: b241 50bf f414 b8bf e026 d13f 4bdc 483e
00000230: e5da c7bf 6ee7 dabe 0385 2ebe b66f 94be
00000240: 60c5 1a3f fbc3 713f 6015 043f 4863 2c3e
00000250: a6ae 793f 169b cfbd 8349 5f3f 856a 57bf
-1.0359249 -1.2449744 -0.30231473 -0.3512538 0.9467312 0.55229276 -0.21112083 -2.1728847
0.34962174 -1.3086039 0.3027283 0.3173304 0.12279213 1.2196281 1.1622115 -0.22212605
-1.3064108 -1.6878349 0.5571834 0.7520524 0.66124654 -1.6166785 -0.28592202 1.7708534
0.80128306 -0.6496169 -0.20987019 0.22068664 1.4078776 1.5833268 0.96816885 -0.8486325
-0.547314 -0.021563675 -0.4884649 0.29637063 0.47612438 0.06528883 0.66090703 0.37736034
-0.06970645 0.7796371 -0.36064044 0.09802572 0.54643476 2.2667356 -1.4230024 -1.6107202
-0.65847284 0.81561345 1.0433258 0.22536592 -0.21746063 -0.43994477 0.56349856 -0.35533336
-0.4258401 0.6962169 1.4779913 3.4135253 -1.5330006 -1.2225808 1.8892056 -0.57652515
-0.53269744 0.87516326 1.1087754 1.2876333 -1.4302423 2.5145562 -0.4252955 0.2835519
-1.6040566 -0.492807 -0.554199 -0.43132982 -0.97045314 1.0548416 -0.11631728 0.7254713
-0.06943313 0.6338503 -0.8635099 0.043504406 0.8143284 -0.39759064 1.113631 0.30706698
-0.17518981 2.1995666 -1.8922241 -0.07400757 -1.0746773 -0.9457164 0.122552656 0.641131
1.5997889 -1.3936535 0.33074403 0.5270935 -2.592119 -1.6788559 -0.15924725 0.2567936
0.2141089 0.124492586 0.28397703 0.44438908 0.4935639 -0.8149257 0.84601384 -0.99226975
-0.2425855 -2.4176655 -0.006322277 -0.11149044 1.0293233 0.306784 -0.9121831 -0.0594507
-0.60160327 -0.5684953 1.9331347 -0.3800689 0.09506066 1.1675302 0.98735774 1.3343219
-0.8696911 -0.46804872 -0.8026243 0.58868504 0.61710644 0.46824977 1.9384506 -1.0577952
-0.81350243 -1.4381394 1.6339989 0.19615285 -1.5613676 -0.42754692 -0.17042927 -0.2899148
0.6045742 0.9443967 0.51595116 0.16834748 0.9753212 -0.10137002 0.87221545 -0.8414691

input_embeddings.embeddings.Cultural.weight f4 [43, 8]
00000000: bea1 5bbe 64df 90be 7812 ed3f 72ef 423f
00000010: b265 0dc0 d45f a9bf aded 973e e332 9dbf
00000020: 53e0 2b3e 1bcc 823f 3300 b0bf d223 033f
00000030: fd44 4abf f1e2 5c3f d773 2cbe 0097 bbbf
00000040: c304 6f3f 4f85 c3bf f803 203f 8315 653e
00000050: 6e22 2a3e 1396 5fbf e0b5 283f cc20 fbbf
00000060: 6ad0 aa3f f59a 80be 289b 3d3f a5d5 823f
00000070: 19cc ca3e 6b55 c5bf 5d5a 0440 d542 0c3e
00000080: 633c 04bf 2427 e1bf ed77 e4be f40b c7be
00000090: d36b 29bf 7593 cabf 5b37 52bf 297a 02c0
000000a0: 5a28 8abf b74b 49bf c359 12bc 431f c43e
000000b0: fb2d 76be 0303 9b3f 4953 bb3d 190d 61bf
000000c0: 3a50 fb3e f437 6fbd 10aa a73f 4e27 7bbe
000000d0: 7672 08bf aef5 38c0 a54c babf 248d 7b3f
000000e0: bbe3 233e 6d12 3abf 7508 e03f 7e9a c43e
000000f0: 84a6 843f 1d2b b23f 9840 d6bc 9db6 37bf
00000100: 513c 24bf f2ad da3f fb79 57bf b396 10bf
00000110: 97d6 2e3e 5285 f63e 4628 083f 0d4d 933f
00000120: 989c 8cbf 10c4 dbbf 9c69 bf3f fb91 ba3d
00000130: f1e9 ccbf 84d9 6abb 0de7 13bf 946e 2d3f
00000140: 2777 9c3f 660d 69be cf42 bdbd 481f 363f
00000150: 4e0f f73e a3cc 423e fe57 0e3e 859a 243f
00000160: e986 023a aba9 81bf 9106 233f 2a48 903f
00000170: 2056 0d40 d534 6cbf fe45 1bbf 8243 1ebf
00000180: a5fc c53f 2a34 41bf 2a22 273e f5de b93f
00000190: 21de 0040 fa35 113f 6c7c 23bf 456c 0cbf
000001a0: a9d1 aa3e 232e 22bf 32ec 6d3f aee8 fe3e
000001b0: 7f92 4bbf bc37 993f 5638 853e 2c83 1fbf
000001c0: b852 60bf 8841 2fbf 406e 3d3e 264f 8dbf
000001d0: 91f7 35bf b599 09c0 1b01 26bf 4e20 053f
000001e0: 2641 543f 2536 f4ba 488b c63e 2613 e6bf
000001f0: 4e48 92bf 13a1 f33d 0664 203f ff9e a83f
00000200: 78be c3bf 117e aa3e b580 aebf 3dd3 08be
00000210: 9489 83be eadd a2bf 5cf5 133f da2e a2bf
00000220: df20 87bf ebf5 a83e 5793 48bf 85cb 55bf
00000230: 3dca 3bbf 5af4 fd3e 94f0 c33e 542f 1f3f
00000240: 3252 b4bf cbce 5cbf c791 973f dc9a e0bf
00000250: df51 f73e 9d1d 853f 5c7b d43e 14b8 95bf
00000260: fcd0 9cbe b82d e9be d288 613f d27d bcbe
00000270: b387 30bf 77df e4be 7976 b0bf 9866 e3be
00000280: b7a8 9d3f ff87 373f 8435 b03e 769e 9d3e
00000290: 6d2f 32c0 daac 5bbf cf52 063f b02a bd3e
000002a0: 8a7e 8cbf 6796 71bd b52b 5fbe ef44 59be
000002b0: 2b7f 1a40 a8ae cb3f 6ccf 7abe 3e10 b9bf
000002c0: 08eb 07bf 3b83 63bf 9bf3 aebf ae39 c8be
000002d0: ad1f a1be ec70 98bd 1da2 113f cb6c cabf
000002e0: 6f9b c33e a32e 10c0 2632 4cbf 74c4 d0bf
000002f0: 78d4 1e3f 4993 bfbf 7250 253f 8172 b9bf
00000300: 9d2d 953e a476 31be a1a2 f13d dffe a13f
00000310: 15eb 9d3f d16b b7bd 597c 0e40 039e d53d
00000320: 4695 0e3f fb32 683d c695 bc3e 8581 d7bf
00000330: fc6e 983f 9ecb 2240 c58b 943e 128b 9c3e
00000340: 7435 87bf b73a 0840 cb77 cc3d c903 293f
00000350: 0e34 7fbf d3ce a8bd 2fa7 bbbf 9163 e4bf
00000360: 4388 eabf 1fc6 9fbd a44f fabf 7eba edbf
00000370: 08d0 0b40 5c76 83bf 42cd f7be 610c c83f
00000380: 2611 a43e e51a 3cbf a9a1 b1bd 96f4 ee3f
00000390: 3818 06bf fd93 413f 79b2 353f a4b9 c13f
000003a0: f339 1abf dfdc 3cbe 3102 f43e a2b1 eabe
000003b0: 88bc efbf cf28 373f a5a0 17bd da9d b9bf
000003c0: 7438 0bbf 9bb4 bdbf e1b5 2dbf 5026 883f
000003d0: 455a 10c0 0e81 c63e 477f 04bf 8c1c 6abd
000003e0: 0dab 233f 0115 653f b8de ecbd cb15 31be
000003f0: 6cdb b5be 7f3a 8b3f 9b44 4cbd b9b8 70bf
-0.21448418 -0.28295434 1.8521261 0.76146615 -2.209332 -1.323237 0.2967352 -1.2281154
0.16784792 1.0218538 -1.3750061 0.5122653 -0.7901152 0.86283785 -0.16841064 -1.4655457
0.9336664 -1.5275058 0.62506056 0.22371487 0.16614696 -0.8733837 0.6590252 -1.9619384
1.3344853 -0.25118223 0.74064875 1.0221449 0.3960884 -1.5416692 2.0680153 0.1369737
-0.5165464 -1.759007 -0.44622746 -0.38876307 -0.6618015 -1.582625 -0.82115716 -2.038706
-1.0793564 -0.78631157 -0.008932534 0.383051 -0.24040978 1.2110294 0.09146745 -0.8791061
0.49084646 -0.05840297 1.3098774 -0.24526712 -0.53299654 -2.889995 -1.455464 0.9826224
0.16004841 -0.72684366 1.7502581 0.38399118 1.0363317 1.3919407 -0.026153848 -0.7176302
-0.64154536 1.7084334 -0.841705 -0.5647995 0.17074047 0.4814859 0.5318645 1.1507889
-1.0985289 -1.7169209 1.4954104 0.09109875 -1.6008893 -0.0035835216 -0.5777443 0.67746854
1.2223862 -0.22759017 -0.09241258 0.7114148 0.48253864 0.19023375 0.13900754 0.6429828
0.00049792096 -1.0129904 0.63681895 1.1272023 2.2083817 -0.92268115 -0.60653675 -0.6182176
1.5467726 -0.7547022 0.16321626 1.4521166 2.0135577 0.56722987 -0.6386173 -0.54852706
0.33363083 -0.6335165 0.9293853 0.49786896 -0.7952041 1.1970134 0.26019543 -0.6230953
-0.8762622 -0.6845937 0.18499088 -1.1039779 -0.7108088 -2.1500065 -0.64845437 0.5200242
0.8291191 -0.0018631859 0.38778138 -1.7974594 -1.1428316 0.11895957 0.62652624 1.3173522
-1.5292501 0.33299306 -1.3633028 -0.13361831 -0.256909 -1.2723973 0.57796264 -1.2670548
-1.0556906 0.3300012 -0.7834982 -0.8351367 -0.73355466 0.49600488 0.38269484 0.6218159
-1.4087584 -0.8625304 1.1841363 -1.7547259 0.4830465 1.0399662 0.41500366 -1.1696801
-0.30628192 -0.45542693 0.88099396 -0.36814743 -0.6895706 -0.4470174 -1.3786155 -0.4441421
1.2317113 0.7169189 0.3441583 0.3078496 -2.7841446 -0.85810626 0.52470106 0.3694663
-1.0976117 -0.058981325 -0.21794017 -0.21217702 2.4140117 1.5912676 -0.24493188 -1.4458082
-0.53093004 -0.88872117 -1.3668092 -0.39106506 -0.3146948 -0.07443413 0.5688799 -1.5814451
0.38204524 -2.2528465 -0.7976402 -1.6309953 0.6204295 -1.4966823 0.64575875 -1.4488069
0.29136363 -0.17330414 0.11798597 1.2655905 1.2337366 -0.08956111 2.2263396 0.10430529
0.55696523 0.056689244 0.36833018 -1.6836401 1.190887 2.5436778 0.29012886 0.30574852
-1.0563188 2.1285837 0.09983786 0.660214 -0.99688804 -0.082425736 -1.4660395 -1.7842885
-1.8322834 -0.078014605 -1.9555554 -1.8572538 2.1845722 -1.0270495 -0.48398787 1.5628778
0.32044333 -0.7347854 -0.08673412 1.8668392 -0.52380705 0.7561644 0.7097545 1.5134778
-0.60244673 -0.1844363 0.47657922 -0.45838648 -1.872941 0.71546644 -0.037018437 -1.4501297
-0.54383016 -1.4820741 -0.6785565 1.0636692 -2.2555096 0.38770336 -0.5175671 -0.05715613
0.6393288 0.89485174 -0.11565918 -0.1729347 -0.35518968 1.0877227 -0.049870115 -0.94031864

input_embeddings.embeddings.National.weight f4 [61, 8]
00000000: 3def 3abf 2955 843e 4bb6 d4bf bf39 18c0
00000010: 62cf 0a3e 134f f2be 2a31 90be f763 f6bd
00000020: 86b3 7a3f 6b36 453f 67f9 4e40 48b3 dbbf
00000030: e589 fc3e 8c50 d1be 7d85 c53e e093 9a3f
00000040: ff7e b53f e441 373f 5376 10bf f5de a6bf
00000050: 36ea 16bf 9bd7 1ac0 aac4 893e 8ab2 f0bd
00000060: 08c5 303e ea1e 1040 7355 12bf b184 b33e
00000070: e114 f73e 12b3 f83f 970c edbe 877a 0f3e
00000080: b7ee 5e3e 1ee6 903e 9f80 0d3f 5784 d33e
00000090: d04d 16bf 5dbd ba3f 5d01 a1bf a876 743f
000000a0: abe4 b2bd bb87 5cbf 0732 8dbe 0a46 cfbf
000000b0: a478 393f a15f 0740 aefe df3e 7a60 11bf
000000c0: b2f7 42bf ecb7 be3d 7c1f b0bf 7649 94bf
000000d0: 3c07 523f 84fe 413e 22ed 43be ee20 a73f
000000e0: e344 2f3e 3491 723e c084 60bf 53cf 2ec0
000000f0: dac1 08bf 4a3b 7cbe 1b09 133e 3b3b fa3e
00000100: 5715 903e 4309 81bf 227d 5a3f 6427 cb3f
00000110: f8a0 c2bd a4f3 b6be c900 573e ab7b 48be
00000120: 6fdb 5c3e 1fcd 1540 1cba af3f 9833 99be
00000130: 4370 aa3e 7b74 1f40 de37 24c0 4107 1540
00000140: f71d d1bb 22a4 7bbf 9886 853f e5eb c7be
00000150: 93a3 a5be f8fa 433f 6b4c 91bf 860b 1640
00000160: c52e 54bf 15cc 0cbf 9b42 f2be a7e4 bcbd
00000170: dad0 0b40 457a 2fbe 94ce 82bf e0b4 6e3e
00000180: 5de6 ffbe 9df6 18bf 187f 74bf 6f6b 3bbf
00000190: 3b76 bcbd 40f0 8a3f b619 ac3f 2dbb 75be
000001a0: fd28 39bf 582c c3bd 2fe1 12c0 26d8 353f
000001b0: 4ff6 a83e a7d8 0b3e 0bb0 a33f 7e46 a1bf
000001c0: 927d df3e 445b 89bf 7ae3 7c3e e9be 66be
000001d0: 8bd0 f93e 1f16 cb3f 7f84 353f b323 82be
000001e0: 9ac7 b83e ab36 5c3f 2c0d abbf 1b39 9e3f
000001f0: c398 bcbe 80c1 1140 8086 ac3e 68f2 0640
00000200: 3d5c 9bbf 4787 1940 7e96 35bf cb34 953f
00000210: a52d 07bf d4a9 433f 0982 0340 634e e2be
00000220: b7ce dcbe e256 f8be 2a7d ab3e d942 6fbf
00000230: 4fcf 4e3f 21ee 1abf e36f 733e 0a1b 1d3e
00000240: 5ecd 673f 4ed1 273f e426 b3bf 25ab 00c0
00000250: 68e8 2ebe 6773 223f 7f82 d5bf 8bf5 513f
00000260: 37ed 68be 7df0 b23f e24d da3e bd69 603e
00000270: 23ab 86bf 2b02 89bf fc65 5f3f be0f a63e
00000280: 5981 703f aeeb 773f ec03 8cbf 2eea 0abf
00000290: 2cf8 67be 72d3 9bbf cc74 983f 0062 54be
000002a0: 60ec acbf 195e 873f a188 83bf d52e 73be
000002b0: 9055 eb3f 23ce 16c0 a34c cd3e dcaa 4ebe
000002c0: 6d47 243f 8bd4 863f 5247 9d3f 49f5 ccbf
000002d0: e188 33bf d406 93bf 2154 023f d38c 233f
000002e0: 8a22 7c3e 6a8d 893e 7770 ccbd 81e9 cf3f
000002f0: 56bf febd 242a abbf 217b 64bf fb66 dabe
00000300: edeb 3d3f ec2c ad3d fa8f 67bf bb12 fe3e
00000310: df15 f7be 3da2 aebf 69af ca3f 079b e63e
00000320: cb8d 01c0 a53d 093f ac24 1f3f 0c2b c5be
00000330: c977 c73e 1960 d0be 2d09 0840 1359 3abe
00000340: 640c bbbc f901 f03e 8b80 2e3f 68bf d8bb
00000350: 3a38 d1be 18fc 2bbf 8787 e43f 054d 73bf
00000360: dc40 86bf 389d 91be 3b25 95bf 74e4 073f
00000370: a22b 5b3e e2b9 6f3f 7ffb a43f 7534 01bd
00000380: 4578 dbbf 9f81 1a3f 66ca a63f 51ce b33f
00000390: 177e e4be 41b7 9a3f cc99 15bf 68c2 d43e
000003a0: fd96 61bf 1d08 07c0 68a1 f23e 025b c3be
000003b0: f68a 54bf fdb0 d63f 1884 f43e 5550 90be
000003c0: 5fa2 d83e 6209 1c3e 005b ca3f 9c49 bf3e
000003d0: 0c10 de3f 22aa e53e a073 cbbf 68f0 0fbf
000003e0: f2b8 1e3c 6f35 543f 925a bcbc 2c48 243d
000003f0: 2482 1d3f 1390 cbbf 1765 0bbf ded9 f6bd
-0.730213 0.25846222 -1.6618131 -2.3785245 0.13555673 -0.47325954 -0.2816251 -0.120307855
0.9793018 0.7703616 3.2339723 -1.7164087 0.49323955 -0.40881765 0.38578406 1.2076378
1.4179381 0.71584916 -0.5643055 -1.3036791 -0.5895113 -2.4194095 0.26907855 -0.117528036
0.17262661 2.2518868 -0.57161635 0.35062173 0.48258117 1.9429648 -0.46298668 0.14011584
0.2177075 0.28300565 0.55274385 0.41311905 -0.5871248 1.4589039 -1.2578541 0.95493555
-0.08735021 -0.8614461 -0.2757723 -1.6193249 0.7244971 2.1152117 0.43748993 -0.56787837
-0.76159203 0.09312424 -1.3759608 -1.1584918 0.8204229 0.18944746 -0.19133428 1.3056924
0.17116122 0.23688203 -0.8770256 -2.731404 -0.53420794 -0.24631992 0.14358942 0.48873314
0.2814128 -1.0080951 0.8534719 1.5871396 -0.095033586 -0.35732758 0.20996393 -0.19578426
0.21568082 2.3406446 1.3728671 -0.29922175 0.33288774 2.4914844 -2.5659099 2.3285677
-0.006381746 -0.9829732 1.04317 -0.3904716 -0.3235136 0.7655482 -1.1351446 2.3444533
-0.82883865 -0.54998904 -0.4731644 -0.092232995 2.1846223 -0.17136486 -1.0219293 0.23311186
-0.4998044 -0.597513 -0.9550643 -0.73210806 -0.09202238 1.0854568 1.3445346 -0.23997183
-0.7232817 -0.09529942 -2.294994 0.7103294 0.3300042 0.13656865 1.2788099 -1.2599638
0.4365049 -1.0730977 0.2469615 -0.22533764 0.48791918 1.5866126 0.709053 -0.2541786
0.36089784 0.86020917 -1.3363395 1.2361177 -0.36835298 2.2774353 0.33696365 2.1085453
-1.2137524 2.3988817 -0.7093276 1.1656736 -0.52804023 0.7643101 2.0548117 -0.4420043
-0.4312646 -0.48503786 0.3349393 -0.93461376 0.8078508 -0.60519606 0.2377315 0.15342346
0.9054774 0.6555375 -1.3996243 -2.0104458 -0.17080843 0.6345734 -1.6680449 0.82015294
-0.2274674 1.3979641 0.42637545 0.21915336 -1.0520977 -1.0703787 0.8726499 0.32433885
0.9394737 0.96843994 -1.0938697 -0.5426358 -0.22653264 -1.2173903 1.1910644 -0.20740509
-1.3509636 1.0575591 -1.0276071 -0.23748334 1.8385487 -2.3563316 0.40097532 -0.20182365
0.6417149 1.0533613 1.228739 -1.6012355 -0.70130736 -1.1486459 0.5090962 0.63886756
0.2462255 0.26865703 -0.099823885 1.6243135 -0.12438838 -1.3372235 -0.8925038 -0.42656693
0.7418812 0.08455834 -0.90454066 0.49623665 -0.48258874 -1.3643261 1.5834781 0.4504015
-2.0242794 0.5360969 0.6216533 -0.38509405 0.38958576 -0.40698317 2.12556 -0.18198042
-0.022833057 0.46876505 0.6816489 -0.0066146143 -0.4086321 -0.6718154 1.785386 -0.950394
-1.0488544 -0.2844026 -1.1651987 0.53082967 0.21403363 0.9364301 1.288925 -0.031544168
-1.7146078 0.60354036 1.3030517 1.4047338 -0.4462745 1.2087175 -0.584378 0.4155457
-0.88121015 -2.1098702 0.47388768 -0.3815537 -0.8302454 1.6772763 0.4775703 -0.28186288
0.4231138 0.15237954 1.5809021 0.37360847 1.7348647 0.44856364 -1.5894661 -0.56226206
0.009687649 0.82894033 -0.022992406 0.04010789 0.61526704 -1.5903343 -0.54451126 -0.120532736

input_embeddings.embeddings.art.weight f4 [2, 8]
00000000: cbef 0c3f f96a 453f fa94 29bf 3deb c73e
00000010: f988 d9bd d399 7dbf 2324 983e b998 10bf
00000020: 2615 863f 7913 63be 1923 553f a210 b13f
00000030: d37a 0cbf 7964 0dbf 2f9c 85be c702 e9bf
0.55053395 0.7711635 -0.66242945 0.3904666 -0.106218286 -0.9906284 0.2971507 -0.56483036
1.0475204 -0.22175397 0.8325668 1.3833201 -0.54874915 -0.55231434 -0.2609572 -1.8203973

input_embeddings.embeddings.pos.weight f4 [4, 8]
00000000: 6b32 193e f759 10bf 6c6a 803f 4b18 97be
00000010: 8682 8e3e 87c7 d93f b93c 1d3d 9e64 733f
00000020: e834 0cbe 0d3e d7bf 4500 d5be 742f 453f
00000030: d48f dc3f 213c 61bf 8be8 b1be 3495 1cbe
00000040: 6c20 9a3d 9add 383e 1ff8 903f a64c a53e
00000050: 7b23 ba3f 27d4 cdbf a28f 9e3f 73a9 8ebf
00000060: 29f2 31bf 011b eb3e 743f 45be 5f2c c53d
00000070: 95b7 743e 3107 9c3f e6c6 35bf d440 97be
0.14960639 -0.56387275 1.0032477 -0.29510722 0.27833956 1.7014016 0.038387988 0.95075405
-0.13692057 -1.6815811 -0.41601768 0.7702553 1.7231393 -0.87982374 -0.3474773 -0.15291291
0.07525715 0.18053284 1.132572 0.3228504 1.4542078 -1.6080369 1.2387583 -1.1145462
-0.6951013 0.4591904 -0.19262487 0.09627604 0.23898156 1.2189695 -0.7100662 -0.29541647

input_embeddings.embeddings.weekday.weight f4 [7, 8]
00000000: 111a c3bf 7776 083e d160 3ebf fe8a 0b3f
00000010: f025 aebe a4e0 2a3f 6c66 09bf b9d3 3fbf
00000020: f98f b23e 5df9 df3e 0249 ac3f 182f 5dbf
00000030: 9e19 b23f 552a f4bf 2908 c53f 56bb 2f3f
00000040: 6be9 3a3f 96b1 25be 660a 893f c506 653f
00000050: afca 16bf a6c7 93bf ed22 14be 5089 f73f
00000060: 18d4 873f c211 b7be 857c 343f 96d6 0e3f
00000070: d0e6 71bf a6b0 2bbe b911 0940 a314 7e3e
00000080: c36c 35bf 737b ab3f 3fd9 593d e50b d5bd
00000090: bd5b aa3f 3208 19bf bd98 753e dc7c 003f
000000a0: 63da 0fbe 5b70 a23f cb83 c9bf 3d24 0b3e
000000b0: 8d64 f3bd 3332 b33f efbf 863e e24e 3d3f
000000c0: 8099 82bf 75ab 823e e418 a3bf 02c0 003e
000000d0: 9efe 93bf ae31 0f3f aaf1 1ebf b5ba 88bc
-1.524233 0.13326441 -0.7436648 0.5450896 -0.3401332 0.66749024 -0.5367191 -0.7493244
0.34875467 0.43744937 1.345978 -0.86399984 1.3914068 -1.9075419 1.5393115 0.68645227
0.7301242 -0.16181025 1.0706298 0.89463454 -0.5890302 -1.1545303 -0.14466448 1.933878
1.0611601 -0.35755736 0.705025 0.5579618 -0.94492817 -0.16766605 2.1417067 0.2481256
-0.7086908 1.3397049 0.053185698 -0.10402659 1.3309246 -0.5977813 0.23984046 0.5019052
-0.14048152 1.2690538 -1.5743345 0.13588043 -0.11884413 1.3999695 0.2631831 0.7394849
-1.0203094 0.25521436 -1.2741971 0.12573245 -1.1562078 0.5593518 -0.620875 -0.016690591

input_embeddings.embeddings.snap.weight f4 [2, 8]
00000000: bd7a f63e b4f0 3dbf 1540 383b 6ad2 d23e
00000010: 7aae 03be 1cef b43f fad6 4ebf 0b87 c8bf
00000020: aaef 903d 67dd 6e3f 2f64 0440 6ec5 d0bd
00000030: fa7c 39bf cdff d73f cd58 d5be 3702 1ebd
0.48140517 -0.7419541 0.0028114368 0.41176158 -0.12859526 1.413547 -0.8079678 -1.5666212
0.07076962 0.93306583 2.0686147 -0.10193907 -0.72456324 1.6874939 -0.41669312 -0.03857633

prescalers.time_idx.weight f4 [8, 1]
00000000: 5e9b d8be 6daa 21bf 9b02 d1be 4296 2d3f
00000010: fcf0 15bf 37d8 1fbf 61a5 c9be 65d0 f03d
-0.42306036 -0.63150674 -0.408223 0.678074 -0.5857084 -0.6243929 -0.39383987 0.11758498

prescalers.time_idx.bias f4 [8]
00000000: 37a5 a73e eab9 5d3c 4207 2ebe 80d0 04bf
00000010: 9b21 75be 46ab 04bf e83c 653f 8e0f 87bf
0.32743236 0.013533095 -0.16994956 -0.51880646 -0.239386 -0.5182384 0.8954606 -1.0551622

prescalers.relprice.weight f4 [8, 1]
00000000: 43b0 14bf 96c8 64bf 047d 51be 3e8d 573f
00000010: 7c44 623f 88ae 76bf 005f 883d fabd 093f
-0.58081454 -0.8936857 -0.20457846 0.84199893 0.8838575 -0.96360064 0.06658745 0.53805506

prescalers.relprice.bias f4 [8]
00000000: f2e6 053f bb02 3a3f 9280 b0bd fc1d 17bf
00000010: 926e 3f3f 1997 f4be 19d4 1d3f 78b4 96be
0.5230552 0.72660416 -0.08618273 -0.5903013 0.7477809 -0.47771528 0.6165176 -0.29434562

prescalers.doy_sine.weight f4 [8, 1]
00000000: 7148 9d3e 4f98 473f a673 503f cae8 47bf
00000010: e0d6 0dbf 54ec b9be b763 14bf a8bd 623f
0.3071933 0.7796678 0.81426466 -0.7808958 -0.55406 -0.36313117 -0.5796465 0.8857064

prescalers.doy_sine.bias f4 [8]
00000000: 3592 07bd 5d08 2ebf e598 bfbe 07fd edbe
00000010: c431 b23e 61e9 7cbf 7c49 58bf 4da4 88bf
-0.03309842 -0.6798151 -0.37421337 -0.46482107 0.34803593 -0.9879361 -0.8448713 -1.0675141

prescalers.doy_cosine.weight f4 [8, 1]
00000000: 1fc1 f63e 48a9 d93e 0620 31bf d071 553e
00000010: 8809 593f ad2c c33d 6c39 6ebe da04 2a3e
0.48194215 0.42511964 -0.6918949 0.20844197 0.8478017 0.095300056 -0.23264092 0.16603413

prescalers.doy_cosine.bias f4 [8]
00000000: 9a05 55bd 395b f93e 4db5 1bbf bc3a 183f
00000010: 88f0 003f 21b8 38bf cc72 673f a982 663f
-0.052007295 0.4870241 -0.6082352 0.5946462 0.5036702 -0.7215596 0.9040954 0.9004312

prescalers.relative_time_idx.weight f4 [8, 1]
00000000: 640e f0be 9cca 37be cf67 113f 45e6 5bbf
00000010: 2660 853e aee9 b43e 34e5 093f 4bb6 4cbf
-0.4688598 -0.17948383 0.56799024 -0.8589824 0.26049918 0.35334533 0.5386536 -0.79965657

prescalers.relative_time_idx.bias f4 [8]
00000000: 043a 3ebf be73 b33e 5138 9d3e 32cb 59bf
00000010: 9b69 e8be 0ca5 86bf 4432 1cbf f37d 05bf
-0.74307275 0.35049242 0.30707029 -0.85075676 -0.4539307 -1.0519118 -0.610142 -0.5214531

prescalers.sales.weight f4 [8, 1]
00000000: 0458 4f3f 7ed6 72be d1fc 0a3f 8635 5e3f
00000010: ef43 fa3e 056a 51bf 5097 033f 31f6 fc3e
0.80993676 -0.23714635 0.5429202 0.8680042 0.48879954 -0.818024 0.5140276 0.4940658

prescalers.sales.bias f4 [8]
00000000: fede 5c3f 8ee3 8abf 0ed7 0f3f 6e07 663f
00000010: 709e 53bf 1555 04bd 8cbf 753f ff2c 4cbf
0.8627776 -1.0850694 0.5618752 0.89855087 -0.8266363 -0.032307703 0.959954 -0.7975616

causal_lns.weekday.weight f4 [8]
00000000: efb2 7f3f 369d 743f 441a 803f 49b8 663f
00000010: defa 6d3f 4d32 833f 440e 803f d1d1 893f
0.99882406 0.95552385 1.0008016 0.90124947 0.9296092 1.0249726 1.0004354 1.0767156

causal_lns.snap.weight f4 [8]
00000000: 9a52 6c3f 2a90 813f 28de 843f a233 7a3f
00000010: d0d5 803f a4d2 8a3f b209 733f d6cc 773f
0.9231354 1.012212 1.0380297 0.97735035 1.006525 1.0845532 0.9493667 0.9679693

causal_lns.relprice.weight f4 [8]
00000000: 6f7f 6f3f 9464 733f 0e57 743f d1ee 733f
00000010: b4c6 673f c78a 7c3f e1ac 8d3f 06f0 7d3f
0.93553823 0.95075345 0.95445335 0.9528628 0.9053757 0.9864926 1.1068383 0.9919437

causal_lns.National.weight f4 [8]
00000000: 31a4 8d3f e1a8 8f3f 1b1b 813f c754 853f
00000010: 6975 7e3f 6e1c 813f a87e 953f a161 693f
1.1065732 1.1223413 1.0086397 1.0416497 0.99397904 1.0086801 1.1679277 0.91164595

causal_lns.Cultural.weight f4 [8]
00000000: e747 7e3f 9a97 833f 8077 853f 8fd0 7d3f
00000010: 671f 8a3f d4b4 843f a346 813f 0413 7c3f
0.99328464 1.028064 1.0427094 0.9914636 1.0790833 1.0367684 1.0099682 0.98466516

causal_lns.Sporting.weight f4 [8]
00000000: 3229 803f 17ee 873f c289 783f 22c9 783f
00000010: 24b5 893f 15aa 813f b4fc 793f 227c 7f3f
1.0012572 1.0619534 0.970852 0.97181904 1.0758405 1.013003 0.9765122 0.99798787

past_ln.weight f4 [8]
00000000: ba2c 8e3f 0c51 6b3f b762 8e3f 229a 753f
00000010: e43a 893f b70c 953f c3a7 8e3f 7f4d 8c3f
1.11074 0.9192054 1.1123875 0.95938313 1.0721097 1.1644505 1.1144947 1.096115

post_lns.weekday.weight f4 [8]
00000000: 7659 713f 3fe4 873f e5fe 773f 497e 803f
00000010: 0cb0 6a3f b2a9 883f 17e4 903f 909d 893f
0.9427713 1.061653 0.96873313 1.0038539 0.91674876 1.0676787 1.1319607 1.0751209

post_lns.snap.weight f4 [8]
00000000: e5d8 723f 0f15 763f 386b 823f 7604 703f
00000010: 74f0 7a3f 6577 803f 42e7 753f 46ac 703f
0.94862205 0.9612588 1.018897 0.93756807 0.9802315 1.0036436 0.96055996 0.9401287

post_lns.relprice.weight f4 [8]
00000000: a4da 743f 5a4d 913f 4ca5 8d3f 988f 933f
00000010: 097d 8a3f 9f36 823f 15e4 933f d22c 913f
0.9564612 1.1351731 1.106607 1.1528196 1.0819408 1.0172919 1.155398 1.1341803

post_lns.National.weight f4 [8]
00000000: d9a7 903f 60fd 8b3f f27e 843f 3cca 813f
00000010: 29a5 853f 4218 883f 4dc7 943f f44a 923f
1.1301223 1.0936699 1.0351241 1.0139842 1.0441028 1.0632403 1.1623322 1.1429124

post_lns.Cultural.weight f4 [8]
00000000: 1b96 803f 7dad 8b3f 723c 863f 562c 733f
00000010: 1602 7e3f 3e18 833f 5b27 833f 6fc9 853f
1.0045809 1.091232 1.0487196 0.94989526 0.9922193 1.0241773 1.0246385 1.0452098

post_lns.Sporting.weight f4 [8]
00000000: 8e74 803f 5493 833f 4a4b 753f 6061 793f
00000010: 7cc6 803f 77bc 823f 3afd 733f abcd 813f
1.003557 1.0279336 0.95818007 0.9741421 1.0060573 1.0213765 0.9530827 1.014089

trend_block.gru.weight_ih_l0 f4 [24, 8]
00000000: 225a b13e a08d 133e c115 a03e 4ce8 013f
00000010: b8ac bb3e 60dd c93d 24a7 4f3e 69ee 4d3d
00000020: 79da 35be e0df fbbd ccf5 483d de2e 1dbe
00000030: 5e18 b83e 8817 743d ef6a b53e c6f2 df3d
00000040: 647b b9bd c9db 8b3d bdee 5e3e a642 5d3e
00000050: cd23 803e 36cb 99be 67f0 5a3d 78a5 093e
00000060: ce1b 053c d877 55be 7412 a63e 5d4e 7d3e
00000070: 8518 3bbc 93b5 26be 1684 09be f4d7 d0be
00000080: 3537 d23d 8e82 48be 8da6 7b3e 9fa7 69be
00000090: 01d0 86bd c8af e03c 574a 1c3e 48b3 a23e
000000a0: daa5 c03e ed0f 723d b386 edbd 7af2 0abe
000000b0: 3481 72be 16d3 bbbd 6f88 003f 6c51 53be
000000c0: 6e2c ca3d 00f3 7dbe 63b6 3e3e 4db5 893e
000000d0: e480 6fbe ecf3 a1be 3040 c63e 6eb6 26bd
000000e0: e089 c63d 2b09 003e 9601 0c3d 9920 94be
000000f0: f61b 9dbe 9de7 f43d e6b9 ae3d e3d7 74be
00000100: 31ce 42bd f662 75be fb30 18be f095 57be
00000110: 4c31 733e 0abc 643e 1dca 2dbe 4e62 42be
00000120: 9d12 d23d e540 3bbd 2ed9 443e 87e9 283d
00000130: a787 9ebe 9d1c 463d 7d1b 84bd 42f2 9f3e
00000140: a837 12be f601 3b3d 2333 c53e 493b 3dbe
00000150: 049b dabd 6c37 933e 54b3 8cbe 8906 c23e
00000160: f651 693e 5dc4 d73e 7a62 613c 4eb0 753e
00000170: 44d3 6abe efc0 c9bc 055f b73d a602 9a3d
00000180: 9532 1e3e 2491 bc3e 8512 3dbe 4cdd 543e
00000190: 1a76 933d 5024 263e b8fe 0f3e 3663 d7bd
000001a0: 8943 19be 8221 453e 8c39 09be f859 903e
000001b0: 64dc 53be 2d18 45be 7c18 1b3e 51fc 77bc
000001c0: 2d79 86bd 60b3 633e 8786 82bd 3c79 2e3b
000001d0: cdad ce3e 8cee eabd 028f 8dbd a2d0 30be
000001e0: ddcd 833e 59f6 c13e 11b6 07bd c478 38be
000001f0: 575e 62be 3a24 9b3e 66fd 88bd 7f23 a13e
00000200: e160 ac3e 7d14 973e 4319 cf3e f708 fabd
00000210: b034 513e 6bde 87be 2cba a53e 6fef 2abe
00000220: f0bb 083e eb00 2cbe 3745 65be 9194 8e3d
00000230: 40dd b23d 3af2 8cbd f95f aa3e 8ce2 70be
00000240: bc22 883e 55b4 c4bd c9d0 503e cf31 da3c
00000250: 9651 a03e 538a 313e ef64 df3e fad9 e7bd
00000260: a6d3 9a3e 5036 8ebe a157 fabd 3590 c5b9
00000270: d398 393d 899d b7be 4114 81bd 763e 81be
00000280: dc25 bfbe f30d 84bc 8be8 543e ae46 573e
00000290: 2436 33be 808d a3be 74a9 9cbe 7471 113d
000002a0: 579e 633e 6a39 80be 6fd2 79be a1c3 7abd
000002b0: dac0 483d f0a9 a0be 9690 9abe 69f2 b63e
000002c0: 686e 89be 4f09 07be da4d 36be 0d37 8ebe
000002d0: b977 fabd 7f93 453e a214 74be 006d 9c3d
000002e0: b800 e53d 0a6e 91be bc8a b03e 6c00 743e
000002f0: 2c13 9f3e 5643 62be db07 993e b77b ddbe
0.34639078 0.14409494 0.31266597 0.5074508 0.3665521 0.09856677 0.20278603 0.050276194
-0.17759122 -0.1229856 0.049062535 -0.1534991 0.3595609 0.059592754 0.35433146 0.10934977
-0.09056738 0.0682903 0.21770759 0.21607456 0.25027314 -0.3003785 0.05345192 0.13442028
0.008124305 -0.20846498 0.32435954 0.24736924 -0.01141942 -0.16280203 -0.13429293 -0.4078976
0.10264436 -0.19581053 0.24575253 -0.22817849 -0.06582642 0.027427569 0.15262733 0.31777406
0.37626535 0.05909722 -0.115979575 -0.1356906 -0.236821 -0.09171121 0.5020818 -0.20636529
0.098717555 -0.24799728 0.18624263 0.26896134 -0.23389012 -0.3163141 0.38720846 -0.040701322
0.09694266 0.12503497 0.0341812 -0.2893112 -0.30685395 0.11958239 0.08531551 -0.23910479
-0.04755992 -0.23963532 -0.14862435 -0.2105329 0.23749274 0.22337356 -0.16971631 -0.18982813
0.102574565 -0.045716185 0.19223472 0.041238334 -0.3096287 0.04836713 -0.064505555 0.31239516
-0.14279044 0.045656167 0.38515577 -0.18479647 -0.10674098 0.2875322 -0.27480567 0.3789561
0.22785172 0.42142 0.013756389 0.23993036 -0.22932154 -0.02462813 0.089536704 0.075200364
0.15448983 0.36829484 -0.18464096 0.20787543 0.072002605 0.1622479 0.14062011 -0.1051697
-0.14967169 0.19251063 -0.13400859 0.2819364 -0.20689541 -0.19247504 0.15146059 -0.0151358405
-0.06566081 0.22236395 -0.06373315 0.0026622554 0.40366974 -0.114712805 -0.06912042 -0.17267087
0.25743 0.3788326 -0.033132616 -0.18014818 -0.221063 0.30301076 -0.06688957 0.31472394
0.33667663 0.2950782 0.4044896 -0.12208741 0.20430255 -0.2653688 0.323686 -0.16692899
0.13352942 -0.16797225 -0.22389685 0.069619305 0.08733606 -0.068821386 0.33276346 -0.23523921
0.26589 -0.09604708 0.20392145 0.026635079 0.31312245 0.17337923 0.43631694 -0.113208726
0.302396 -0.27775812 -0.12223745 -0.0003768221 0.04531176 -0.35862377 -0.06302691 -0.25242966
-0.37333572 -0.016119933 0.20791833 0.21023056 -0.17501122 -0.31943893 -0.30598032 0.035508588
0.2222837 -0.25043803 -0.2439668 -0.061221723 0.049012043 -0.31379652 -0.30188435 0.3573182
-0.26842046 -0.13187145 -0.17803136 -0.27776375 -0.122298665 0.19294547 -0.23835996 0.076379776
0.11181778 -0.28404266 0.34480846 0.23828286 0.31069314 -0.22095999 0.29888806 -0.4325845

trend_block.gru.weight_hh_l0 f4 [24, 8]
00000000: 96ad 2c3e a01c 153e 28be bf3d 22be c43e
00000010: 12c6 023b 78c5 83be 7d9b a8be aa1a b1bd
00000020: b9fc b33d 77b6 5ebd 99be e43e bdba bd3e
00000030: 06df bb3e 85fc 67be 185f 53be 92f6 4d3e
00000040: 067c 0a3f 93ee 013f 166a 9e3c 60ad f8bd
00000050: 75f8 42be e005 a3be 333c c83d 294d 903e
00000060: 16d7 e73e 4677 e73e 0927 593e c0e6 12bd
00000070: 1457 c03e d730 3a3e f658 3bbd 6896 a2bd
00000080: 73d6 803e 7262 6c3c 01e3 673e 2f0c f63d
00000090: 32fb 1c3e dc99 89be faec 47be f3bb 373e
000000a0: b551 593d 5021 43be 40ec e13e 7fe5 083e
000000b0: 74c9 a53e 7830 abbe 923c 313c 94b2 3ebc
000000c0: 9ace f2bc 6e21 113e 80ef c33d a81e c23e
000000d0: e18c 5bbd fb23 243e f5cc 13be 7c2d 833d
000000e0: 0c85 b5bd bdce fdbd 2b03 d23d d146 07be
000000f0: d0ca b9bb ec04 b5bd 969f 4abe 0a87 86bd
00000100: c481 a83e 5453 8a3e d997 44bb 4f2e 85bd
00000110: 31d8 813e 16cf 873e d96d d3be 2b8c 63bc
00000120: 2788 753c 11b6 84bc 42c3 d13e c6fd 3f3d
00000130: 8d4e 923e 042c 60bd 2511 14be e7bb 12be
00000140: 69d7 88bd 005d 763e d266 903e fe64 813d
00000150: 1519 8d3e 3b78 82be 2c64 623d d218 b63e
00000160: 60c0 51bd e8b4 ab3e beb1 d73c 1f76 41be
00000170: 1695 4abe 3993 113e 1557 68be dab5 c43d
00000180: dd16 a43e 36c0 233e 431e 553c 9588 b93d
00000190: 0cd6 69be 4f75 94be 3eea 87be 970c a2be
000001a0: 4e2d 643e acc8 893e 28f7 403d 5bf0 34be
000001b0: 4d0c 653e a4ac 9dbe 3884 74be 7f9d 0fbe
000001c0: 2b6f 1ebe 9907 2d3e 99c2 a2be 8ad5 08be
000001d0: b193 9a3e a297 35be 59df 7bbe b7c3 8bbd
000001e0: 7602 533e e60a 09be 3301 023e 2183 6a3e
000001f0: 11f4 87bb d9d1 7c3c 8b07 adbe 5492 5c3e
00000200: 7e01 b63e bc2b 303e 3abb 6abd ded4 b23e
00000210: 2016 b13e 4ee2 68be aa9c 64bd c0b6 a43e
00000220: bc86 2fbc 9c6f 263e 02f9 0c3f 0051 233e
00000230: 92a6 57be 7c61 f5bd 63c3 a5bc 7e88 e1bb
00000240: 974c a4bb 3091 f53e a9a2 ca3e ea4d f13d
00000250: 1c21 053e 24ec 35be 62ba f7bd dbe8 2c3e
00000260: bb4b c3bd 3775 6a3e 1c41 433e 87cf 263e
00000270: 2f01 95bd 767d dbba 6505 ecbe 06af 503e
00000280: 982f 313e 1e73 27bd 9c7f 87be 6e13 91bc
00000290: 8dc6 ffbc e65a 87be aba5 8ebe 4bf6 983e
000002a0: 408b 703e 52de 813e 159d 903e 65d7 fe3d
000002b0: 2969 183e d30f 8f3e 842e 07be c55a 91bd
000002c0: 5e05 ed3d e1de 36be ae12 dfbe 30c4 d9be
000002d0: 9243 0a3e 95f5 c73e 89d1 f33e 4cb8 4fbd
000002e0: 62c5 b93e 69b0 0ebe 7ae6 85bd 9676 29be
000002f0: d97b af3e 37f9 cdbd f919 a8be 7754 693e
0.16863093 0.14561701 0.09362441 0.3842631 0.0019954485 -0.25736594 -0.32931128 -0.08647664
0.087884374 -0.05437323 0.44676664 0.37056533 0.3669359 -0.22654922 -0.20641744 0.2011359
0.54095495 0.5075466 0.019337695 -0.12142444 -0.19040091 -0.3184042 0.09777107 0.2818387
0.45281285 0.45208186 0.21206297 -0.03586459 0.37566435 0.18182693 -0.045739137 -0.07938844
0.25163612 0.014427768 0.22645189 0.120140426 0.15330198 -0.26875198 -0.19523993 0.1794279
0.053056438 -0.19055676 0.44125557 0.13368796 0.3238026 -0.33435416 0.010817664 -0.011639256
-0.02963953 0.14172909 0.095671654 0.37914014 -0.05360115 0.1602935 -0.14433654 0.0640516
-0.08863267 -0.12392948 0.102545105 -0.13210608 -0.005669929 -0.088388294 -0.1978744 -0.065687254
0.32911503 0.270167 -0.0029997735 -0.06502973 0.25360253 0.26525182 -0.41294745 -0.013888399
0.0149860745 -0.016200097 0.40969282 0.046872877 0.28575554 -0.054729477 -0.14459665 -0.14329492
-0.06681711 0.24058914 0.28203446 0.06318091 0.275582 -0.25482354 0.055271313 0.3556581
-0.051208854 0.33536458 0.026329871 -0.18892716 -0.19783434 0.14216317 -0.22689469 0.09604998
0.32048693 0.15991291 0.013007703 0.09059254 -0.22835559 -0.2899575 -0.265459 -0.3165023
0.22282907 0.26910913 0.047110707 -0.17669813 0.22367974 -0.30795777 -0.23878562 -0.14024924
-0.15472095 0.1689743 -0.3178909 -0.13362709 0.30190805 -0.17733625 -0.24596919 -0.06824439
0.20606408 -0.13383064 0.1269577 0.22901584 -0.004148968 0.015430891 -0.33794817 0.21540195
0.35548013 0.17204183 -0.05730746 0.3492803 0.34587193 -0.22742578 -0.05581347 0.32170677
-0.0107132755 0.16253513 0.55067456 0.15948868 -0.21059635 -0.11981484 -0.02023477 -0.006882726
-0.005014013 0.47962332 0.39577225 0.11782439 0.13000911 -0.17765862 -0.120960966 0.16885702
-0.09535929 0.22896276 0.19067806 0.16290103 -0.072756164 -0.0016745764 -0.46097866 0.20379266
0.17303312 -0.04088127 -0.26464546 -0.01770946 -0.031222606 -0.26436538 -0.2786077 0.29875407
0.2349062 0.2536493 0.28244844 0.12443427 0.14883865 0.2794176 -0.13201338 -0.07097391
0.11573289 -0.17858459 -0.4356894 -0.42532492 0.13502339 0.39054552 0.476208 -0.05071287
0.36283404 -0.13934483 -0.065381005 -0.16549143 0.34274176 -0.100572996 -0.32832316 0.22786127

trend_block.gru.bias_ih_l0 f4 [24]
00000000: 62ae db3d da46 d1bd 3f3b 983e 3f99 2c3e
00000010: cf80 92be 1a68 f7bd 36ec 8b3e f8da bb3e
00000020: 41e1 b33d b963 f7bd 0269 503e d199 8b3d
00000030: cf43 a9be 5b3d b9bd 5fe2 d23d d336 893e
00000040: d1c1 933c d856 843e eb04 b8bd 9f10 d93e
00000050: 8dd2 633e e6b7 1f3d 4183 8d3d 5b89 603e
0.1072662 -0.10218592 0.297327 0.16855334 -0.28613898 -0.12080403 0.27328652 0.36690497
0.08783198 -0.120795675 0.20352557 0.068164475 -0.33059546 -0.09044906 0.10297083 0.2679964
0.018036755 0.25847507 -0.08985313 0.42395493 0.22248287 0.03899374 0.069098 0.21927397

trend_block.gru.bias_hh_l0 f4 [24]
00000000: f6cd fd3c dcca f83d ecae 823e 62bd c43c
00000010: 3eb7 9c3e 0edc c6bc aa3a 55be cbdd 8fbd
00000020: 80c4 89be af3e b23e 79ee 00be d30f 78be
00000030: 45d5 72bd fbe4 cbbd 3eeb 22be a0fa 6a3e
00000040: c01f a4bd 8f05 8a3e 5034 d23e 8ea6 bf3d
00000050: 4212 033e 6b43 69be de41 2f3e 744c e33e
0.030981999 0.12148067 0.2552408 0.024016086 0.30608553 -0.024274852 -0.2082316 -0.070247255
-0.2690773 0.3481345 -0.1259097 -0.24224786 -0.05928542 -0.09955784 -0.1591005 0.22947168
-0.08013868 0.26957366 0.41055536 0.0935794 0.12799934 -0.22779624 0.1711497 0.44394267

trend_block.param_projection.weight f4 [3, 8]
00000000: 63a4 26be 7d2e 4c3d cfce 24bf afdf 93be
00000010: c23d 3cbd a2e9 14be 52ca eb3e 5417 adbe
00000020: 2134 8ebe f28c efbe 2a03 8cbd 54b5 d8be
00000030: e2aa 15be 73f4 843e ea2c f13e d617 2ebd
00000040: ba75 73be fc16 9dbe 05a9 9c3c 2a82 85bd
00000050: 33cf 773e b52c 583e ec03 e83e eace bebe
-0.16273646 0.049849022 -0.64378065 -0.28881595 -0.045957334 -0.14542249 0.46052796 -0.3380686
-0.27774146 -0.4678722 -0.06836541 -0.42325842 -0.14615968 0.2596775 0.4710458 -0.0425032
-0.23775378 -0.30681598 0.019123564 -0.065189674 0.24200134 0.21110804 0.45315492 -0.37267238

trend_block.param_projection.bias f4 [3]
00000000: f761 b73d 2f82 8ebe 1ce3 36be
0.08954232 -0.27833697 -0.17860073

multi_attention.c_attn_q.conv.weight f4 [16, 8, 3]
00000000: 1396 97bd 6366 9f3a 7953 0f3e a2a9 6a3e
00000010: c4ef cabd c428 4d3c 1b58 84be 3172 ccbc
00000020: 599f 0b3e 51d2 543e 86a7 4d3e c236 073e
00000030: 15d5 b13d 4dc2 0f3e 18b9 193c 2db2 353e
00000040: 211d 3e3d 9b81 76be cbf2 593e 90ea 453d
00000050: fc20 563d 2783 08be a326 d7bd a9ce b2bc
00000060: d808 14be 5ee0 4fbe dc05 0ebe 83b0 92bd
00000070: 25e5 d23d 7533 c83d 77b4 45be e364 05bd
00000080: 137f 57bd 2d56 72bd cd1c a43c e20d c9bc
00000090: a6da da3d 55d0 debd 0b16 1d3d 6380 a2bd
000000a0: f623 51bd c604 223e c61f f1bd 7874 10bd
000000b0: cbd6 423e c277 cb3d 80c5 9abd 2023 d9bd
000000c0: f7d5 13be 8b7e cabd 10ff a03d 73a1 87bd
000000d0: b318 0b3e 58d1 37be 9350 16be 2cfb 393a
000000e0: 6865 dc3d 6d1b 603e 2812 343d 2a7b c03c
000000f0: 0f58 93bc d951 253e 2c95 96bd eae5 b6bc
00000100: acb9 14be 0e94 3cbe 37eb e63d 5c70 0c3d
00000110: b00a 323e 8160 1b3e 2f8d d83d ff66 c73d
00000120: a03a 49bd 35b8 d33d d6bc 793d 5680 8a3c
00000130: 5377 95bd 4f75 3e3b 2792 423d f03f 9abd
00000140: 272f dc3d 6d6a b9bd b4ba 0d3e a110 c5bd
00000150: ecac 13be 8fde 2dbe 8b3f 283e 5a77 04be
00000160: 274b e93d e8ce c03d 1381 cc3d 3bd9 523d
00000170: 241c 953d 1893 563e 7c2b 593d cc6a b03d
00000180: 2575 06be b8a9 20bd 8d6b a63c 2c98 75bc
00000190: a954 dfbd ddaa 62be e638 84bc fa2d 083e
000001a0: fe88 623e 85b4 2ebe a70e cd3d a2ff 4bbe
000001b0: 09b2 86be fc9d 29be 51e3 15bd 0e00 ae3d
000001c0: edce 0abe f729 2c3e 2ed7 333e f0e2 acbb
000001d0: 76e3 153e 106e b8bd 4065 c1bd 906b 2cbd
000001e0: 297e b63d dbc8 04be bcdf 37be 75de 603d
000001f0: 17e9 4e3d 6f68 633e 56b0 c2bb a538 cd3d
00000200: a04d 95bd 7d16 9b3d a3f6 1dbc 8648 203e
00000210: 6f03 9a3d 6203 1b3e 6ef7 a63d 1ad7 50bc
00000220: 17d7 403e 7799 aabd 0719 3c3e 6ad6 3d3e
00000230: 17d7 2c3e 2c4c b4bd 4b9c f2bd 1b84 0bbb
00000240: 3b0d 0f3e 5402 003e cf41 db3d dcd9 243e
00000250: 155d 3abc 7571 92bc 2a44 5b3e df60 033e
00000260: f455 cbbd 1904 6cbd a90f 37be 685b b5bd
00000270: 967f e7bd 537d 0d3e 814a 80be 8d44 35be
00000280: 4c11 40be a3f5 ab3d 74b7 18be 124e 0b3d
00000290: 60d0 18be d21e 0bbe 534e 01be 66fa 39bb
000002a0: beae 5a3e d0d6 4b3e 6997 5ebb 919e 35be
000002b0: 17d1 cabc 349c 0abd 3642 ba3b 6653 8c3d
000002c0: 5388 c23d 798e 103d fa5a 993c cf89 d1bd
000002d0: 8b35 7f3c 47d5 173d cab2 0ebe facf 35bd
000002e0: 454b f8bc 5c87 2fbe ee38 203e 9576 f3bc
000002f0: b530 38be 4baf 143e de30 dbbd dd3d 8b3d
00000300: 9220 933e b95f 053d 81a6 b23d 3135 b93d
00000310: ad31 533e a3ff a63b fb87 093d e619 713d
00000320: 040a 673e 137d 54bd a111 db3d 8c76 cebc
00000330: 9d40 863c d8cd bcbc 1997 92bd 7a72 83be
00000340: af08 4abe d064 a33b b5de ba3d ac50 d73d
00000350: fd83 8abc 3f60 9b3d f1dd 9a3d 0fcd 42be
00000360: 1e84 4fbe 58f4 32be 050b a5bc add1 e2bd
00000370: a2f0 88bd 697f d6bc 15bb d93d 703e 8b3d
00000380: 700a 713e 1319 f53d ea34 3dbe 9a26 81bd
00000390: 8152 b2bc c66e 083e 5cc6 a8bd 34e8 1dbd
000003a0: 7ffd b1bd c03e 2a3e c375 afbd b03a ccbd
000003b0: f5ee fe3d aca8 6b3e 2dc2 073d ba03 ebbd
000003c0: 09a5 4f3e 1084 33bd cee8 acbd b44e 2ebe
000003d0: f77f febd a381 1cbe a471 acbd c3aa 24be
000003e0: 9a29 3fbd 92ae d13d 7aac 0cbe 6008 383c
000003f0: 6b85 abbd 30e3 c53d dc54 573e 84f3 82bd
-0.07401671 0.0012161251 0.13996686 0.22916272 -0.09909013 0.012521926 -0.2584847 -0.024956794
0.13635005 0.20783354 0.20083436 0.13204482 0.0868322 0.14038964 0.009382509 0.1774375
0.0464145 -0.24072878 0.21284024 0.0483194 0.05227755 -0.1333128 -0.10505416 -0.021827059
-0.14456499 -0.20300433 -0.13869423 -0.07162573 0.10297612 0.0977544 -0.19307123 -0.032566916
-0.05261142 -0.059164215 0.020033265 -0.024542753 0.10686235 -0.1087958 0.0383511 -0.07934644
-0.051059686 0.15822133 -0.117736384 -0.035267323 0.1902725 0.09934951 -0.075572014 -0.10602403
-0.1443709 -0.098874174 0.07861149 -0.06622591 0.13583641 -0.17950952 -0.14679174 0.00070946175
0.10761529 0.21885462 0.043962628 0.02349623 -0.017986326 0.16144504 -0.07352671 -0.022326428
-0.14523953 -0.18415853 0.112753324 0.03428684 0.1738689 0.15173532 0.10573804 0.09736442
-0.049128175 0.10337869 0.060971104 0.016906898 -0.0729815 0.002906162 0.047502663 -0.07531726
0.10751181 -0.09053502 0.13840753 -0.09622312 -0.14421433 -0.1697943 0.1643049 -0.12936154
0.11391287 0.09414464 0.099855565 0.0514767 0.07280758 0.2095455 0.053019986 0.0861412
-0.13130625 -0.039224356 0.020314956 -0.014989894 -0.109048195 -0.22135492 -0.016140413 0.13298789
0.22122571 -0.1706105 0.1001256 -0.19921735 -0.26307705 -0.16564173 -0.03659374 0.08496104
-0.13555498 0.16812883 0.17562553 -0.0052760765 0.1463755 -0.09005368 -0.0944314 -0.042094767
0.08910782 -0.12967245 -0.17956442 0.05489965 0.05051526 0.22207807 -0.005941431 0.1002057
-0.072901964 0.07572649 -0.009641322 0.15652665 0.07520186 0.15138009 0.08152662 -0.012746597
0.1883205 -0.08330052 0.18368922 0.18538824 0.16878925 -0.08803591 -0.11846217 -0.0021288458
0.13969891 0.12500888 0.10705911 0.16098732 -0.011374732 -0.017876366 0.21412721 0.12829922
-0.09928504 -0.057621095 -0.17877068 -0.08855325 -0.11303632 0.13817339 -0.25056842 -0.17701931
-0.18756598 0.08396461 -0.14913732 0.03401 -0.14923239 -0.13585976 -0.12627535 -0.002837801
0.21355721 0.19906163 -0.003396476 -0.1773627 -0.024757905 -0.033840373 0.0056841625 0.068518445
0.09498658 0.035292123 0.018720139 -0.10231363 0.0155767305 0.03706863 -0.1393539 -0.044387795
-0.030309329 -0.17141479 0.15646717 -0.02971963 -0.1798733 0.14519994 -0.1070268 0.06798909
0.28735787 0.03256199 0.08723164 0.090433486 0.20624419 0.0050963922 0.033576947 0.05886259
0.22562414 -0.051877093 0.10696722 -0.025203012 0.016388232 -0.023047373 -0.07157726 -0.25673276
-0.19729875 0.004986383 0.09124509 0.10513434 -0.01690864 0.07586717 0.07561863 -0.19023536
-0.20265242 -0.17476022 -0.020146856 -0.11075149 -0.06686522 -0.0261838 0.10631386 0.067990184
0.23539138 0.11967673 -0.18477216 -0.06306191 -0.021767857 0.13323507 -0.08240959 -0.038551524
-0.08690929 0.166255 -0.08567383 -0.09972131 0.12447921 0.23013562 0.033144165 -0.1147532
0.202778 -0.043827116 -0.084428415 -0.1702221 -0.12426751 -0.15283827 -0.08420113 -0.16080765
-0.046670534 0.10238375 -0.1373767 0.0112324655 -0.08375057 0.09662473 0.21028465 -0.06394103

multi_attention.c_attn_q.conv.bias f4 [16]
00000000: 2779 9cbc b5c4 f73d 32b2 e23d 8d01 a83c
00000010: 58bf 2ebd ca4e 313c caeb 5b3e 1630 ff3c
00000020: db22 97ba 56c4 50be fb2e b8bd 62a0 2a3e
00000030: 8552 013c f2c4 18bd 635f b13d 9875 06be
-0.019100739 0.12098066 0.11069144 0.020508552 -0.04266295 0.010822007 0.21476665 0.031150859
-0.0011530773 -0.20387396 -0.08993336 0.16662744 0.007893209 -0.037297197 0.08660772 -0.13130796

multi_attention.c_attn_q.proj_back.weight f4 [8, 16]
00000000: dcbe 33bc 62e7 acbd 25dc 053e 2a28 523e
00000010: 9f0d 0b3e d453 363e 842f 5cbe ae0f afbd
00000020: 00ad 873c a5e7 5ebe e4ca 7f3d d43f 3dbe
00000030: 5272 af3d 70b0 563e 69ac 4fbe 1d56 4e3e
00000040: 65f3 273e 4dad ccbd 5a05 883e ee45 6dbe
00000050: 69d2 81be bd58 aebd c030 9abc 961f 61bc
00000060: 8090 93bd c3f4 82be ba40 453c 9eb8 773e
00000070: 28f4 783e ce58 1f3d 2866 0f3d a532 e63d
00000080: ed33 24be 244a bb3d aab1 5ebe cca9 17be
00000090: 7f89 3ebd 531d 5a3e 68f1 2c3d 1e40 a2bd
000000a0: c9c8 913d 2798 83be fba7 7fbd 311a 9a3d
000000b0: 8828 f43c 54e5 c8bc 7636 4b3e 4e7e 65be
000000c0: 8a44 f9bd 47c6 753e 1b1a bc3c a2be 46bd
000000d0: bdff df3d acd4 083e f00e e7bd 40e9 19be
000000e0: 8a62 d5bd 56df f53d 57bd 2dbc 431e 3f3e
000000f0: 233f 5bbe 6800 14be a2c3 1b3e 013f ed3d
00000100: 347e f53d 10d3 453d 910d ccbc 18f7 c2bd
00000110: 14e1 a13d 3043 a1bd 4811 f6bd f955 203c
00000120: 383d 373d 985d edbb 7449 2bbe 8ed9 91bc
00000130: a20e 1bbe 5121 cb3d e4d5 3cbe 3c5f 4b3e
00000140: 07d5 2d3e 190b 63be aacb 393e 0180 7cbe
00000150: 5507 7abc d60a 28be bf3c 89be 7091 ddbc
00000160: 5312 29be c252 483e a920 4dbe b299 623e
00000170: 1a5d 093e efcf 403e 341a d6bd cd45 07be
00000180: d901 bfbd 0c76 5e3e 94ef e9bd 2f38 e2bc
00000190: 9ebb 9cbd 4ac8 6d3d 4ae4 56be 7237 373e
000001a0: 2c71 55be 9fc7 6d3e 10db b0bd 15d4 7abd
000001b0: 938d cfbc 6177 2d3d d4fe 2ebd 563c 7bbe
000001c0: b8c5 a53e 2e38 3f3e 08d3 2b3e 03e1 653e
000001d0: 386f 623d 0867 0fbd 6a33 81be 95f6 66be
000001e0: 193e 50be 5fa2 39bd 196d 573e 1419 79bd
000001f0: 7f2e 52bd ac3d 89bd cdf9 55be cc29 073d
-0.010970797 -0.0844257 0.1307226 0.20523134 0.13579415 0.17805415 -0.21502501 -0.085479125
0.016561985 -0.21768053 0.06244935 -0.1848138 0.08566727 0.20965743 -0.20280613 0.20150037
0.16401441 -0.09993992 0.26566583 -0.23171207 -0.25355843 -0.08513019 -0.018822074 -0.013740441
-0.072052956 -0.25577363 0.012039358 0.2419152 0.24311888 0.03890305 0.035009533 0.112401284
-0.16035433 0.091450006 -0.21747461 -0.14810866 -0.046517845 0.21300249 0.04222241 -0.07922386
0.07118375 -0.2570202 -0.062416058 0.07524527 0.029804483 -0.024523415 0.19844994 -0.22411463
-0.12171276 0.24001418 0.022961667 -0.048521645 0.1093745 0.13362378 -0.11282146 -0.15030384
-0.104191855 0.120054886 -0.010604224 0.18663888 -0.21410803 -0.1445328 0.15211347 0.11584283
0.11986962 0.048296988 -0.024908813 -0.09519786 0.07904258 -0.07874143 -0.12015015 0.0097861225
0.044736117 -0.0072438233 -0.16727239 -0.017803933 -0.151423 0.09918464 -0.18440968 0.19860548
0.16975795 -0.22172202 0.18144098 -0.24658205 -0.015260537 -0.16410384 -0.26804158 -0.027046889
-0.16510896 0.1956282 -0.2003199 0.22128943 0.13414422 0.1882932 -0.104542166 -0.1321022
-0.09326524 0.21724719 -0.11422649 -0.027614681 -0.07652973 0.05805234 -0.20985523 0.17892244
-0.20843953 0.2322068 -0.08635533 -0.061237413 -0.025336063 0.042350177 -0.04272349 -0.24534735
0.3237741 0.18673775 0.16779721 0.22449116 0.055281848 -0.035010368 -0.25234538 -0.22555001
-0.20336188 -0.045320865 0.21037711 -0.060814932 -0.051313873 -0.06701216 -0.20896073 0.032998845

multi_attention.c_attn_q.proj_back.bias f4 [8]
00000000: 4fc4 713e 0cf2 4e3e 91a9 7e3e d23f 9ebd
00000010: 102a ceb8 ef63 c73d 5e69 9cbd aa1e 07be
0.23610042 0.20209521 0.24869372 -0.077270165 -9.83068e-05 0.09735858 -0.07637285 -0.13195291
