hnam_experiments/Fit_and_Predict/models/Favorita/HNAM/lightning_logs/version_3/checkpoints/model-18-0.746.ckpt (torch, 399610 bytes, 216 tensors)

input_embeddings.embeddings.national_holiday.weight f4 [178, 8]
00000000: 7128 9a3e f5a5 883e 0a1e aa3e 4723 913f
00000010: 81dc c33d 91bb f43d c85b 58bf 501f b9bf
00000020: 49c4 d23f 56ff 1cc0 2b5e e33d 9b7d a5bf
00000030: b2e0 22bf b500 5a3f 1396 763f d77e 09bf
00000040: 0c14 88bf 4803 24c0 86e3 99bf 89b1 a2be
00000050: d729 ffbe bacc d3bf e298 2240 8963 4540
00000060: b602 54bf 9796 2b3f 1412 e5bf 74cf 98bf
00000070: bfaf 4e3d 30b8 aebf 3b4c 0f40 9752 1240
00000080: 5ffa 0dbf 9a3b 49c0 58c6 203f 78a1 bc3f
00000090: f313 2040 3db4 70bf b8a6 f4be 93f9 15bf
000000a0: 38a5 073f a0ae 37c0 e637 fdbe a801 2bbf
000000b0: 529d 48be d57e 4b3f 19df 743f ca29 4b3f
000000c0: 58c3 98bf 7d0a 8dbe 94e8 1e40 7e0f 7d3e
000000d0: 3fa0 833f 8081 43bf 5f69 0240 fba4 58c0
000000e0: 7bf1 95bf 5138 1c3f c0a8 09bf 4e87 883f
000000f0: c9f6 d53c d25d c5bf 7a5d 1e3e d502 c33f
00000100: 7ad2 bcbe 3f61 8a3f 4471 933e c0b6 abbe
00000110: 66a7 c8bf 94ba 20bf 071c 063f 4764 d23f
00000120: e7f0 193f efce b83f be96 fb3f b233 cf3f
00000130: a7ec 15c0 f686 b5bf 3102 5cbe 06a5 e9bf
00000140: 60ed 24bf ef6f 823f bb9e 1d40 a0d7 fbbe
00000150: 4148 dfbf 73fb aa3e 7eab 503f e707 2cbf
00000160: 997d 9dbf 19a4 f0be f881 ebbc d698 fd3e
00000170: 0ebf 5abe 8f73 b73f 534b 893e bb4c f43d
00000180: 3333 37be 9167 16bf 4b60 4c3f 3294 a0bf
00000190: 3149 aa3f 1e5b 6c3e 3203 2cbe aae7 83bf
000001a0: b1e6 233f 50e3 f7be 1f91 0d3f f1f1 0fbf
000001b0: f91e bd3e 87e3 0ec0 faa4 da3f 558b 423f
000001c0: 6624 aabe f7e7 593f c288 483f 1dda c5bd
000001d0: 8814 afbd b3cc 11c0 ff17 b7bf f0e5 e63f
000001e0: 8aa4 55bf 3665 323f 664d 2640 2202 c3bf
000001f0: d758 b6bf 95b2 2c40 4ae9 e73e 4339 4d3e
00000200: de70 9cbf 1165 be3f fedc 963d 3534 b43f
00000210: 62f7 09bf 6f15 72bf 36c8 c3bf 789b 293f
00000220: 5d6f 5bbe a7fb 3cbf 2d39 1abf 5da8 e7bf
00000230: 10d4 8f3e e53f 3040 7a66 213d a11a 563f
00000240: e949 b5bf 7b03 8a3e f2c9 a740 d657 9e3e
00000250: bae0 05bf 6792 a5be b0a9 55be 0c28 42bf
00000260: b986 2c3f 8e4e bb3d 7eed 59bf 0b3b f83d
00000270: d440 40be fdd4 e93f 8741 34bd b3bf 6abf
00000280: b0b2 c23e 2f9b 01bf 8667 e23f b814 46bf
00000290: d909 663f 1031 4bbf c513 493e f5e3 5dbf
000002a0: dfc3 ec3e 6c92 323f e3d6 f63f cd67 a03e
000002b0: eba6 0ebe fec1 c8be c29f 4dbf 3b23 68bf
000002c0: 40d3 ad3e 92e9 2bbf a772 923f cb33 4fbe
000002d0: 8f1c 29bf 2d8e f6be 6ec1 c63e 08ca cebc
000002e0: d52f 853c 49cc abbe 57f2 273f 9916 223d
000002f0: db65 94bf adc4 8cbe 4fa3 bb3f d3a7 ddbe
00000300: 3905 ca3e d937 2dc0 6d86 07c0 c16f b13f
00000310: dbbe 163e 8156 1b40 cfbd 8c3e 993a 54bf
00000320: c017 353e d319 e03d 0433 febf e8c1 273f
00000330: aed1 f5be b7e6 433f 68e3 0b3f 7257 6f3d
00000340: 4765 063e b26e 5abf 79bb b2bf 8094 413f
00000350: d0dd 98bf e89a 76bf d45a bf3f c2bd 9f3f
00000360: 9ef3 203f 336a ab3e a295 bebf 4eb0 563f
00000370: dd8d 01c0 5b1a b73e b471 4f3f 64a0 16bd
00000380: 6e53 83bf 0e62 6ebf 8d7a be3e 41af 253f
00000390: 22e3 79bd db90 37bf b9d5 2b3f c4b0 d93e
000003a0: ac8f 1c3f 9289 12be 5862 69be 167f 03bd
000003b0: 5907 63be 9a93 66bc 6c96 12bf 8f52 013f
000003c0: 7939 113f 8b4c e0bf 73a3 2abe 3000 c23e
000003d0: 3be9 8dbf f10b 9fbf 865e 533f 4639 893f
000003e0: 42fc 383f 25df f9bf 22ea f23f 5504 74bf
000003f0: 5784 babe 7f38 b4be 2bc0 183e d5ae b3be
0.3010898 0.26689115 0.33226043 1.1338891 0.09563542 0.11949838 -0.8451505 -1.4462681
1.6466151 -2.4530845 0.111019455 -1.2928957 -0.6362411 0.8515733 0.96322745 -0.5370917
-1.0631118 -2.5627003 -1.202256 -0.31776074 -0.4983661 -1.6546853 2.5405812 3.0842001
-0.82816637 0.67026657 -1.7896142 -1.193831 0.050460573 -1.364996 2.2390277 2.286291
-0.5546016 -3.1442628 0.6280265 1.4736776 2.5012176 -0.9402502 -0.47783446 -0.58583945
0.5298648 -2.8700333 -0.4945671 -0.667994 -0.19591263 0.79490405 0.9565292 0.7936064
-1.1934614 -0.27547064 2.4829454 0.24712941 1.0283278 -0.76369476 2.0376813 -3.3850696
-1.1714319 0.6102343 -0.5377312 1.0666292 0.026118653 -1.5419257 0.15465346 1.5235239
-0.3687933 1.0810927 0.28797352 -0.33537865 -1.5676086 -0.62784696 0.52386516 1.6436852
0.6013321 1.4438151 1.9655378 1.6187651 -2.342569 -1.4181812 -0.21485211 -1.8253486
-0.64424706 1.019041 2.4628131 -0.49187946 -1.7443925 0.33394966 0.81511676 -0.6719956
-1.2303954 -0.47000197 -0.028748497 0.49530667 -0.21361944 1.4332141 0.2681528 0.11928698
-0.17890625 -0.5875178 0.7983443 -1.2545226 1.3303586 0.23081633 -0.16798094 -1.0305073
0.6402388 -0.48415613 0.5529956 -0.5622855 0.36937693 -2.2326372 1.7081597 0.75993854
-0.33230895 0.85119575 0.78333676 -0.096607424 -0.08548838 -2.2781188 -1.4304198 1.8038921
-0.8345419 0.69685686 2.598474 -1.5235026 -1.4245862 2.6983998 0.45295173 0.20041375
-1.2221944 1.4874593 0.0736637 1.4078432 -0.538931 -0.94563955 -1.5295475 0.6625285
-0.214292 -0.7382149 -0.60243493 -1.8098255 0.28091478 2.7538998 0.03940437 0.8363438
-1.416318 0.2695578 5.2434015 0.30926389 -0.5229603 -0.3233826 -0.20865512 -0.75842357
0.6739307 0.091458425 -0.8512801 0.121206366 -0.1877473 1.8268124 -0.044007804 -0.9169876
0.38026953 -0.50627416 1.7687843 -0.77375364 0.89858776 -0.7937174 0.19636448 -0.8667596
0.46243188 0.6975467 1.9284328 0.31329194 -0.13930862 -0.39210504 -0.80321896 -0.9067876
0.33950233 -0.67153275 1.1441239 -0.20234601 -0.660592 -0.48155347 0.3881945 -0.02524282
0.01625816 -0.33554295 0.65604156 0.039572332 -1.1593584 -0.27493802 1.4659213 -0.43292102
0.3945711 -2.7065337 -2.1175797 1.386223 0.14721243 2.4271548 0.27488562 -0.8290191
0.17684841 0.109424256 -1.9859319 0.6553025 -0.48011535 0.7652392 0.5464387 0.058433004
0.13124572 -0.8532516 -1.3963462 0.7561722 -1.1942692 -0.9633012 1.4949594 1.2479784
0.6287173 0.3347946 -1.4889414 0.8386277 -2.0242836 0.35762295 0.8103287 -0.036774054
-1.0259836 -0.9311837 0.37202874 0.6472054 -0.061007626 -0.71705407 0.6712299 0.42517674
0.61156726 -0.14310291 -0.22791421 -0.03210362 -0.22170772 -0.014073277 -0.57260776 0.505166
0.5672832 -1.7523359 -0.16663913 0.37890768 -1.1086801 -1.2425519 0.82566106 1.0720603
0.72259915 -1.9521223 1.8977702 -0.9531911 -0.36429092 -0.35199353 0.14917056 -0.35094324

input_embeddings.embeddings.regional_holiday.weight f4 [19, 8]
00000000: 5cc8 e3bd 0333 d33c cc37 a43d 6840 ccbe
00000010: a57b 85bd 6792 91bc b1f8 cf3e 5a00 923c
00000020: 3976 8d3f 2888 58bf e9ce 31bf 3961 283f
00000030: 8721 cc3e a444 51c0 260c 033f 5790 853e
00000040: d55a 153f d5ea c3be 211c d23f f594 99bf
00000050: aef7 9d3f a0f3 0dbf 38ca 83bf 0e12 a3bf
00000060: 71cd 9f3e 3998 4cbf 3004 4cbf b430 ef3f
00000070: 0518 7bbd 595d 1940 1246 06c0 3d7a bf3f
00000080: a39b 52bf 838f d3bf 8a58 323d 135f d63f
00000090: 2d5f 32c0 698e 33bd 02c0 44be 1772 2540
000000a0: 1558 c0be b144 3cc0 fb3f 0a3f 7789 f53f
000000b0: d6cc f6bf d249 d9bf 41a1 0a40 2d3d ea3f
000000c0: bcce 95bf 111e 17bf 8d78 10c0 1459 0f3f
000000d0: 3074 b2bf 6e52 b43d fd0f 2440 e510 bb3f
000000e0: 1aa0 f7be 00f0 c9bf 4018 d1bf b89a 413e
000000f0: a883 5cbf 1209 1b40 1906 0b40 5189 2c3d
00000100: 2128 c5bf 7f2c 48bf 964b cebf 4369 2cbf
00000110: db90 593f b19c 993e 92c5 0c3f c9cc 1240
00000120: 6d9e c6bd ddc0 0040 80ac 6ebf 5e33 30bf
00000130: 01fa 83bf f8f5 433f dab6 b83e 371f c2be
00000140: 4e5b c33f ff8b 123e bd9b 90bf 0d83 92bf
00000150: deac 3fbf bec6 dc3f 8235 2f3f 40cf 0dbf
00000160: ac73 16bf 9452 763e 6903 94be edd4 d73f
00000170: 7cb1 4cbe 70d6 20bf df05 023f 99a0 223e
00000180: afc7 42bf ba7b 9abf d4d9 59bf 772c 6e3e
00000190: 45b4 a23a 2904 683f 1b7e 763f 6a42 763e
000001a0: e03f 033f e3ee a2bf 7f45 85bf 5a40 653f
000001b0: e2b3 c7bf 2a98 ca3f 61dd abbf 53b5 1240
000001c0: d0e5 903f 9a95 e7bf 7d8b 463e 8c12 143f
000001d0: 65e0 cfbf f04e 0ac0 d3dc b73f 4139 4e3e
000001e0: fef8 dc3f 2a32 8bbf 479a 44bf 4553 00bf
000001f0: e4b0 e23d 7f76 b33f 9028 133d f180 31bc
00000200: e60d 9c3d 47b3 c53f 0a56 bfbf c65a 423f
00000210: 3eae fabf d433 d13f 8499 4cbe d88a eabd
00000220: 5320 c73f 08e4 4e3f a0c5 07c0 b758 a5bf
00000230: 869b 34be 6e38 3240 b369 ccbe a745 3f3e
00000240: fead 85bf e12e 77be 385f e0be 75c5 903f
00000250: 6ef5 f9be cbcb f53d 11c2 093f 83cf 6f3e
-0.111222 0.02578116 0.08018455 -0.39892888 -0.06517724 -0.017770005 0.40619424 0.017822433
1.1051704 -0.8458276 -0.69456345 0.6577335 0.3986933 -3.2698145 0.5119041 0.26086685
0.58341724 -0.382651 1.6414834 -1.1998583 1.2341211 -0.5544987 -1.0296087 -1.2739885
0.31211427 -0.79919773 -0.7969389 1.8686738 -0.061302204 2.3963225 -2.0980268 1.4959179
-0.8226873 -1.6528171 0.04354147 1.6747764 -2.787059 -0.043836985 -0.1921387 2.5850885
-0.375672 -2.9416926 0.54003876 1.9182576 -1.9281261 -1.6975653 2.1660922 1.8299919
-1.1703715 -0.5903025 -2.2573578 0.559953 -1.3941708 0.08804785 2.5634758 1.4614531
-0.48364335 -1.5776367 -1.6335526 0.18906677 -0.8613839 2.4224286 2.1722472 0.042123143
-1.5402871 -0.78192896 -1.6116817 -0.67348117 0.84986657 0.3000236 0.5498897 2.293749
-0.09698186 2.0117714 -0.93231964 -0.6882838 -1.031067 0.76547194 0.36077005 -0.3791444
1.5262239 0.14311217 -1.1297528 -1.1446244 -0.7487315 1.7248151 0.6844102 -0.55394363
-0.5877025 0.24054939 -0.28908852 1.6861855 -0.1998958 -0.62827206 0.5079021 0.15881576
-0.76085943 -1.2069008 -0.85098004 0.2325915 0.0012413344 0.9063135 0.9628617 0.24048772
0.5126934 -1.2729152 -1.0411834 0.8955132 -1.5601771 1.5827687 -1.3426934 2.2923172
1.1320133 -1.809253 0.19389148 0.578408 -1.6240355 -2.161068 1.4364265 0.20139028
1.7263486 -1.0874684 -0.7679791 -0.5012706 0.110688955 1.4020537 0.035927355 -0.010833965
0.076198384 1.5445336 -1.4948132 0.7591976 -1.9584424 1.6343942 -0.19980437 -0.114522636
1.555674 0.808167 -2.121437 -1.2917699 -0.17637452 2.7846942 -0.39924392 0.18678914
-1.0443723 -0.24138977 -0.43822646 1.1310259 -0.4882006 0.12001761 0.53811747 0.23419003

input_embeddings.embeddings.local_holiday.weight f4 [115, 8]
00000000: 0227 b4be 88e8 093f bde6 8a3e a766 3bbe
00000010: 0e6a cb3e 19a4 a13e 5b37 6fbe b2a6 11bf
00000020: e4c7 19bf 2584 f3bd fbf3 28bf 408e d6bf
00000030: fffc c6be 2a99 fb3e 01ad 3240 2a54 183f
00000040: ff26 1cbe 5015 103f 16aa 223f 8d10 c5bf
00000050: 2aee a6bf 7f40 c53f 7236 ee3f f85a cdbe
00000060: 9100 76bf 2556 2f3e 5bbe 23bf 9648 e7bf
00000070: aae9 5b3e 427b ac3f 3767 823f cd53 353f
00000080: 7a6f 033f c94c 22bf b3a2 61be 77f0 28bf
00000090: 5612 abbe 055d 8a3f df1a 0f3f da19 02bf
000000a0: 5671 463f 56c6 41c0 25d4 823f ff53 963f
000000b0: ecf2 e13f 589a 19c0 da69 54be 196f 833e
000000c0: cf0e 8abf cad7 1a3f 40d9 b73f 1306 b9be
000000d0: 67b6 b13e 57f3 e9be 0848 0b3f 7b8a 36bf
000000e0: cca0 07c0 5662 d2bf 59be 093d 93d9 293f
000000f0: 054b cdbf a3b9 753f c9d4 94be 397f ba3f
00000100: 63de d43f dc9d 03c0 fc4e 833e 1893 7d3f
00000110: 96d0 aebe 5b3a d8bf 0d7f 1e3e 60ea b4be
00000120: e2d5 823f 7c46 30c0 c137 c43d 87f9 12c0
00000130: 10de cbbd 9371 81bc cc70 cc3f f712 93bc
00000140: 8793 be3f d327 34c0 7714 b8bf 9925 49bf
00000150: b5e6 c63d 5fb4 a63d 6d4e e43f 6c8c e43e
00000160: 68f7 b43d b241 31c0 ed57 cdbf e450 41bd
00000170: c4f1 023f 2e87 a73f e769 0740 945e 25bd
00000180: 1945 513f f091 6fc0 1f8f 93be e2ae 26bf
00000190: 1f8e 423e a9e8 1abf 56c5 a13f aa0c 823e
000001a0: 8132 903f 01e2 46bf 0758 2d3e 3788 863f
000001b0: be01 c8bf fa8a d5bf e6e7 563d 724c 803f
000001c0: 6d48 483f 1674 293e 106e 28be 29ff 8fbd
000001d0: 0996 a0bd 034a 63bf 73d8 fe3d b745 0d3f
000001e0: 1a1d 3fc0 a301 bcbf 9e8b 0b3e b3a7 c73f
000001f0: 303f bd3f cda3 b3bf b529 f83f 6639 e43e
00000200: 65fe 20bf fe28 a4bf 1390 9e3e fc40 0440
00000210: 5cdd bcbf 40c2 6fbf 18ad fc3d fc2d 963f
00000220: 2b75 333e 2097 9ebe 0e7c 52bf b963 8a3f
00000230: 68dc 9f3e f3e2 91be e8c4 163e 3ad2 a03e
00000240: 3de6 c63d 24b4 89bf 6e6c 853e da4d 1440
00000250: d842 4cbd 0a0c fbbe 0edf 94bf c5f1 883e
00000260: 6093 55be fb50 d33d 6ef3 26bf 2846 3a3f
00000270: 9eea 41bd 3638 14bf 20e0 063f e199 0b3f
00000280: ea3f 593e 01dd a5be 7a8e a23e 9a09 293f
00000290: fd46 39bf 5cbe d6bf 31ea f23e 7289 393f
000002a0: dfb0 5fbf ecfa 3f3f 0d4b f9be 0986 ae3f
000002b0: 5e68 9fbe e866 17bf cee8 99bd 83c4 4a3f
000002c0: 4d12 873e d6d4 873f d76b a13f 0ed4 343e
000002d0: 7d32 ebbe 3ebd 33bf 203e 1dbe 0c57 dbbf
000002e0: 5526 fcbe dde2 3bbe 0aed 543f 1fc2 543e
000002f0: 6ad5 883f 36ff 48bf dc48 47be 8cd7 413e
00000300: d2a5 14bf 5a71 20bf f136 67bf 9c16 bd3e
00000310: 4717 093f 5d09 213f 9252 7f3e 6fe0 f33c
00000320: daf9 5c3f ce33 57bf 9db1 70bf 24d6 813e
00000330: 5142 5cbf 8215 803f 4c0d a73e 3a5f 0ebf
00000340: ff25 153f 8c59 08c0 8a17 42bf 0a98 4e3f
00000350: 8870 35bf cf32 e23e 57ea 553e b749 2b3e
00000360: f59a 7b3d a6e5 1fc0 8f01 6f3f 6721 1e3f
00000370: 76f6 0ac0 6a9a 35c0 23dc f83f c15a 4dbf
00000380: 4c8e 053d 2c5a b33e f7da f23e f52e 04bd
00000390: 6d2b babf 8225 d33f fea2 14bf 6b65 ccbf
000003a0: a63b 24bf 001e 393f f289 b1bf e86e ac3e
000003b0: 7e93 523e ef8a 2d3f ca7e 0240 33ce fbbf
000003c0: c600 03bf 808d c53e 2fd9 903e 274b 1bbf
000003d0: 77a5 f33d 9b16 a73f 8b69 69bf 2ee0 4c3e
000003e0: 002c 15bf 49c8 913f 4787 9d3d 27cd 93bb
000003f0: 73c0 403f 2113 70bf f073 a23f 5171 bcbf
-0.3518601 0.5387044 0.27129164 -0.18300878 0.3972935 0.3157051 -0.2336096 -0.5689498
-0.60070634 -0.11890439 -0.65997285 -1.6762161 -0.38864896 0.49140292 2.7918093 0.59503424
-0.15249251 0.5628252 0.6354078 -1.5395676 -1.3041432 1.5410308 1.8610365 -0.40108466
-0.96094614 0.17122705 -0.63962334 -1.8069026 0.21475855 1.3475115 1.0187749 0.70830995
0.51341975 -0.63398415 -0.22034721 -0.6599192 -0.33412427 1.0809637 0.5590038 -0.50820696
0.77516687 -3.0277305 1.0220991 1.1744384 1.7652259 -2.4000454 -0.20743504 0.25670698
-1.0785769 0.6048552 1.4363174 -0.36137447 0.34709474 -0.45693466 0.54406786 -0.71305054
-2.1191893 -1.643626 0.033628795 0.66347617 -1.6038519 0.95986384 -0.29068592 1.4570075
1.6630367 -2.05651 0.25646198 0.9905257 -0.34143513 -1.6892809 0.15478154 -0.35335064
1.0221522 -2.754302 0.09580947 -2.29648 -0.099544644 -0.015801227 1.5971923 -0.01795338
1.4888772 -2.8149307 -1.4381245 -0.78572994 0.097119726 0.08139872 1.7836434 0.44638383
0.088362515 -2.7696347 -1.6042458 -0.047196284 0.51150155 1.3088129 2.1158388 -0.0403734
0.8174606 -3.7432823 -0.2882013 -0.651106 0.18999527 -0.6051126 1.2638347 0.25400287
1.1265413 -0.77688605 0.16928111 1.051032 -1.5625532 -1.6683037 0.05246725 1.0023329
0.7823551 0.1654819 -0.16448236 -0.0703109 -0.07841117 -0.8878481 0.12443628 0.551845
-2.9861512 -1.4688 0.13627478 1.5598053 1.4784908 -1.4034363 1.9387728 0.44575042
-0.62888175 -1.282501 0.30969295 2.0664663 -1.4755054 -0.93655777 0.123377025 1.1732783
0.17525165 -0.30974674 -0.8222054 1.0811683 0.31222844 -0.2849346 0.14723551 0.3141039
0.09711883 -1.07581 0.26059288 2.3172517 -0.049868435 -0.49032623 -1.1630571 0.26746956
-0.20857 0.1031818 -0.65215194 0.727633 -0.04734289 -0.5789827 0.5268574 0.54531676
0.21215788 -0.32395175 0.31749326 0.66030276 -0.72373945 -1.6776843 0.474443 0.7247535
-0.8737926 0.7499225 -0.48690072 1.3634654 -0.31134313 -0.591414 -0.07515107 0.79206103
0.2638115 1.0611827 1.2611035 0.17659017 -0.45936957 -0.70210636 -0.1535573 -1.713594
-0.49247995 -0.1834826 0.8317419 0.20777176 1.0690129 -0.7851442 -0.19461387 0.18929881
-0.5806552 -0.6267296 -0.9031821 0.36931312 0.53551143 0.6290491 0.24933842 0.029770104
0.86318743 -0.8406342 -0.94021016 0.2535869 -0.8603869 1.0006564 0.32627332 -0.55614054
0.582611 -2.1304655 -0.7581717 0.80700743 -0.70874834 0.4417939 0.20890175 0.16727339
0.061427075 -2.4983916 0.93361753 0.6176972 -2.1712928 -2.8375497 1.944218 -0.80216604
0.032606408 0.35029733 0.47432682 -0.032271344 -1.4544502 1.6495821 -0.58061206 -1.596845
-0.64153516 0.723114 -1.3870223 0.33678365 0.20564076 0.6779012 2.0389886 -1.9672302
-0.51173055 0.38584518 0.28290698 -0.6066155 0.11896794 1.3053774 -0.9117667 0.20007393
-0.58270264 1.1389247 0.07691818 -0.00451054 0.75293654 -0.9377919 1.2691631 -1.4722081

input_embeddings.embeddings.art.weight f4 [174, 8]
00000000: a081 7f3e 6275 aa3e 75b6 afbe 2c53 023f
00000010: ceff 76bf c967 1abe c911 d23e a73a db3d
00000020: a9be 28bf cff7 efbe fa2b f5be 4869 36bf
00000030: d9e0 223f fb6c a03f ecb8 2e3f a5c4 99be
00000040: 6c72 e4be f67a eabc e97c d4be 7c6e 74bf
00000050: 3401 05be 9070 4f3f cf5e 903f 867d 5abd
00000060: 9217 123f 9edb 7dbf 2568 1b3f 3c68 8a3e
00000070: b9e9 97bf d808 6ebf 5ce6 ed3d bcdd e43f
00000080: 0fb6 a4be cce0 4b3f c7f7 dbbf c8e7 a1bd
00000090: 8ca1 053f 6612 d13e c202 353e aa97 d3bc
000000a0: 08a6 1d3e cc98 37be bcd6 8dbf de72 343f
000000b0: 3b42 2e3c 9d0a 173e 0e32 be3e 4abd 6abe
000000c0: b7ec 9fbd 5f13 5fbe 575a 8e3f 223a 203c
000000d0: 1a3f e3bd a8aa 093f 9816 91be 2d05 c3be
000000e0: c464 37be 293c 17bd dda9 1b3f 9cf7 d4bd
000000f0: 02e4 79be 8b62 2e3f d78e 173e 0e3a 0bbf
00000100: e4e7 90be 13e8 2b3f 8077 453e 9d16 10bf
00000110: 0e43 8d3f 7bb7 adbd 1aad fdbd 4254 51bf
00000120: 0308 5abf e4ec efbf 7c9e 813f e2d2 3d3f
00000130: 40da d33f f9ef 71bf 9118 4abe c121 823f
00000140: e56c 963e ae2d c2be b41b e9be 142f a83e
00000150: 31a1 c7be bf26 9d3d cfb1 993d a674 603e
00000160: 761a 863e 367e 95bd 80ee 16be db41 a2be
00000170: ee1f 6bbe 7454 413e 7345 723e b4a2 863e
00000180: b48d 383e 2f59 03bf 5956 813f d9b5 95be
00000190: 316c c5be 5a4c e9be 56ba 1dbf 51e3 dc3f
000001a0: e8b6 78be 4624 203e 6dcb f9be 9221 323f
000001b0: 37c3 1c40 7d95 e53f b928 a4bf daf0 f9bf
000001c0: 9520 bc3e e3ee 493f 7a01 e7be b2f9 1e3f
000001d0: 46cc 0540 65f5 1240 1be5 80be 4c73 08c0
000001e0: c25c 48bf 4417 24bf 70e7 7dbe ad09 ebbe
000001f0: f5f1 a1be 4228 963d 91b9 ae3e 36bc df3f
00000200: 1afc 153f ea20 293f 9702 2cbf 0d31 523e
00000210: 9218 a5bf 2c56 0ebf a724 a53e c2ba fd3e
00000220: 97e7 60bc 6eb0 e43e e65f 73bf 1acb 1c3f
00000230: 5fc6 733e 7408 21be 9b9a a4be e552 723e
00000240: 5537 adbe 620b 833f b32f 95bf e6e5 dcbc
00000250: 08e1 51be 8e39 64bf 1692 bb3e 1c8e e43e
00000260: 2605 dbbe 34cf b8be 7ecd 6bbf 286a 1e3f
00000270: 2352 e33d bbc6 da3d 94af 0f3e 2312 f83e
00000280: de3a 173e 237e 773e f98b b6bf 8584 6d3e
00000290: eb6e 503c b7c3 a2be 82d6 e63d 264a bb3e
000002a0: 69e9 a3be bf8a ac3d 8cc4 953e a4c9 9a3d
000002b0: 1190 c63e 05b3 a9be cf23 52be e001 3b3c
000002c0: 505c e3be fcf2 e43e 698a 79be 397b 033f
000002d0: e47d 3f3e 6ed8 0bbe 3d5f bfba f423 00be
000002e0: 9b70 d3bf f347 07bf bf3a 7ebf 6645 bcbf
000002f0: 51eb 153f 6b12 153f f56f c13e c885 b93f
00000300: 87f3 9f3d c1ef 3cbf d285 323f ff75 833f
00000310: f8a5 5f3f 2cc9 2bc0 8f88 23bf 37db bb3f
00000320: 382c ef3d a5b7 57bf 8012 ef3e c801 253f
00000330: a3d6 1c3f 9e8d e9be f602 1ebf 9f2c d6bd
00000340: e58c 5e3f d72b a0bf ef3b 47be 8c21 6a3e
00000350: e527 96be 6af3 0e3e 0ae6 63be f757 ea3d
00000360: 432e a13f d242 98bf 54e0 d3be 61aa fd3b
00000370: f0fa fabe 645c 043e aa4d 98be b74b 6b3e
00000380: 1590 203f a93d d3be 327e 513f c409 8e3e
00000390: 5f4e 39bf 4a12 113d 7ba5 c5be 2aee b0be
000003a0: b378 8dbe 8b64 1bbf baec b13f 7cd7 173f
000003b0: e3b2 51be 9b78 0cbf 6206 99bf 4f18 803e
000003c0: 77d9 a53e 6d70 57bf 48f1 773f c000 ec3e
000003d0: 2de8 acbe 19ed f03d 31ff c8be 3af3 ebbe
000003e0: 9ab3 ca3e dbe6 a5bf c0fa 8d3f 865c 5b3e
000003f0: e429 4ebf ce52 073f 845d 4fbe a364 efbe
0.24951792 0.3329268 -0.3431889 0.5090816 -0.96484077 -0.15078653 0.41029194 0.107045464
-0.65915924 -0.4686875 -0.47885114 -0.71254396 0.6362434 1.2533258 0.6825092 -0.3003284
-0.44618547 -0.028623085 -0.4150155 -0.95481086 -0.1298874 0.8103113 1.1278933 -0.053342365
0.57067215 -0.99163234 0.60705787 0.2703265 -1.1868201 -0.92982244 0.11616203 1.7880168
-0.3217015 0.7963989 -1.7184991 -0.07905537 0.52199626 0.4083435 0.17676833 -0.025829155
0.15395367 -0.17929381 -1.1081157 0.70487773 0.010635908 0.14750142 0.37147564 -0.2292377
-0.07808822 -0.21784733 1.112132 0.009779485 -0.1109602 0.53776026 -0.2833755 -0.38089886
-0.17909533 -0.036922608 0.60806066 -0.1039879 -0.24403384 0.68119115 0.14800583 -0.5438546
-0.28301919 0.6715099 0.19283867 -0.56284505 1.1036088 -0.08482262 -0.12386532 -0.8176919
-0.85168475 -1.8744168 1.012649 0.74149907 1.655098 -0.94506794 -0.19735934 1.0166551
0.29379955 -0.37925476 -0.45528948 0.32848418 -0.38990167 0.07673406 0.075046174 0.21919498
0.26192063 -0.072994635 -0.14739418 -0.3169087 -0.22961399 0.18879873 0.23659305 0.26296008
0.18022805 -0.5130796 1.0104476 -0.292403 -0.38559106 -0.45566064 -0.6161245 1.7256871
-0.24288523 0.15638837 -0.48788014 0.69582474 2.449415 1.7936245 -1.2824928 -1.9526627
0.36743608 0.7888014 -0.45118314 0.62099755 2.0905929 2.2962277 -0.25174794 -2.1320372
-0.7826654 -0.64098 -0.24795318 -0.4590582 -0.3162991 0.07331897 0.3412595 1.7479312
0.585878 0.6606585 -0.6719145 0.20526524 -1.2898123 -0.5560024 0.32254526 0.49556547
-0.01372709 0.44665855 -0.95068204 0.6124741 0.23806141 -0.15725881 -0.32149205 0.23664434
-0.33831277 1.0237849 -1.1655182 -0.026965093 -0.20495999 -0.8915032 0.36634892 0.4463967
-0.42777365 -0.36095583 -0.9211043 0.6188073 0.11099651 0.10682436 0.14031821 0.48451337
0.1476855 0.24169211 -1.4261466 0.23195083 0.012721757 -0.31789944 0.11271383 0.36580008
-0.32014015 0.08424901 0.29251516 0.07557991 0.3878179 -0.33144394 -0.20521472 0.011414021
-0.44406366 0.44716632 -0.24369206 0.513599 0.18700367 -0.1365678 -0.0014600527 -0.12513715
-1.651874 -0.5284416 -0.9930839 -1.4708679 0.5856219 0.5823123 0.3778073 1.4493952
0.07810121 -0.73803335 0.69735444 1.0270385 0.87362623 -2.6841536 -0.63880247 1.4676274
0.11678356 -0.84264594 0.46693802 0.6445584 0.6126501 -0.45615858 -0.6172327 -0.104577295
0.8693374 -1.2513379 -0.19456457 0.2286436 -0.29327312 0.13960043 -0.22255722 0.11442559
1.2592243 -1.1895392 -0.41382086 0.007741258 -0.49019575 0.12925869 -0.29746753 0.22978102
0.6271985 -0.4125798 0.81833184 0.27741826 -0.7238521 0.035417832 -0.38602814 -0.34556705
-0.2763115 -0.6070029 1.3900368 0.5931318 -0.20478396 -0.5487153 -1.1955073 0.25018546
0.32392475 -0.84155923 0.9685254 0.46094322 -0.33770886 0.11763973 -0.39257196 -0.46084005
0.3959015 -1.2961076 1.1092148 0.21422014 -0.8053267 0.52860725 -0.20250517 -0.46756467

input_embeddings.embeddings.pos.weight f4 [45, 8]
00000000: 0dee 0b3f 3145 493c 9dd0 463f f21c 08c0
00000010: 0f51 aa3f 80dc ecbe e93b 83bf a16d f63e
00000020: bf33 093f 539a 8b3e 19a7 93be 0619 a5bf
00000030: 7d46 323f 91c6 cabe 913b aa3f a6f2 6abe
00000040: 6f0b 173f a7af 5ebf bb8b 99be 05df 733f
00000050: 3792 003f 2686 77bf 546a 193e 0a87 51be
00000060: 38c5 693e 44d5 cebf 3ead 083f 3ae3 533c
00000070: 1238 bc3e 4942 b2bf 828a 153f e934 623f
00000080: fe8e 803f 499c cebe 6b7c 11bf 5d11 97bf
00000090: 246d 2b3f 5ec4 aa3e a15e 233e 6ba9 e9be
000000a0: f5df 383f d7a4 61bd fdb0 efbd 6567 b6bf
000000b0: 26b2 623f bdfa dabe 6646 b93d 8fc1 07be
000000c0: 77eb 983f ba5d cdbf b14d cd3e 938d ef3d
000000d0: 1380 c03e c1b5 8dbf 578f 7cbe 0e9e b73d
000000e0: 2667 3fbf 8486 a3bf f0be a4bf a970 1abf
000000f0: ea8a 353f c037 0ac0 8978 8e3f b6fa 1b40
00000100: b798 223f 90f1 c73e 9e11 49bf d4bb 0dc0
00000110: 760a 7f3f 06ec bf3f be49 1f3f 058d fdbe
00000120: 599c 183e 5218 033c aceb 973c ea0e 00bf
00000130: cda7 29be efef cd3e 466e a83d 0a5b 1b3e
00000140: 74b4 b1be 50d5 73bf b277 e6be 0e96 993f
00000150: 4644 9bbd 9e0b 0cbf 39ee 7f3f 0ad2 7ebe
00000160: 97e1 a7be bfa3 1abf 9a35 46be 67d6 56be
00000170: 2ffd f6be c482 5bbe 0f68 d83f 4883 d73d
00000180: 6666 2dbf 4c00 383f 0465 1e3f b355 6fbf
00000190: 20ee 963f 87ea 99bd aff6 01bf 7108 72be
000001a0: d876 b5be 0eb3 3e3f d1d9 093f a18f 47bf
000001b0: 0d5d b7be 266d 913d 152e 283f bbfc d6bd
000001c0: d7ff 49bf 85b9 d03d e966 dc3d 6289 9cbe
000001d0: 394c b83e b588 10bf 7d72 a13f a921 9abe
000001e0: 223e b6be 1560 aa3e 3de1 013f 431e 26bf
000001f0: 2982 de3e baf0 dabe 6c48 543f 1e74 03bf
00000200: fb9c 213d a44d bc3e 2a5b 0f3e 8670 84bd
00000210: 23d5 24bf b16b a23e 713e c0be 4b03 873e
00000220: ad52 a5be 4ff1 f9bd 3fc7 09bd 7aaa 063c
00000230: eb73 833f 5d95 8bbe f541 ef3e 458b f9be
00000240: 15e6 e0be 466c 7abf deaa fb3e e424 59bf
00000250: 188b bb3f 3dad 3abe ee9b 263f 4c3a f23e
00000260: 7010 f93d c99d c2bf e99b b33f e07b 4e3f
00000270: 731f b33f a809 a4bf 800a db3e 1524 523e
00000280: 9ae4 96bf c4f4 05bf fcad ce3a e632 31be
00000290: b0de cf3f a32d 52bf 930c 9e3e b03a a73e
000002a0: dc10 a6bc 499f 2bbf 5740 84be 9d2a 18be
000002b0: 80d9 563f 514e 853f 1b82 67bd db76 97bd
000002c0: 4eda 82be b427 28be e270 183d b607 563e
000002d0: 2379 7f3f be76 95bf e23c d03e baa0 2dbd
000002e0: 78d7 873e fbcb d33e a523 c33e 8179 90bf
000002f0: 28e8 853c 052b ee3e 2db5 96be d171 923e
00000300: 60ad 4b3e d3aa 4cbe 19c6 edbe b62e 3ebe
00000310: c770 efbd e9c3 533f 2fe4 7a3d 9c9b a5bd
00000320: 8036 c93e ca5b 34bf 45f8 88bd 2942 adbf
00000330: fe5d da3e 3019 563f d5d4 683f dc7e d73e
00000340: 654e ce3d b55e 4c3c 29c2 933e 8b7f 85bd
00000350: c3da 42bf e699 513e bb2a a53e 19ab d73c
00000360: 6722 5abd f5fa 16bf f25e db3e 1deb b0bf
00000370: 6017 403f 8d3a cfbe 1705 233f 1e27 0a3e
00000380: b07f 99be 4084 383f 8e2a a83d 64c5 98be
00000390: c4f7 1abd e636 8b3d 2a03 c13e a520 2bbe
000003a0: e370 e73e 22c7 173f bb5e 9abe 871c 11bf
000003b0: 7807 e5bd 88de 243f ee46 26be a227 02bf
000003c0: 3f57 01be 9de3 933d ef99 a63d 3ee2 2b3e
000003d0: 7aa1 37bf c049 4d3f a561 cebe 20a2 dc3d
000003e0: f9f2 3d3e bc81 3d3e 10b1 74be cd88 933f
000003f0: 9305 29bf a91b c1bd e575 f1be 885c 87bd
0.5466011 0.012284563 0.7766207 -2.1267667 1.3305987 -0.46261978 -1.0252658 0.48130515
0.53594583 0.27266178 -0.28838423 -1.2898262 0.69638807 -0.3960462 1.3299428 -0.22944126
0.5900182 -0.86986774 -0.29989418 0.95262176 0.50223106 -0.9668907 0.14981967 -0.2046167
0.22829139 -1.6158834 0.53389347 0.012932593 0.36761528 -1.3926479 0.5841447 0.88361984
1.0043638 -0.4035361 -0.5683047 -1.1802174 0.6696341 0.3335294 0.15954067 -0.45637068
0.7221673 -0.055088844 -0.1170368 -1.4250304 0.8855308 -0.42769423 0.090466306 -0.1325743
1.1946858 -1.6044228 0.40098336 0.11696925 0.37597713 -1.1071092 -0.24664055 0.089656934
-0.7476677 -1.2775426 -1.287077 -0.60328156 0.7091509 -2.1596527 1.1130534 2.4371772
0.63514274 0.39051485 -0.78542507 -2.214589 0.9962534 1.4993904 0.62221897 -0.49521652
0.14903392 0.008001404 0.018544994 -0.5002276 -0.16567917 0.40222117 0.08224158 0.15171447
-0.34707987 -0.95247364 -0.45013195 1.1998918 -0.075813815 -0.54705226 0.99972874 -0.24884811
-0.327893 -0.60406107 -0.19356385 -0.20980226 -0.4824004 -0.21436602 1.6906756 0.10523087
-0.6773437 0.71875453 0.6187289 -0.9349014 1.179142 -0.07515436 -0.50767034 -0.23636033
-0.35442233 0.74491966 0.53847986 -0.77953535 -0.3581318 0.071008965 0.65695316 -0.10497423
-0.78906006 0.10191635 0.10761816 -0.30573565 0.35995653 -0.564586 1.2613064 -0.30103806
-0.3559428 0.3327643 0.5073431 -0.64889926 0.4345868 -0.42761785 0.82923007 -0.51349056
0.03945635 0.36777985 0.1399962 -0.06466775 -0.6438772 0.31722787 -0.3754764 0.263697
-0.3228964 -0.12204229 -0.03363728 0.008219356 1.026975 -0.27262393 0.4673001 -0.48739067
-0.4392554 -0.9782146 0.491538 -0.84821916 1.4651823 -0.18230148 0.6508168 0.47310102
0.12161338 -1.5204402 1.4031955 0.8065777 1.3993973 -1.2815447 0.42781448 0.20521577
-1.1788514 -0.5232661 0.0015768404 -0.17304572 1.6239834 -0.82100886 0.30868968 0.32661963
-0.020271711 -0.67039925 -0.25830337 -0.14860006 0.8392563 1.0414525 -0.056520563 -0.07395717
-0.25557178 -0.16421396 0.03721703 0.20901379 0.99794215 -1.1676862 0.4067145 -0.04238961
0.26531577 0.41366562 0.38113132 -1.128708 0.016346052 0.46517196 -0.294351 0.2860246
0.19890356 -0.1998704 -0.464402 -0.18572506 -0.116914324 0.8272081 0.06125277 -0.08086321
0.39299393 -0.7045256 -0.06687979 -1.3535815 0.42649835 0.83632183 0.90949756 0.42088974
0.10073546 0.012473752 0.2885907 -0.065184675 -0.76115054 0.20468864 0.32259163 0.026326703
-0.053255465 -0.5897668 0.42845875 -1.3821751 0.7503567 -0.40474358 0.6367964 0.13491485
-0.2998023 0.720768 0.08211242 -0.29838097 -0.037833944 0.067975804 0.37697726 -0.16711672
0.45203313 0.5928823 -0.301504 -0.56684154 -0.11183065 0.64402056 -0.16237995 -0.50841725
-0.12630938 0.07221148 0.08134829 0.16785523 -0.7173077 0.8019066 -0.40308872 0.107731104
0.18549718 0.18506521 -0.23895669 1.1526123 -0.6602413 -0.09429104 -0.4716026 -0.06609446

input_embeddings.embeddings.cluster.weight f4 [15, 8]
00000000: f524 ebbe dc3f 7ebf 1013 13be 91d6 c6ba
00000010: 924c 273f abba dd3e f2cb 7f3e a63e c13e
00000020: 1aad 51be ff19 26bf 1d91 e83e 7ad2 e5bb
00000030: c301 3a3d bd5b 6a3f 9532 44bf 7f5a b73e
00000040: a872 ad3e cf4e 22bf 3784 53bd 73d2 8ebe
00000050: 68a7 813c a290 e0bc cc0c 033f 31b9 85be
00000060: 3c83 76bd c26d 57be 2ab4 cf3d 46ae 8d3e
00000070: f128 423e efa7 e43e cbdd 1abe 17ed 02bf
00000080: f7f7 833e 7165 13be 1a3a 463d 19c0 44be
00000090: 620c f43d 0a48 38bd d5de 9c3d a98d 6fbe
000000a0: c930 46bf 65ff 473f 653a 2d3f dc03 043f
000000b0: dd9c c4be ec7f 28be 6ad8 5fbf 4e28 5d3f
000000c0: 915d ecbd 734c e83c 8925 0dbf 143c 65bf
000000d0: 982d d33e ca33 3abf 0214 333f 3fb5 133f
000000e0: cfca c5be 67ab 1e3f 9c70 4abf 9103 833f
000000f0: 3835 b33d 632e 6fbf 4dbd f23e f042 dcbe
00000100: 9e5d aebe ea05 903e baba d33e 6552 64bf
00000110: a8b8 0fbf 3e9e be3f dce5 20bf ce34 903f
00000120: c73d a0be 01d8 c73e c05d ab3d 1dcf ec3e
00000130: 7201 143e f9c3 f1be 4f0f 12bd ad22 88be
00000140: a216 9d3e ae51 2fbd ee08 dbbd a660 9cbd
00000150: 9cdc 44bd 38ed 28bf 0c34 063f c6a6 87be
00000160: aab9 8ebe 2134 b13f 6faf a2bd 9a95 a93e
00000170: 40c4 32be ac74 c43d 9779 71bf a906 a23e
00000180: fd66 2cbf 8c0b 703f 23bc f23e 290a 5e3f
00000190: ffa6 2ebf 27fa 4b3e 1449 33bf a664 803e
000001a0: 2aa2 4f3e 1f2d 50be d739 0ebe 6cf7 1c3e
000001b0: 4d1a 92be 7940 b9be 968e 143f d782 c0be
000001c0: 0860 813e 0a84 3a3c f37a 47be 3174 803f
000001d0: ec5c 30be 03d7 16be ad8d 07bd ec09 53bf
-0.45926633 -0.9931619 -0.1436274 -0.0015170147 0.6535121 0.4330648 0.24980143 0.3774311
-0.2047619 -0.64883417 0.45423213 -0.007013616 0.045411836 0.9154623 -0.7663968 0.3581123
0.33876538 -0.634015 -0.05163976 -0.27894935 0.015826896 -0.027412716 0.511914 -0.26117852
-0.06018375 -0.21037963 0.101417854 0.27672023 0.1896093 0.44659373 -0.1512367 -0.5114302
0.2577512 -0.14394166 0.048395254 -0.19213904 0.11916424 -0.044990577 0.07659689 -0.23393883
-0.7741819 0.78124076 0.6766723 0.5156839 -0.38400927 -0.16455048 -0.87439597 0.86389625
-0.11541284 0.028356766 -0.551354 -0.89544797 0.41245723 -0.72735274 0.69952404 0.57698435
-0.38631293 0.6198029 -0.7907808 1.0235463 0.08750385 -0.93430156 0.4741005 -0.4301982
-0.340558 0.28129512 0.413534 -0.89188224 -0.5614114 1.4892042 -0.6285074 1.1266115
-0.31297132 0.39031985 0.08367491 0.46251765 0.14453676 -0.47219828 -0.03565913 -0.26588956
0.3068133 -0.042802505 -0.106950626 -0.07635622 -0.048061952 -0.6598697 0.5242317 -0.26494426
-0.27876025 1.3844033 -0.079436176 0.3312195 -0.17457676 0.09592566 -0.94326156 0.31645706
-0.6734465 0.9376762 0.47409162 0.86734253 -0.68223566 0.19919644 -0.70033383 0.2507679
0.20276704 -0.20329712 -0.13889252 0.15328759 -0.2853569 -0.36182 0.5803007 -0.37599823
0.2526858 0.01138402 -0.19480495 1.0035459 -0.17222947 -0.14730458 -0.033094097 -0.82437015

input_embeddings.embeddings.weekday.weight f4 [7, 8]
00000000: 2df8 0d3f ca6c ae3e 5fda a5bc 302f b9bd
00000010: 7199 5e3e af04 19bf 9700 063f ff30 d7be
00000020: fff8 64bf 1d63 cc3e 612e 903e a96b ce3e
00000030: 3725 afbe b987 a2bd 55a1 8b3e e8f8 22be
00000040: 61ff aabe 8e47 0f3f bbce 2b3f eae0 b13e
00000050: 6b8f 44bf 100a 72bf 4794 bb3d 74de 2dbe
00000060: 0d73 d8bf b8fc ccbc b0f4 923e 0b43 a8be
00000070: cf8e f93e fec2 af3e 1584 2a3f 8758 ae3e
00000080: cacd cbbd 4772 ebbe ea91 f03d e867 aa3f
00000090: 43fb d53e 801a d1bf 6771 9fbe 48bf 133e
000000a0: 184e 5f3f 7b9a 22bf 0437 35bf 1c32 febe
000000b0: 7239 a4bd 8183 b23e a684 423f 43af 79be
000000c0: a13a 1d3f 124c 2fbe 458a 47bf 316e 16bf
000000d0: e10d 15be a863 0740 531a c5bf cc34 2e3f
0.5545681 0.34067374 -0.020245729 -0.090422034 0.21738221 -0.5977277 0.5234465 -0.4202957
-0.8944244 0.39919367 0.28160384 0.40316513 -0.3420808 -0.07936043 0.27271524 -0.15915263
-0.33397964 0.5596856 0.6711232 0.34741908 -0.7678134 -0.94546604 0.09159141 -0.1697939
-1.6910111 -0.02502285 0.28702307 -0.3286365 0.48741767 0.34328455 0.6660779 0.34051916
-0.099513605 -0.45985624 0.11746581 1.331296 0.4179326 -1.6336212 -0.31141207 0.14428437
0.87228537 -0.6351697 -0.7078707 -0.49647605 -0.08018769 0.34865955 0.75983655 -0.24383263
0.61417586 -0.17118862 -0.7794536 -0.5876189 -0.14556076 2.1154575 -1.5398659 0.6804931

input_embeddings.embeddings.onpromotion.weight f4 [2, 8]
00000000: 8580 e6bc c1e3 c9be eb44 0c3f f74a a8bc
00000010: 7bb5 afbb 912c de3e d2ec f5bd 1aa3 52be
00000020: 691d 883f c6f9 fe3e 5b81 4cbf 1f4f d7be
00000030: 830c febd 64b3 3f3e 0d71 8dbe c249 f6bd
-0.028137455 -0.39431575 0.5479266 -0.020543559 -0.0053622103 0.43393376 -0.120080605 -0.20570031
1.0633975 0.49799937 -0.7988488 -0.42052552 -0.1240473 0.18720776 -0.27625313 -0.12025787

prescalers.time_idx.weight f4 [8, 1]
00000000: 81e4 8cbc 7a2e d8bb a563 e13d 0f4b 3cbd
00000010: 1d9b 9d3d ea1f 903c 58cf 24bc 05f3 b7bd
-0.017198803 -0.0065973373 0.11005334 -0.04597002 0.07695601 0.017593343 -0.0100592 -0.08981899

prescalers.time_idx.bias f4 [8]
00000000: 76d2 86bf dafa 823e f805 46bf 1d13 bdbe
00000010: 4e20 06bf 9338 a43e 34ac 40bd b63c abbd
-1.0532978 0.2558201 -0.7735286 -0.36928645 -0.52393043 0.32074413 -0.047039226 -0.08361189

prescalers.doy_sine.weight f4 [8, 1]
00000000: a378 b13d 9d62 93bd 440a 0fbd 4a25 2c3c
00000010: 18a7 2f3d 21ba 00bd e4e9 0bbc c816 ca3a
0.08665588 -0.07196543 -0.0349219 0.010506937 0.042883962 -0.031427506 -0.008539651 0.0015418166

prescalers.doy_sine.bias f4 [8]
00000000: ffe7 81bf e59c 2a3e 7eaf 06bf 01f7 5c3e
00000010: 4afd 283f 9ba7 fdbd 0c41 2b3f 70a8 b0bd
-1.0148925 0.16661413 -0.5261153 0.215786 0.6601149 -0.12385484 0.6689613 -0.08625877

prescalers.doy_cosine.weight f4 [8, 1]
00000000: 59d2 d03d acc2 d9bd 11b7 9e3d 7c40 a6bb
00000010: 5869 84be d5ee c43d 16d4 b23c 573e c03d
0.10196371 -0.10632834 0.07749761 -0.005073605 -0.2586162 0.09615866 0.021829646 0.093868904

prescalers.doy_cosine.bias f4 [8]
00000000: 1550 42bf 7914 c73e 1027 923f 6d3d a23e
00000010: f968 c9be abc2 2dbf 3e46 813e 5564 743e
-0.75903445 0.38882807 1.1418171 0.3168749 -0.393379 -0.67875165 0.25248903 0.23866399

prescalers.relative_time_idx.weight f4 [8, 1]
00000000: 3d1f d73f 6d4b b5bf 8435 c13e 5603 3ebf
00000010: c0bc 2f40 66f6 5cc0 3c7e a63f 52f5 30c0
1.6806408 -1.4163643 0.37736142 -0.7422384 2.7458954 -3.452539 1.3007274 -2.7649732

prescalers.relative_time_idx.bias f4 [8]
00000000: af9c 693f d089 19bf 0d5d ef3e 84de 91bf
00000010: 7ebb 3b3f 9e6f 2fbf 6e98 28bf f4a2 71bf
0.91254705 -0.5997591 0.4675068 -1.1396031 0.73332965 -0.6852969 -0.6585759 -0.9438927

prescalers.sales.weight f4 [8, 1]
00000000: 87dd 88bf 9d0a 273e 47a3 023e 0830 593f
00000010: e01a 2dbf d77a 783e 9e1e 8d3f 132d c7be
-1.0692605 0.16312642 0.12757598 0.84838915 -0.67619133 0.2426561 1.1024969 -0.38901576

prescalers.sales.bias f4 [8]
00000000: 5ebb e93e 5495 a53e 9ca7 90be aad2 04bf
00000010: aca1 4cbe 19de 02bf bb46 20be 2198 8ebf
0.45650762 0.3234049 -0.28252876 -0.5188395 -0.19983548 -0.51120144 -0.15651982 -1.1140176

prescalers.dcoilwtico.weight f4 [8, 1]
00000000: ebae 9a3d 224f 58be d150 393d 9de2 c13d
00000010: 84a1 513d 666a 88bc c76b 303d 8acb 24be
0.07552894 -0.21123937 0.04524309 0.09467051 0.051179424 -0.016652297 0.043071534 -0.16093269

prescalers.dcoilwtico.bias f4 [8]
00000000: 9bea fc3f 38b4 8c3f c18a ddbe 06f6 21be
00000010: 5f09 173f ccb5 62bf 22e9 58be 3116 03be
1.9759096 1.0992498 -0.43269923 -0.15816507 0.58998674 -0.8855865 -0.21182683 -0.12801434

causal_lns.weekday.weight f4 [8]
00000000: cdac 1f40 becf e03e 8ea1 103f 7f14 2840
00000010: a4b0 d63f 90da 6d40 2004 bf40 f9db f33f
2.494922 0.43908495 0.5649651 2.626251 1.6772656 3.716465 5.9692535 1.9051505

causal_lns.onpromotion.weight f4 [8]
00000000: 8759 c53f 7b6a 0341 b848 9440 7f39 a740
00000010: 0a20 cd3f 9a8e 08bf 97d0 4040 3dd3 4740
1.5417947 8.213496 4.633877 5.2257686 1.6025403 -0.5334259 3.0127313 3.122268

causal_lns.national_holiday.weight f4 [8]
00000000: 5d75 603f 01d5 9e3f 344e a240 9cfa bb40
00000010: ce91 0c40 8f9f af40 bbee 7740 d960 2e41
0.8767908 1.2408754 5.0720463 5.874342 2.1963992 5.4882274 3.873946 10.898644

causal_lns.regional_holiday.weight f4 [8]
00000000: 1535 1f41 5c5d d140 d9db 8640 df0c 0541
00000010: 233d 223f b00a e43e dbc0 8b41 c4b3 f9bf
9.9504595 6.5426464 4.214337 8.315642 0.6337454 0.44539404 17.469168 -1.9507985

causal_lns.local_holiday.weight f4 [8]
00000000: f7bc 9f3f cafc 1d3f 060c 6340 ac1c db40
00000010: a4dc 4040 31d1 4241 85de a740 2f24 5340
1.2479542 0.6171385 3.5476089 6.84725 3.0134668 12.176072 5.245913 3.2990835

past_ln.weight f4 [8]
00000000: 5664 643f e499 d4bc e9ea 213f fc02 273f
00000010: 5081 3e3f ea54 0b3f 48c0 4e3f b54a e83e
0.892156 -0.025952287 0.6324907 0.6523893 0.74416065 0.54426444 0.8076215 0.45369497

post_lns.weekday.weight f4 [8]
00000000: 2286 103f 34e4 953f d06d 743f 1861 053f
00000010: 92c4 423f 7f57 d73e 109d 2a3e eeae 3c3f
0.5645467 1.1710267 0.9548006 0.5210128 0.7608119 0.42058942 0.16661477 0.7370442

post_lns.onpromotion.weight f4 [8]
00000000: 4b1a 213f 495b 843e 15d2 733f b1b4 623c
00000010: d79f 783f 3329 c03f 6610 303f 1964 6a3f
0.62930745 0.25850895 0.95242435 0.0138370255 0.97118896 1.5012573 0.6877502 0.91558987

post_lns.national_holiday.weight f4 [8]
00000000: c506 a73f 49df ad3f 0344 dc3e a450 ae3e
00000010: 4139 753f c691 9d3e 9bdd ed3e 57d2 74bc
1.3048941 1.3583766 0.4302064 0.340459 0.9579049 0.3077528 0.46458134 -0.014942727

post_lns.regional_holiday.weight f4 [8]
00000000: 88e6 1a3e c4d3 60be 0141 dbbe 9e7b 4dbd
00000010: a6a1 0e3e 92a8 13be 7f25 a13d 3267 073e
0.15127003 -0.21955782 -0.42823032 -0.05016672 0.13928851 -0.14419773 0.0786848 0.1322296

post_lns.local_holiday.weight f4 [8]
00000000: c327 b13f 204d 9d3f 148c 163f 1681 b83e
00000010: ca91 1a3f 0306 fb3c 3939 f03e 1055 ed3e
1.3840259 1.2289162 0.5880749 0.36035985 0.60378706 0.030642515 0.46918657 0.4635396

trend_block.gru.weight_ih_l0 f4 [24, 8]
00000000: d169 d6bf fe04 adbd dbd5 52bf 9101 5bbe
00000010: 7403 da3e ff2f 863f 10a3 a8bf 38bd 1b3f
00000020: 5555 173f 8789 153e ff0f 973e 12d5 cd3f
00000030: eadf d3bf 7a21 7bbf 3bab d3bf dde4 d93e
00000040: ef06 a83f be32 3e3d c7ce e1bf 2fe7 0d40
00000050: 3d0b 03bf 1022 b53f 46be cabf d5b6 93bf
00000060: 16ce 3d3f e211 24be 3b0c 07bf c64c ac3e
00000070: c02b 3d3f 452b 823d cbb7 97bf a409 d63e
00000080: b3e6 9e3f 0fad f43e d2f8 67bf a1df e9bf
00000090: d444 bc39 967f 8c3e 04d3 b4bf e7a7 403f
000000a0: d89c 15bf 2c53 243e 9499 29bf d929 26be
000000b0: c9d6 b93e 286b ab3f 5d55 d3bf 9b0d 60bf
000000c0: 8747 c73e 0c24 9c3d 9c51 40be da97 a4bf
000000d0: ca70 513f 915d 02bf 087f 7d3f 170e ed3e
000000e0: 4311 213e 2aa4 f43e b230 bf3f f1f7 08be
000000f0: 8efa a93f c8ca bfbf a7ba 073f fc07 0cbf
00000100: 5868 403e 4bbf 1c3e eb58 b63e 92b5 a0be
00000110: aeed 4c3f 3e47 10bf 7d48 583d 5ddf a8bf
00000120: 26e7 f9bd 02da 0f3e c385 0d40 2360 f13e
00000130: 1cfc c5bd 6899 4cbf d180 f1be 797f 8fbf
00000140: 43ed ad3f 059c 50be 2050 293f a294 54bf
00000150: 0265 e33f 3796 293e 933a d13c 962b 21c0
00000160: 1cb1 23be a056 46be 6120 1b3f 2ba6 793e
00000170: 60ab 13bf 2128 1f3e f4a7 463e be62 ac3e
00000180: 614b 3d3f 48f9 073f d413 fe3e 7780 4fbf
00000190: ac2e 01bf 2218 3c3f 05bc 1bbf 7f04 193f
000001a0: 6a16 59be 9431 19be 5e98 453f 4709 bdbe
000001b0: b7d2 613f 4ff6 4fbe 2f3b 64bf f50f 9dbf
000001c0: 4080 a8bf c7fb 60be 2f87 94bf f594 a5bf
000001d0: 9565 fb3c b45f 8c3f c939 4ebf a0f7 033f
000001e0: 8d0f 153f 34c8 50bd 46b5 15bf 1f4c 82bf
000001f0: 26eb b83e bfcf 07bf 6eab eb3e 69a6 95be
00000200: 39d0 e0be 210c 263d 23a9 33bf cba4 c13e
00000210: f62a 28bf a111 debd e830 8d3f fe4a 213f
00000220: e8a7 7bbd 6f24 c43c c830 d63e 9d6c b4be
00000230: a90d b33e df31 5dbf 4aca 9f3d ea4a 2bbf
00000240: b103 e13e 0698 15be 0d33 7d3d fe09 d9bd
00000250: 93b4 393d 9b23 debe 0699 a43f 31be d6be
00000260: 43a7 8dbf 3628 96be 6db2 dcbe 3ccc 8f3f
00000270: 14e8 61bf 4ac7 cd3d fbfc 91be 1ddf dabe
00000280: a6ef 1a3f a07e cebd 92f1 513d cbce fcbd
00000290: c3c6 57bd bdca bc3e d386 0d3f 77f3 1bbd
000002a0: 6fe3 c0be 00da 81be 5829 6abf 9a77 293f
000002b0: c72f e9bd 1c89 993f 5f19 18bf 7620 5cbf
000002c0: 8a3f 543d 2e11 75bd 7b20 82be 6f37 ea3d
000002d0: 6e95 ca3d 998c fdbd 9db7 7a3f 7291 2d3b
000002e0: c7fc 433f 6366 89bd 10a4 6c3d 0d28 31bf
000002f0: 034a df3e 506b 70be 5cf9 1dbf 1624 0f3e
-1.6751043 -0.08448218 -0.8235757 -0.21387316 0.4258076 1.0483397 -1.3174763 0.608356
0.5911458 0.14603244 0.29504392 1.6080649 -1.6552708 -0.98097956 -1.653663 0.4255742
1.3127116 0.04643511 -1.7641228 2.2172353 -0.51189023 1.415102 -1.5839317 -1.1540171
0.7414259 -0.16022447 -0.5275304 0.33652323 0.7389488 0.06355909 -1.1852964 0.4180423
1.2414154 0.47788283 -0.90614045 -1.8271371 0.00035909435 0.2744109 -1.4126897 0.752562
-0.5844245 0.16047353 -0.66249967 -0.16226901 0.3629668 1.3392076 -1.6510426 -0.8752076
0.3892176 0.07624063 -0.18781132 -1.2858841 0.8181273 -0.5092402 0.9902196 0.46299812
0.15729241 0.47781497 1.4936736 -0.13375832 1.3279588 -1.4983759 0.53019184 -0.54699683
0.18789804 0.15307347 0.35614714 -0.31388527 0.8005017 -0.56358707 0.052803505 -1.3193165
-0.12202291 0.14048007 2.2112892 0.4714366 -0.09667227 -0.7992158 -0.47168592 -1.1210777
1.3588032 -0.20372017 0.66137886 -0.83039296 1.77652 0.16561209 0.025540626 -2.5182853
-0.1598553 -0.19368982 0.6059628 0.24379794 -0.5768337 0.15542652 0.19400007 0.33669084
0.73943144 0.5311475 0.49624503 -0.81055397 -0.5046184 0.73474324 -0.6083377 0.59772485
-0.21199957 -0.14960319 0.7718562 -0.3692114 0.8821215 -0.20308803 -0.89152807 -1.2270495
-1.3164139 -0.21971045 -1.1603755 -1.2936083 0.030688087 1.0966706 -0.80556923 0.5154972
0.58226854 -0.05097218 -0.58479726 -1.017948 0.36116904 -0.5305137 0.46029228 -0.29228523
-0.4390886 0.04053891 -0.7017996 0.3782104 -0.65690553 -0.10843206 1.103055 0.63005054
-0.061439425 0.023943154 0.41834092 -0.35239115 0.3497136 -0.8640422 0.078022555 -0.66911185
0.4394813 -0.14608774 0.061816264 -0.10597609 0.045338225 -0.4338654 1.2859199 -0.4194198
-1.1066669 -0.29327554 -0.43104878 1.1234202 -0.8824475 0.10047777 -0.2851332 -0.42748347
0.60521924 -0.100827456 0.05125577 -0.1234413 -0.05267979 0.36873427 0.5528385 -0.038073983
-0.37673518 -0.25361633 -0.91469336 0.6619812 -0.11386066 1.1994967 -0.59413713 -0.8598703
0.051818408 -0.059830837 -0.25415406 0.11436354 0.09891783 -0.123803325 0.9793642 0.0026484397
0.7655758 -0.06708982 0.05777365 -0.6920174 0.43611154 -0.23478436 -0.6170862 0.1397861

trend_block.gru.weight_hh_l0 f4 [24, 8]
00000000: 4350 ce3f fae7 acbe d022 ac3e acb5 983f
00000010: d73d aabf 6e7b a9bf 3bea 963e d58b 96be
00000020: 4bec 3d3e b2a7 893e 1854 03bf 6750 63be
00000030: 8145 493f 6911 9bbf 7b97 063f db76 e63f
00000040: ebfa 353f ed67 943f fd51 053e b07f e0be
00000050: 05b7 b23d 22a9 f3be c2bd 07be fb94 b2bd
00000060: 21ae bc3f a8be 9bbe 5fa7 3a3f 7291 34ba
00000070: 8fc7 6bbf 543b e53f d0f5 acbe 09e4 3ebe
00000080: af59 ed3f 6f63 8a3f 361d 2d3f 0e43 92bd
00000090: 4438 8abe 230c 9f3f 6e18 8abe b0d4 303e
000000a0: 3ceb 2fbe 5818 383f 1cf5 fabe 2799 aa3f
000000b0: f801 513d e8cb 4cbe fcf1 0f3f d6fb 4b3e
000000c0: fbc4 2ac0 c18d 1240 b58a 3cc0 178c a2bf
000000d0: 1e32 0c3c b7fd ef3e 18f8 1e3e ef65 19bf
000000e0: f7c3 29be 934a b6bf 9cbb 393f 4ac2 ddbe
000000f0: a6ce babd 9ebc c33f b927 9fbf 6df9 033f
00000100: 264f 3e3f 72cd 41bf 9c6d 753f 9fd7 553d
00000110: aea6 e4bd 1306 f3bd e278 2f3f 94fb 69be
00000120: e5b5 1a3e 3c90 d9bf 6dfe 2c3f 9d3e e5bf
00000130: a919 c13e 3184 833f 4d23 6b3f 9a3d 1cbf
00000140: cfd2 353f 9f7d 43bf e063 b0be 460b a8be
00000150: 36f1 9abf 5aa6 3f3f fec0 01bf 859b d83d
00000160: 9b2d 0a3f 8f85 82bd a7e2 253f d937 82bc
00000170: 65e4 9bbd 1069 91be 343f a23e a39d 98bd
00000180: 46a3 51bf 018b 373f 0e2d 01c0 82e0 b73f
00000190: 8b6c 21bf c601 90be 10b3 c23e d88f 703e
000001a0: ec5f 45bd 2626 ad3e 52ac b13e 6908 b1bf
000001b0: d7b1 7dbe 057d ab3d 0311 a53f 387e 423e
000001c0: f081 e03e 5bc1 f63d afe6 0540 cd14 80be
000001d0: 2e4a 72bf 1677 4ebc 57e0 293f d488 b2be
000001e0: a68d c1bf 2023 cb3f a3d6 8dbf dc52 9a3e
000001f0: 1c26 7a3f f99d 863e bf7c fc3d dd82 f5bf
00000200: 6499 d8bd d197 893e 3edc fabd bef8 9b3e
00000210: 6c91 ee3e 4e7c a0bc f7d4 463f 7a2c f6bf
00000220: 6d79 47be 8bfa 383f f32e d3bf a84c 96be
00000230: 354a adbe 8e59 ab3f fa25 9fbf 2ab8 b3bf
00000240: 89dc e4be a3ed 89bf 389e 9c3e 7a13 a23f
00000250: a17b 6fbf f954 303e a0c1 eabf 4071 01c0
00000260: 7de5 febd c172 2ebf 1084 22bf 98f3 2f3f
00000270: fcff ca3e f0bf 00c0 8f0f bebd b3d6 893e
00000280: 8899 28bf 1313 86bd f17c 3dbf e1eb 4ebf
00000290: b291 7c3e dc50 b8be 3e88 553e 113b f03f
000002a0: ba42 8f3f 539c 32be bbf8 ac3e 7cf8 dc3f
000002b0: cf48 2d3f 8c61 a63f fb77 d03d 4ced 803c
000002c0: 1466 e1be a706 523e 5114 6bbf 2108 e53f
000002d0: a10c ecbe 7e0c 01bf e939 383e 7f15 15c0
000002e0: 4acb 9b3f 1070 c03f 78a8 d23e 7e92 b5bf
000002f0: 9b95 c4bb 6f61 073f 43e9 1cbc 7a52 6f3f
1.6118244 -0.33770734 0.3362031 1.1930442 -1.3300122 -1.3240793 0.2947558 -0.29403558
0.1854717 0.26885754 -0.5130019 -0.2219864 0.7862168 -1.2114688 0.5257489 1.8005022
0.71085995 1.1594216 0.13019557 -0.43847418 0.087263145 -0.47589976 -0.1325598 -0.08719822
1.474064 -0.30418897 0.7291164 -0.0006888128 -0.9210138 1.790873 -0.3378129 -0.18641676
1.8542994 1.0811595 0.676227 -0.07141696 -0.26996052 1.2425579 -0.26971763 0.17268634
-0.17179579 0.71912146 -0.4901513 1.3327988 0.05102727 -0.19999659 0.56228614 0.19920287
-2.6682727 2.289902 -2.945966 -1.2699002 0.008556871 0.46873257 0.15524328 -0.59921163
-0.16578661 -1.4241508 0.72551894 -0.43312293 -0.09121446 1.5291936 -1.2433997 0.5155247
0.7433952 -0.7570411 0.95870376 0.052207585 -0.11164604 -0.11866393 0.6854383 -0.22849876
0.1510845 -1.6997142 0.6757572 -1.7909733 0.3771489 1.0274717 0.9185074 -0.61031497
0.71024793 -0.7636356 -0.344512 -0.328211 -1.2104862 0.7486321 -0.5068511 0.10576538
0.5397584 -0.063731305 0.6479897 -0.01589577 -0.07611922 -0.2840047 0.31688845 -0.07451942
-0.8188976 0.7169648 -2.018375 1.4365389 -0.6305625 -0.28126353 0.3802724 0.23492372
-0.04818718 0.33818167 0.34701782 -1.3830692 -0.24774872 0.08373455 1.2895817 0.18993461
0.43849134 0.120485984 2.0922048 -0.2501587 -0.9464444 -0.0126016345 0.6635794 -0.34870017
-1.5121353 1.5870094 -1.1081127 0.30141342 0.977144 0.262924 0.12328481 -1.9180561
-0.10576132 0.2687364 -0.12249039 0.30463213 0.46595323 -0.019590523 0.7766871 -1.9232323
-0.19479914 0.722573 -1.6498703 -0.2935536 -0.33845678 1.3386705 -1.2433465 -1.4040577
-0.44699505 -1.0775646 0.3058946 1.2662194 -0.9354802 0.17219914 -1.834034 -2.0225372
-0.12446115 -0.6814385 -0.6348276 0.6873107 0.39648426 -2.011715 -0.09280311 0.26921615
-0.6585927 -0.06546607 -0.7401877 -0.8082867 0.24664953 -0.3599919 0.20852754 1.8768026
1.1192238 -0.17442445 0.33783516 1.7263331 0.6768922 1.2998519 0.101791345 0.015738152
-0.44023192 0.2051035 -0.91827875 1.7893106 -0.46103385 -0.50409687 0.17990841 -2.329437
1.2171414 1.5034199 0.41144156 -1.4185331 -0.0059992797 0.52883047 -0.009577098 0.93485224

trend_block.gru.bias_ih_l0 f4 [24]
00000000: f146 9a3f 3b11 b73f 287b 94be d1c2 843f
00000010: eba3 b4bd b73b 573f 906f 15bf 25b1 de3e
00000020: 8169 e23f a082 1240 105e 0640 a482 3b3f
00000030: 3af6 113f 6a70 1040 3ebe fa3f 667c 4abc
00000040: bdb3 2cbe 4ea5 fd3f 4ad7 623f fb64 2c40
00000050: 02aa 4640 22c3 05bf d4df 2abf 5a22 3840
1.20529 1.4302133 -0.2900021 1.0371953 -0.08820327 0.8407549 -0.58373356 0.43494526
1.7688447 2.2892227 2.0994911 0.73246217 0.57016337 2.2568612 1.9589307 -0.01235876
-0.1686544 1.9816072 0.88609755 2.6936634 3.1041265 -0.52250874 -0.66747785 2.8770967

trend_block.gru.bias_hh_l0 f4 [24]
00000000: 05c4 513f 0bad af3f 765e 86bd 39d1 7d3f
00000010: 7be3 ef3e e50d 673f a2de 33bf 6b80 ec3e
00000020: 70b7 c93f a650 0940 9d5f e43f d3e7 8e3e
00000030: 8a47 233f 1ca6 0840 27fb bf3f c338 fe3e
00000040: 4aac bd3f 001c 35c0 cf39 8fbf e1bf 12c0
00000050: f045 9fc0 869e 853f 13e4 0c40 7a9f 7dc0
0.8193973 1.3724684 -0.06560986 0.99147373 0.4685324 0.90255576 -0.70261586 0.46191725
1.5759106 2.1455474 1.7841679 0.27911243 0.63781035 2.1351385 1.4998521 0.4965268
1.4818203 -2.829834 -1.1189517 -2.2929614 -4.9772873 1.0439003 2.2014205 -3.9628587

trend_block.param_projection.weight f4 [3, 8]
00000000: fa02 633f dd9d a4bf 80f5 72bd 7509 d93e
00000010: dff1 a83d dd7e cfbe b12e c73f f9d1 ff3f
00000020: 9563 74bf 0f56 35be e1d3 61bd e502 7a3f
00000030: 1514 a4bf fc9c 2f3f 9865 bcbe 6d68 e23e
00000040: b397 b63f 5f20 37bf f1be ae3f 0bd8 52bf
00000050: 53d2 febf d3df d23c b628 b83f c80f 26be
0.88676417 -1.2860676 -0.05931616 0.42390028 0.08249258 -0.40526477 1.5561124 1.9985954
-0.9546445 -0.1770861 -0.055133704 0.97660667 -1.2818629 0.68598914 -0.3679626 0.44220296
1.4265045 -0.7153377 1.3652021 -0.82360905 -1.9907936 0.025741493 1.4387424 -0.16216958

trend_block.param_projection.bias f4 [3]
00000000: ce19 3bc0 3395 2cc0 686f 2bc0
-2.92345 -2.6966064 -2.6786747
