hnam_experiments/Fit_and_Predict/models/Walmart/HNAM/lightning_logs/version_5/checkpoints/model-03-0.579.ckpt (torch, 234152 bytes, 264 tensors)

input_embeddings.embeddings.Sporting.weight f4 [19, 8]
00000000: 8203 92bf 89e3 8cbf 3256 aabe 970b ffbe
00000010: dec2 473f b9ba 383f 6fae c6be 97bc f8bf
00000020: d8bf 983e f958 88bf 3aca 3f3e 8b45 3f3e
00000030: 67a9 493e 5ed7 903f 07d2 9b3f 1c6b ddbd
00000040: 5042 b3bf c98c d8bf e6c2 243f fc2a 253f
00000050: b262 e43e 8efb b4bf 9e92 69be d95a e43f
00000060: 98ce 553f cb0e 09bf 97cf 2dbe 369c e33d
00000070: 6fff a03f 5a65 d33f 9f0c 673f 38f0 45bf
00000080: c1d6 debe fd55 673b 0689 dabe 5b52 6c3e
00000090: fe6f 883e 2a00 283e ddec 0e3f 979d cc3e
000000a0: 0929 ddbd 83b0 193f eaa6 34be 8f96 4c3e
000000b0: 8c76 093f f10f 1440 c8c8 c5bf 1d21 cfbf
000000c0: d1f9 53bf 0dea 663f aa80 6a3f 117c 8d3e
000000d0: d217 7abc 9c09 14bf 8b65 fc3e 0865 82be
000000e0: 3c38 eabe 1031 223f d6c2 cc3f 1f10 5f40
000000f0: 20ec c5bf 382a 98bf 992d e63f ce7e 11bf
00000100: d3e9 0bbf d521 673f d151 913f 0c6a ab3f
00000110: 52de bbbf e610 1e40 7574 17bf 0ebf d33e
00000120: 7920 e2bf 35d3 11bf d089 dbbe 74a6 debe
00000130: 9793 83bf 95c6 853f 7629 d1bd 8f16 593f
00000140: d2f2 06be c879 403f 8ec5 70bf d55e 92bc
00000150: ae37 7d3f b6f2 06bf 6083 8e3f 7fa6 e83e
00000160: 0f80 08be 424d 0b40 b706 ebbf e6a0 983d
00000170: 1c78 87bf d07e 6bbf 2e71 843c 0a41 183f
00000180: cd9b d93f e6a3 aabf d798 8e3e 3baa 193f
00000190: 4f4a 22c0 b47d debf 077b 9bbe 277e 943e
000001a0: a1f7 023e 6791 263e c07e b43e f04d b13e
000001b0: bccd ab3e 6677 33bf 4d0c 453f 7abe 7dbf
000001c0: 61e3 61be 2c6c 20c0 7beb 8d3d 0fe6 49bd
000001d0: b3a7 4e3f 1604 003f a3fd 71bf 525d 49be
000001e0: b2cc 05bf 4209 09bf 2128 0140 c27a d4be
000001f0: 42a5 6b3c 2751 9d3f 7cd9 623f 933a ac3f
00000200: 4bfc 6dbf 76a0 09bf a2fa 33bf 8e7e 083f
00000210: 65af 203f c632 d23e f5ee fb3f f0bb 78bf
00000220: f814 6dbf 1377 b3bf e2d0 d53f c6db 383e
00000230: 1411 bbbf 2101 15bf 28a8 10be 6701 9fbe
00000240: b8f8 073f 1e17 6e3f ad24 ea3e e471 8c3d
00000250: 5be4 7b3f e1bd 02be c15c 7f3f f9cb 2ebf
-1.140732 -1.1006938 -0.33268887 -0.4981353 0.7803172 0.72159916 -0.38804957 -1.9432553
0.29833865 -1.0652152 0.18729487 0.18678872 0.19693528 1.1315725 1.217347 -0.10811445
-1.4004612 -1.6917964 0.6435989 0.64518714 0.4460655 -1.4139268 -0.22809836 1.7840225
0.8351836 -0.535382 -0.1697372 0.11113779 1.2577952 1.6515305 0.90253633 -0.7731967
-0.4352322 0.0035299056 -0.42682666 0.23078291 0.26647943 0.16406313 0.55830175 0.39963982
-0.107988425 0.6003496 -0.17641798 0.19979309 0.53696513 2.313473 -1.5451899 -1.618198
-0.82803065 0.90200883 0.91602576 0.27633718 -0.015264468 -0.5782716 0.4929622 -0.25467706
-0.45746028 0.63356113 1.5996959 3.485359 -1.5462685 -1.1887884 1.7982665 -0.56834114
-0.5465366 0.90286 1.1353093 1.3391738 -1.4677222 2.4697814 -0.59162074 0.413567
-1.766616 -0.569629 -0.4287858 -0.4348637 -1.0279416 1.0451227 -0.10212986 0.84800047
-0.13178566 0.75185823 -0.94051445 -0.017867485 0.98913085 -0.527141 1.1133842 0.45439526
-0.133301 2.1765904 -1.8361424 0.07452564 -1.058353 -0.91990376 0.01616725 0.5947424
1.7000672 -1.3331268 0.27850983 0.60025376 -2.5357854 -1.7382112 -0.303673 0.29002497
0.12789775 0.16266404 0.35252953 0.34629774 0.335554 -0.7010406 0.76971895 -0.9911877
-0.22059394 -2.5066023 0.0692968 -0.049291667 0.8072464 0.50006235 -0.94527644 -0.19664505
-0.52265465 -0.5352975 2.0180743 -0.41499907 0.014382662 1.2290391 0.88613105 1.3455375
-0.92963094 -0.5376047 -0.7030431 0.5331811 0.6276763 0.41054362 1.9682299 -0.9716177
-0.9261012 -1.4020714 1.6704371 0.18052587 -1.4614587 -0.5820485 -0.14126647 -0.31055757
0.5311389 0.93004024 0.45731106 0.068576604 0.9839532 -0.12767746 0.99750906 -0.6827999

input_embeddings.embeddings.Cultural.weight f4 [43, 8]
00000000: d9c3 9cbe d05c 33be 762c f43f c465 1d3f
00000010: a126 1dc0 a4e3 8dbf 00b8 0b3e 82ac 84bf
00000020: e289 853e 0279 7b3f 4635 a9bf 017f d73e
00000030: 2790 77bf 5cee 893f 6b3b 38be bc76 b3bf
00000040: 543e 793f 3905 d3bf 6b4f 2d3f 6ba7 6b3e
00000050: 9af2 9a3d c6da 35bf 8ad0 083f cc08 fdbf
00000060: fba2 a63f d44a 0dbe 2890 343f 21ec 7f3f
00000070: 7cc3 f63e 96ba d1bf d0c6 0440 054b 143e
00000080: bf6c 10bf 3d71 e5bf 5d56 f4be 1554 e5be
00000090: 2fad 1cbf d58d bbbf 311e 52bf bb42 01c0
000000a0: b6b7 95bf e157 2dbf 5e1e b7bc 0584 a73e
000000b0: aa5a 61be 2aee 9a3f ff3f 8e3d 6621 5bbf
000000c0: 80ac ed3e 80e6 173c 2480 aa3f 8c95 88be
000000d0: f6c5 0fbf 4f8e 39c0 559f bebf f423 7d3f
000000e0: f6a0 803e 2c77 46bf 5680 c63f d61e cc3e
000000f0: a914 8b3f b8b1 af3f 5ee0 c0bc fdac 21bf
00000100: 185c 52bf 83cf d93f 340a 88bf 95ee 00bf
00000110: accf 683e 00c9 1e3f fbcb d83e 0ad9 973f
00000120: c783 9bbf 5a44 d2bf 5bcd b93f 6fcb 023c
00000130: 281a c3bf 6231 053d d59d 16bf c743 303f
00000140: 3dc4 a03f 6a0d 6dbe 0ccc 37bc be4e 133f
00000150: ee0c e13e 6f02 893e b05c 1b3e 91b8 3b3f
00000160: 4c2d e83d 7440 87bf de6b 423f 0f07 803f
00000170: 514c 0b40 e37a 7bbf efeb 27bf 879f 01bf
00000180: 28d5 c73f 6fb4 20bf 5faf 263e f56d a23f
00000190: db7f fa3f 5d13 183f cdac 32bf c29e debe
000001a0: 4fd8 753e 4aa1 f4be de23 6d3f 21ec df3e
000001b0: b72e 54bf 1143 9a3f 8d25 9d3e 337d 37bf
000001c0: 494c 86bf f3da 2fbf e216 663e d1e4 7ebf
000001d0: a631 35bf d6fd 0ec0 121a 2bbf 124d 123f
000001e0: 0d11 173f e89f 663e a362 863e 1c51 febf
000001f0: 597f 65bf 0ab6 07bd 5509 293f 299d c53f
00000200: 5694 c6bf ae33 a03e c8ec a5bf 62d6 64be
00000210: 316a 9cbe 28a0 96bf bea9 153f 178f 9fbf
00000220: 9571 88bf dabd 553e dec7 43bf 2b9d 57bf
00000230: 2af1 25bf c405 ef3e bc79 ff3e 42d2 313f
00000240: 31d1 c6bf 8ed6 33bf c0fa 883f b8ea efbf
00000250: 2179 0e3f 3540 843f 1559 fe3e c321 81bf
00000260: b3e4 eabe f247 5bbe 12b8 673f 1dd6 b7be
00000270: 2a94 14bf 36d3 ddbe f6db ccbf 389c 14bf
00000280: 1489 9a3f 3555 313f d50c f23e ab4c 273e
00000290: 419a 37c0 ff65 3ebf 37a6 1c3f c269 a43e
000002a0: 2dc2 92bf 5fa1 263d 9cc1 fcbd ebc2 55be
000002b0: bc9f 1a40 132e cf3f c7b0 c8be d238 c7bf
000002c0: c9b2 fabe 491f 41bf 3098 bcbf 17f0 cbbe
000002d0: c499 b3be 6d63 bebd 03f4 0c3f a12d c8bf
000002e0: 2733 923e 7b01 17c0 2992 4cbf dc2c e4bf
000002f0: ab5e 013f 15a4 adbf 9394 543f 4f1f afbf
00000300: faac 823e d74d e2bd 53ed 303e c6ad 933f
00000310: b122 9e3f 7205 0e3c affc 0740 4654 de3d
00000320: 6b68 0e3f 014b bc3d 64f1 d93e bde1 dcbf
00000330: 5f2e 8d3f de09 2e40 f084 2c3e 0158 933e
00000340: 2993 92bf 2c4f 0d40 8926 293e 183d 403f
00000350: f27e 93bf 53bb eb3c c23a c4bf a8f6 e7bf
00000360: fe87 f3bf e9aa 143c 29eb f1bf 84bc f0bf
00000370: 2c51 0340 91ef 7bbf 8bd4 1bbf d755 c63f
00000380: 9917 4a3e 34f7 46bf 1407 093d dd64 ea3f
00000390: 1e50 e6be ff64 2f3f 5a7c 2b3f 614c cf3f
000003a0: 4ffb 2cbf 1d27 d8bd 8508 dc3e b435 01bf
000003b0: 1574 e6bf 1752 2b3f 968c 5fbd c663 b5bf
000003c0: 052f 16bf 8177 b8bf 1a4d 1bbf 6caa 853f
000003d0: 7bf5 0dc0 d6c0 c43e 4c01 17bf 08d5 bbbd
000003e0: fa60 183f 8c06 673f edc0 4bbe 8ad0 20be
000003f0: f9dc b6be ac67 8f3f 65f2 1abe 0fae 55bf
-0.3061817 -0.17515874 1.9076068 0.6148341 -2.4554827 -1.1085095 0.13644409 -1.0365145
0.2608176 0.9823152 -1.3219383 0.42089084 -0.96704334 1.0775867 -0.17991416 -1.402061
0.9736073 -1.6485969 0.6769931 0.23013084 0.07565804 -0.71036947 0.53443205 -1.976831
1.3018488 -0.13798076 0.70532465 0.9996968 0.48196018 -1.6385067 2.0746346 0.14481743
-0.56415933 -1.7925183 -0.4772214 -0.44790712 -0.6120176 -1.4652659 -0.8207732 -2.019698
-1.1696689 -0.6771222 -0.022353347 0.3271791 -0.22007242 1.2103932 0.069458 -0.85597837
0.4642067 0.009271264 1.3320355 -0.26676595 -0.5616144 -2.8993108 -1.4892374 0.98882985
0.25122803 -0.7752559 1.5507915 0.39867276 1.086568 1.372611 -0.023544487 -0.63154584
-0.82171774 1.7016453 -1.0628114 -0.5036405 0.2273547 0.6202545 0.42343125 1.186311
-1.214959 -1.6427109 1.4515795 0.007983073 -1.5242357 0.0325178 -0.5883458 0.6885342
1.2559887 -0.23149648 -0.011218082 0.57542026 0.43955177 0.2675967 0.15172076 0.733285
0.11336765 -1.0566545 0.7594584 1.0002154 2.176533 -0.98234385 -0.6559438 -0.50634044
1.5611925 -0.6277532 0.16277836 1.2689806 1.9570268 0.59404546 -0.69794923 -0.43480498
0.24008296 -0.47779304 0.92632854 0.4373484 -0.8288378 1.2051717 0.3069271 -0.71675414
-1.049203 -0.68693465 0.22469667 -0.99567896 -0.7077888 -2.234243 -0.66836655 0.5714885
0.5901039 0.22521937 0.2624713 -1.9868503 -0.8964744 -0.03313259 0.66029865 1.5438586
-1.5514019 0.31289428 -1.2962885 -0.22347406 -0.30549768 -1.1767626 0.5846213 -1.2465543
-1.0659662 0.20873204 -0.7647685 -0.84224194 -0.6482111 0.46684086 0.49897563 0.6946145
-1.553259 -0.7024926 1.0701523 -1.8743505 0.5565358 1.0332094 0.4967734 -1.0088428
-0.4587761 -0.21414164 0.90515244 -0.35905543 -0.5803858 -0.43325204 -1.6004627 -0.5805087
1.2073083 0.6927064 0.47275415 0.1633784 -2.86879 -0.74374384 0.61191124 0.32111937
-1.1465508 0.04068124 -0.123416156 -0.20875137 2.4159994 1.6185936 -0.3919737 -1.5564215
-0.48964527 -0.7543836 -1.4733944 -0.39831612 -0.3507825 -0.09296308 0.5505983 -1.5638925
0.2855465 -2.3594654 -0.7991052 -1.782619 0.50535077 -1.3565699 0.83039206 -1.368143
0.25522596 -0.11050003 0.17278032 1.1537406 1.2354337 0.00866829 2.1247976 0.10855918
0.5562808 0.09193993 0.4256698 -1.725639 1.1029776 2.7193522 0.16847587 0.2877808
-1.145116 2.2079573 0.16518606 0.7509322 -1.1523116 0.028775847 -1.5330431 -1.8122149
-1.9025877 0.009073951 -1.889989 -1.880753 2.0518293 -0.98412424 -0.6087119 1.5494946
0.19735564 -0.7772095 0.033454016 1.8312031 -0.44983 0.6851348 0.6698662 1.6195184
-0.67570966 -0.10554335 0.4297525 -0.5047257 -1.8004175 0.66922134 -0.054577433 -1.4171073
-0.58665496 -1.441147 -0.6066452 1.0442634 -2.218108 0.38428372 -0.58986354 -0.09171492
0.59522974 0.90244365 -0.19897814 -0.15704551 -0.35715464 1.1203513 -0.15131529 -0.8346872

input_embeddings.embeddings.National.weight f4 [61, 8]
00000000: b1dc 57bf bda3 c73e 0bd2 c8bf 3378 22c0
00000010: 40df dabc fb9f 85be 5e10 febe cc36 353d
00000020: 8588 383f 8181 f83e e803 6040 c04d bfbf
00000030: 3f36 073f 26fe 68be ef88 5f3e dc09 a73f
00000040: 2b85 953f 0f1c 2c3f 1eab bdbe 2b74 92bf
00000050: d338 fbbe 1c88 18c0 a830 a23d 9790 24be
00000060: a3e5 cabc 0c6d eb3f 03a0 03bf 5065 a33e
00000070: 3413 3f3f 75d8 dd3f e2a4 02be 3462 033e
00000080: 7a7a 023e 1a3c cd3c ac91 243f b233 263f
00000090: 1448 44be ebff 8c3f fbc5 8cbf 4c40 823f
000000a0: fec5 ecbd 94c4 1dbf fcc9 1abf c46e babf
000000b0: 51b4 363f 0cda 0640 edd5 633e 6116 b9be
000000c0: 1ab2 6bbf 1d40 fdbb 9f5b afbf be3d 80bf
000000d0: d4e9 623f 4737 333e cced 80be 08bd c13f
000000e0: 94d2 ed3d 6e9a 033e c622 4ebf 3b68 29c0
000000f0: 4976 29bf a230 0cbe c72b 253d 4115 1b3f
00000100: d668 553e 30fe 65bf 6737 463f 3713 df3f
00000110: 9d58 78bd b26f cabe 5f13 5a3e 0383 9bbe
00000120: 889a b23d 3e36 1340 0245 b03f 7076 85be
00000130: 0f90 a33e 9f3e 2540 065c 23c0 515a 1f40
00000140: 770c ccbd a3ee 6bbf dfb4 753f b10b 06bf
00000150: 3525 55be 785c 453f 148e 86bf f743 1540
00000160: 4e14 53bf fc26 03bf cf8e cfbe 5370 93be
00000170: c78a 0940 440d 5cbd 6da6 85bf 20fa 8e3e
00000180: f1db 0abf aedc 0abf 4ba5 86bf a0dc 3ebf
00000190: 250e 463d bea7 6d3f fa73 b83f 18ca a8be
000001a0: aba4 19bf cc16 b1bd bf36 0bc0 58c2 093f
000001b0: 10ad 893e 529a 8f3e e6e3 a93f c7bc c8bf
000001c0: f53f 143f 0642 72bf b15d c73e 24c2 febe
000001d0: b22d ac3e f267 e13f 0448 e83e b37a 71be
000001e0: 9f24 eb3e 7cb0 423f 5eaf afbf 0d11 a23f
000001f0: 59bc f7be 3397 1f40 f7d5 503e 4d8a 0b40
00000200: 3707 a9bf 3df8 1c40 20eb 26bf fa75 923f
00000210: eaaa 0abf e2ed 553f 0755 0140 b912 d9be
00000220: a488 02bf 1cc0 c6be 1256 623e 6d54 73bf
00000230: 3a69 643f 502c 37bf bb81 9b3e 7c57 8e3e
00000240: ca8b 853f cff2 543f c22e bfbf 349e 08c0
00000250: 7d91 56be 51ea 233f fa38 c9bf 6160 383f
00000260: b8e2 02bf 9352 a73f d78b bc3e 0b24 073f
00000270: c9f2 55bf fd55 96bf 9e83 833f ad64 f53e
00000280: 97b6 603f 30eb 563f 59dd 83bf 9b76 20bf
00000290: 7324 11be d728 a3bf 4536 943f 0dcd 3fbe
000002a0: 56c2 a7bf 2cf4 9d3f c83b 9cbf 6aa2 3ebe
000002b0: 6311 0240 58e0 27c0 b01e e73e 4926 543d
000002c0: 460a 3f3f 85ea 983f cdda 9c3f d05f e2bf
000002d0: ca8b 62bf c47a 9abf d749 113f 0bd2 423f
000002e0: 3e77 ca3e 925c f53e 8134 5fbe 2708 c53f
000002f0: a1ab 81be 384b b6bf cc52 57bf d792 b9be
00000300: 8d43 5b3f d2e3 803e 985d 3cbf e0f7 a53e
00000310: 1842 3fbf 6af5 8fbf 71a8 c13f 83a5 8d3e
00000320: f42a 0bc0 59dd 313f 80d9 f33e e589 02bf
00000330: f3ec 073f 4c68 e4be d3a6 1040 cfc4 e3bd
00000340: 00a0 0a3c 61f5 293f 6ff1 2e3f 523b b7bd
00000350: 6836 21bf 5b4f 0dbf 32ff e03f 92c5 6fbf
00000360: de3b 7ebf 0880 4fbe fc8c 8fbf b4fe ea3e
00000370: e6eb 8abc 0dde 9c3f fcf9 9a3f 14d6 24be
00000380: 9d58 dfbf abd2 0c3f 8d52 ac3f ec8c aa3f
00000390: 66dc ffbe 4bd9 9e3f 922f 1fbf d017 123f
000003a0: ae2e 7fbf 852e 0bc0 5289 de3e 950c eebe
000003b0: 1593 3bbf 8a14 de3f 1fae fc3e 95cf 50be
000003c0: 61e4 cf3e 664e 563e 488d cb3f afe0 9f3e
000003d0: a9d3 cf3f 623d 183f 654f debf 4814 0ebf
000003e0: 03b3 08bd bdda 4e3f d7bb e13d f92a 953d
000003f0: af54 f13e d1c7 bcbf f34c 2cbf fe7c 83bd
-0.84321123 0.3899211 -1.56891 -2.5385864 -0.026717782 -0.26098618 -0.49621862 0.04424171
0.7208331 0.48536304 3.5002384 -1.4945602 0.5281715 -0.227532 0.2182958 1.3049884
1.1681265 0.67230314 -0.37044615 -1.1441702 -0.4906679 -2.3833075 0.07919437 -0.16070782
-0.024767702 1.8392653 -0.51416034 0.31913233 0.74638677 1.7331682 -0.1275821 0.1283043
0.12742034 0.025053073 0.6428478 0.6492263 -0.1916812 1.10156 -1.0997919 1.0175872
-0.115612015 -0.6162808 -0.60464454 -1.4565053 0.7136889 2.1070585 0.22249575 -0.36149886
-0.92068636 -0.00772859 -1.3699836 -1.0018842 0.88638043 0.17501555 -0.25181425 1.5135813
0.1161243 0.12851879 -0.8052181 -2.6469867 -0.66196114 -0.13690427 0.040324952 0.60579306
0.20840773 -0.89840984 0.7742829 1.7427739 -0.060631383 -0.39538342 0.21296452 -0.30373392
0.08720881 2.3001857 1.377106 -0.26066923 0.31945845 2.581947 -2.5524917 2.4898875
-0.09963315 -0.92161006 0.9597911 -0.5236159 -0.20814975 0.7709422 -1.0512109 2.3322732
-0.8245286 -0.5123136 -0.40538642 -0.28796634 2.1490953 -0.05372359 -1.0441414 0.27925205
-0.54241854 -0.5424298 -1.0519193 -0.745554 0.048353333 0.9283408 1.4410393 -0.32966685
-0.6001689 -0.08646926 -2.1752164 0.5381217 0.2688985 0.28047425 1.3272674 -1.568261
0.5791009 -0.94631994 0.38938668 -0.49757493 0.33628613 1.7609847 0.45367444 -0.23581962
0.45926377 0.76050544 -1.3725393 1.2661453 -0.48385885 2.4936035 0.20394121 2.1803162
-1.3205327 2.4526513 -0.6520252 1.1442254 -0.54167044 0.83566105 2.0208147 -0.42397097
-0.5098975 -0.38818443 0.22103146 -0.950507 0.89223063 -0.7155199 0.30372414 0.2780112
1.0433285 0.83182997 -1.4936144 -2.134656 -0.20953937 0.64029413 -1.5720513 0.7202206
-0.51127195 1.3072075 0.3682544 0.5278937 -0.83573586 -1.1744992 1.0274541 0.47928372
0.8777861 0.8395262 -1.0301925 -0.6268098 -0.1417406 -1.2746838 1.1579062 -0.18730564
-1.3106182 1.234014 -1.2205744 -0.18616644 2.0323112 -2.6230679 0.451406 0.051794324
0.7462505 1.194657 1.2254273 -1.768549 -0.8849455 -1.2068715 0.56753296 0.7610175
0.395441 0.47922188 -0.21797372 1.5393113 -0.25326255 -1.4241705 -0.84110713 -0.36244842
0.8564995 0.25173813 -0.7358031 0.32415676 -0.74710226 -1.124677 1.5129529 0.27665338
-2.1744967 0.69478375 0.47626877 -0.5099166 0.5309593 -0.44610822 2.2601821 -0.11121523
0.008460999 0.66390043 0.6833715 -0.08946861 -0.6297364 -0.5519921 1.757788 -0.93660843
-0.993101 -0.20263684 -1.12149 0.45897448 -0.016958188 1.2255265 1.2107539 -0.1609729
-1.7448918 0.55008954 1.3462692 1.3324256 -0.49972838 1.2410063 -0.6218196 0.57067585
-0.996806 -2.1747143 0.43464142 -0.46493974 -0.73271304 1.7350018 0.49351594 -0.20391686
0.40603927 0.20928344 1.5902491 0.31226107 1.6236469 0.5946866 -1.7367979 -0.55499697
-0.033373844 0.8080252 0.11022156 0.07283587 0.4713492 -1.4748479 -0.67304915 -0.06420325

input_embeddings.embeddings.art.weight f4 [2, 8]
00000000: 1549 ec3e 184a 603f 2e44 2ebf be94 653e
00000010: 4faf dbbd 6255 43bf a912 fb3d d2d3 07bf
00000020: b97d 703f cea9 28be 3ffa 403f 2817 b23f
00000030: c881 00bf 5f02 bdbe 7dfd a6be 0be2 e8bf
0.46149507 0.8761306 -0.68072784 0.22420022 -0.10726797 -0.7630216 0.122594185 -0.5305759
0.9394184 -0.16471025 0.75381845 1.3913317 -0.5019803 -0.36915872 -0.3261527 -1.8193983

input_embeddings.embeddings.pos.weight f4 [4, 8]
00000000: 544c 043e 3b25 12bf afa1 6b3f 9544 9bbe
00000010: 2008 af3e 7111 ea3f f79b 0dbd 5f89 6f3f
00000020: 30f1 a2be 98ed cabf e6a5 a9be c514 3c3f
00000030: d47a ce3f 494a 21bf 6238 85be 76c8 80be
00000040: fe90 2dbd f444 933e bdf5 813f 29ed 113e
00000050: 14f3 b83f 7cf1 afbf 76eb 963f 2104 84bf
00000060: 56e6 28bf d463 ee3e d246 6fbe ebfb 053e
00000070: 476d c33e 6b87 963f 02cc 65bf bb17 45be
0.12919742 -0.5708806 0.92043585 -0.3032576 0.34185886 1.8286573 -0.034572568 0.93568987
-0.31824636 -1.5853758 -0.33134383 0.7346919 1.6131234 -0.63003975 -0.2601958 -0.2515294
-0.042374603 0.28763545 1.0153118 0.14250626 1.4449182 -1.374557 1.1790607 -1.031376
-0.65976465 0.46560538 -0.2336686 0.1308438 0.3816931 1.1760076 -0.89764416 -0.19247334

input_embeddings.embeddings.weekday.weight f4 [7, 8]
00000000: e400 cebf 9ab0 483e 5dd6 23bf 679e e93e
00000010: 3b60 e0be 0784 413f f6ab f2be fcae 44bf
00000020: 6fee 853e 7aed c13e fcc6 c03f 5e40 73bf
00000030: bbd3 b93f db66 e3bf 487a b73f bb8a 4c3f
00000040: 6fa4 323f 8ff2 7cbd 4656 693f 9e05 823f
00000050: 3238 04bf 8a85 8fbf 3c20 84be 2bec ec3f
00000060: 7143 863f a51a 82be dce9 383f 7194 f13e
00000070: 2350 6dbf ec13 c8bd 1fae 0240 5d96 903e
00000080: a803 13bf 7858 af3f 65fa f63d 541f 8ebe
00000090: 46a3 a23f 8542 ffbe 9d73 323c 42b1 1b3f
000000a0: 0d0b edbd 283a 9c3f 5604 c2bf 5fbf 2e3e
000000b0: d6cb 02be 64dc cd3f 5ea1 503e 46d9 443f
000000c0: 2694 98bf 64c7 b43e df65 bdbf 3e01 7dbb
000000d0: 1e5a 87bf 5acb 433f 50ef 0fbf 1b55 37bd
-1.6094022 0.19598618 -0.6399897 0.45628664 -0.43823418 0.7559208 -0.4739682 -0.76829505
0.26158473 0.37876493 1.5060725 -0.9502009 1.451774 -1.7765764 1.4334192 0.79899186
0.69782156 -0.06175476 0.9114727 1.0157964 -0.5164825 -1.1212628 -0.25805843 1.8509573
1.0489331 -0.25410953 0.7223184 0.47183564 -0.92700404 -0.09769425 2.0418775 0.28239718
-0.57427454 1.3698874 0.12059478 -0.27758276 1.2706077 -0.49855438 0.010891822 0.6081735
-0.115743734 1.2205248 -1.5157573 0.1706519 -0.1277307 1.6082883 0.20374057 0.7689403
-1.1920211 0.35308373 -1.4796714 -0.0038605477 -1.0574377 0.76482165 -0.56224537 -0.044758897

input_embeddings.embeddings.snap.weight f4 [2, 8]
00000000: fb37 833e a685 45bf 1d42 223e 7390 963e
00000010: 1252 30be 1c2e d23f a09b 7ebf 0838 b8bf
00000020: 7680 693d 8e68 8d3f e0b4 0140 b355 60be
00000030: 142d 62bf 543b e53f 7925 01bf f372 d93d
0.25628647 -0.77157056 0.15845533 0.2940708 -0.17218807 1.6420321 -0.99456215 -1.4392099
0.057007276 1.1047533 2.0266647 -0.21907692 -0.88350034 1.790873 -0.50447804 0.10617628

prescalers.time_idx.weight f4 [8, 1]
00000000: a108 8ebe a35c 0fbf 14b3 b3be aabd 203f
00000010: b921 1ebf 1fdb 25bf 897c c7be 143a 7ebd
-0.27740958 -0.5600073 -0.35097563 0.62789404 -0.61770207 -0.6478748 -0.389622 -0.062067106

prescalers.time_idx.bias f4 [8]
00000000: d287 593e 50d1 da3d a8d9 82be 1015 0dbf
00000010: 8ef6 5abe f933 a1be a207 4d3f 7218 86bf
0.21243218 0.106844544 -0.25556684 -0.55110264 -0.21383116 -0.31484964 0.8008977 -1.047621

prescalers.relprice.weight f4 [8, 1]
00000000: 8b40 29bf 9a83 4abf 1cec e0bd 4f1f 333f
00000010: 7b5f 483f 1981 51bf 1a76 d7bd b7c2 2f3f
-0.6611411 -0.7910706 -0.10982534 0.6996965 0.7827069 -0.8183761 -0.10520573 0.68656486

prescalers.relprice.bias f4 [8]
00000000: 0de5 d23e 689f 563f 8c60 41bc 99c9 42bf
00000010: 13db 103f 52ac 8abe c0da da3e c758 ccbd
0.41190377 0.83836985 -0.011802804 -0.76088864 0.5658428 -0.27084595 0.42745018 -0.099778704

prescalers.doy_sine.weight f4 [8, 1]
00000000: 5c6e b53e 7699 823f cfe8 733f 541a 63bf
00000010: 1888 26bf 483f a7be 68c2 0dbf 12a5 4e3f
0.3543576 1.0203083 0.9527711 -0.8871205 -0.6505141 -0.32665467 -0.55374765 0.8072063

prescalers.doy_sine.bias f4 [8]
00000000: 24a7 17be 2225 16bf ec6e ebbe 1b86 febe
00000010: 4b47 bf3e 18d8 48bf c27e 70bf 30ad 87bf
-0.14809853 -0.5865041 -0.45983064 -0.4971169 0.3735908 -0.7845473 -0.9394342 -1.0599728

prescalers.doy_cosine.weight f4 [8, 1]
00000000: e267 113f e0ae c93e 9f67 49bf bbd5 c53e
00000010: 4773 5d3f d36b 46bd 2df2 38be b122 2b3e
0.5679914 0.39391232 -0.7867374 0.38639626 0.86504024 -0.048442673 -0.18061133 0.16712452

prescalers.doy_cosine.bias f4 [8]
00000000: ff03 2bbe e090 143f 53a0 31bf 2cf6 0f3f
00000010: 4d7b 073f d8a6 04bf 863d 4f3f e970 683f
-0.16700743 0.5803356 -0.6938526 0.56235003 0.5292252 -0.51817083 0.8095325 0.9079729

prescalers.relative_time_idx.weight f4 [8, 1]
00000000: 5fbd 82be 14b2 52be cca6 253f a24c 69bf
00000010: db51 4b3e 5c69 d63e 6391 2c3f 4c89 84bf
-0.25535104 -0.20575744 0.64707637 -0.9113256 0.19855444 0.41877258 0.6740934 -1.03544

prescalers.relative_time_idx.bias f4 [8]
00000000: a8bd 5abf df41 f73e 91a1 ac3e bb4d 7fbf
00000010: 2c8e 27bf d5f4 5cbf 84a5 4bbf 15e4 8fbe
-0.8544564 0.48292443 0.33717015 -0.9972798 -0.6545131 -0.86311084 -0.7954943 -0.281037

prescalers.sales.weight f4 [8, 1]
00000000: 9f50 603f e105 60be 8ce4 e83e 84e2 8f3f
00000010: 0c41 0c3f a3fd 84bf 711b cb3e a2fd 0d3f
0.8762302 -0.21877243 0.45486867 1.1241002 0.54786754 -1.0389904 0.39669374 0.5546514

prescalers.sales.bias f4 [8]
00000000: 5a5b 403f 26e0 73bf ba8b 173f e584 403f
00000010: de7b 83bf 1340 203e 4c4c 463f 13a1 0ebf
0.7513939 -0.952639 0.5919758 0.7520278 -1.0272176 0.15649442 0.7746017 -0.5571453

causal_lns.weekday.weight f4 [8]
00000000: 68f9 723f 871f 763f 88f6 8b3f 0334 733f
00000010: 5dc0 6c3f e418 723f 79aa 7e3f 4840 853f
0.94911814 0.96141857 1.093461 0.9500124 0.92481023 0.9456923 0.9947887 1.0410242

causal_lns.snap.weight f4 [8]
00000000: 4d01 863f 2a84 813f f5ca 7d3f 4bf4 833f
00000010: 3f32 7d3f 034c 833f b890 733f 3c19 733f
1.0469147 1.0118458 0.9913781 1.0308927 0.98904794 1.0257572 0.951427 0.9496038

causal_lns.relprice.weight f4 [8]
00000000: 17c3 863f 7596 5f3f 6474 433f 2177 a23f
00000010: 1769 643f 3d56 503f 61e9 893f 7b87 7a3f
1.0528287 0.87338954 0.76349473 1.2692605 0.89222854 0.8138159 1.0774347 0.97862977

causal_lns.National.weight f4 [8]
00000000: 93b4 973f 9f1d 743f 9172 7a3f f97c 8c3f
00000010: 2a11 8d3f 8234 6b3f 8968 833f f0b8 793f
1.1851982 0.953577 0.97831064 1.0975639 1.1020863 0.91876996 1.0266277 0.9754782

causal_lns.Cultural.weight f4 [8]
00000000: 07d6 823f f7e0 803f 7cf2 833f 76ae 7a3f
00000010: 7e22 7f3f 943d 813f b046 833f e2cd 833f
1.0221566 1.0068654 1.0308375 0.97922456 0.99662006 1.0096917 1.0255947 1.0297205

causal_lns.Sporting.weight f4 [8]
00000000: f808 833f 84db 713f 5bc7 6a3f 5a2b 833f
00000010: 1e86 743f eece 733f 538a 893f bef9 8d3f
1.0237112 0.9447558 0.9171044 1.0247605 0.95517147 0.95237625 1.0745338 1.109184

past_ln.weight f4 [8]
00000000: fbd7 703f 83d7 8d3f 1966 7e3f a379 873f
00000010: c471 833f 3153 8d3f 6b03 6c3f f2a7 5a3f
0.9407956 1.1081394 0.9937454 1.0583996 1.0269094 1.1041013 0.92192715 0.85412514

post_lns.weekday.weight f4 [8]
00000000: 1803 6b3f 4672 8c3f bd6d 853f e165 843f
00000010: 9774 803f d6cb 753f c795 8d3f 37fe 863f
0.91801596 1.0972373 1.0424114 1.0343591 1.003558 0.96014154 1.1061333 1.054633

post_lns.snap.weight f4 [8]
00000000: fa83 853f d388 763f ab05 783f 173a 7a3f
00000010: 40cb 7b3f 5822 763f 277f 7a3f 9db1 6c3f
1.0430901 0.9630253 0.9688365 0.9774489 0.9835701 0.96146154 0.9785027 0.92458516

post_lns.relprice.weight f4 [8]
00000000: 4f80 a33f 3de2 8b3f c590 943f d10a a43f
00000010: 5a04 8f3f 0198 8a3f 0e1b 923f 910a 9e3f
1.2773532 1.0928417 1.160668 1.2815801 1.1173203 1.0827638 1.1414506 1.2346975

post_lns.National.weight f4 [8]
00000000: 26a6 943f 0327 803f cfa6 7e3f 6858 8e3f
00000010: 140a 923f fe5e 843f 2739 8b3f a630 8d3f
1.1613204 1.0011905 0.9947328 1.112073 1.1409326 1.0341489 1.0876817 1.1030471

post_lns.Cultural.weight f4 [8]
00000000: 17e4 8a3f 92ff 7e3f 9202 8c3f 5e37 823f
00000010: 285e 893f a6e4 753f 38b0 833f ac9e 863f
1.0850857 0.9960872 1.0938284 1.0173147 1.0731859 0.96052015 1.0288153 1.0517173

post_lns.Sporting.weight f4 [8]
00000000: 142d 813f 3c10 803f 7627 6d3f cc80 793f
00000010: b974 703f 8c99 693f ee50 803f ae22 873f
1.0091882 1.0004954 0.9263834 0.97462153 0.93928105 0.9124992 1.0024698 1.0557458

trend_block.c_attn_q.conv.weight f4 [16, 8, 3]
00000000: 9aef 123e c927 193e c6e9 f93c 680e 713e
00000010: d468 333e 1aa4 6c3e 9a9b 8fbd 1852 303e
00000020: de6f 55be 293c 02be a3b8 98bc 3a33 c3bd
00000030: 21d6 2d3e 105a 203e e035 153e 99c2 4c3e
00000040: 8ed3 18be 7ffa eb3c d95c 1b3d f236 d33b
00000050: 457d d33d 7b91 dcbd 5805 babd f823 133e
00000060: 6b1a cebd a54a 4bbe 847f e03d 7602 093e
00000070: acfc 21bd 7e17 c1bd 846e d1bd 4369 41be
00000080: 1e6d 843d 26c7 a6bd 46f3 fd3d f205 05be
00000090: 4690 cfbd 113a 9b3c 21a2 c03d 7ac8 543e
000000a0: fe2e 493e 635b d13d dbb6 d7bd cf77 09be
000000b0: 92e8 44be e159 bd3b 6703 413e 748d 9ebc
000000c0: fe9f b0bc 64c1 0abe f1fb f93d 233a 1f3e
000000d0: 9dfe 0fbe 1e74 4dbe 1b34 363e 00af 5d3d
000000e0: 50eb febc 20a4 edba 38e9 60bd 5e51 24bc
000000f0: a510 3abe 6eb9 2a3e c401 89bd eb20 86bd
00000100: b478 093c 065a 2dbe 04f0 6abd 8481 46be
00000110: 0887 083e aa9b 903d c631 13be e128 94bd
00000120: 72be 3d3e 5b52 61bd d1e5 21bb da41 883d
00000130: 5b0b 40be e578 2e3e 7c83 9e3b b8e7 413e
00000140: 4744 f13c 4afb 313d 71cc 803e 1305 96be
00000150: 5eaa 00bd 29e4 483e cfe6 05be d074 643e
00000160: 6902 403e 2ed0 913e c107 b4bd 6034 253e
00000170: f5e7 e9bd b433 d0bd d72f 513d 03ac bbbb
00000180: ab1e c63d e0e5 0d3e 98a2 44be 2cbb 963d
00000190: 0c22 053d 9f63 083e 6676 b93d 56dd 91bd
000001a0: b083 04be aff9 1a3e bc69 14be 30a2 1abc
000001b0: ebab 40be 438e 70bd 1928 cbbc 0640 d83c
000001c0: e251 003d fdb3 113e 9941 85bc 29ed 723d
000001d0: 4696 623e 418e e5bd 79ce a33c 6b38 95bd
000001e0: 01e2 743e 94b9 3b3e 749a 98bd 5a54 08bd
000001f0: bc1f 33be 728f 8b3e adb3 afbc 2401 663e
00000200: acb2 673e 588e 803e bf04 603e 3e18 9dbe
00000210: 4a59 4fbd 37bf d7bd 9fca 803d de3c 643d
00000220: 7513 9b3d d126 a7bb 781b 8cbe ecc2 913c
00000230: a623 5ebc 9422 25ba 6724 e43d 1e63 0cbe
00000240: eb29 a43d 1b08 07be fbcf 9b3a 6dde a1bd
00000250: 5546 e43d 4a9d 553e 3351 293e 0a54 013b
00000260: 6016 023e bdb3 41be a260 e9bd ee27 56bd
00000270: d923 48bb db61 00be 3edd 60bd 9d41 93bd
00000280: 8ab4 49be eb3a 8c3d 266b 203e 0ce1 983d
00000290: 8b2c a1bd 0c40 43be 2101 21be afbe 5ebb
000002a0: 1730 fe3d 3da3 a6bd 7e84 d6bd 5769 11be
000002b0: 5c93 5fbd c217 54be 98fd 3ebe 59a9 3f3e
000002c0: 75dc ccbd c699 0ebd 78dc 24bd dbe6 37be
000002d0: b61d b8ba a53e 1a3d 005e d8bd 33f0 cebc
000002e0: 0b49 313b 2f1b 48be 1d0c 163e f469 293e
000002f0: 9294 113e a383 54bd bf4d f93d d2b2 3ebe
00000300: b1bb 9bbd 2590 93bc cc61 c8bc 03f1 8c3d
00000310: e6b9 d9bd a73f 22bd 32dc d2bd 92c8 72be
00000320: d8c2 6cbd 1a15 40be 5051 263e ca43 ea3d
00000330: 7a0b 973e 6cb6 01be f191 7d3d 4db4 f23c
00000340: 5526 7d3e 39a3 323e 73c6 d2bd a20d 60be
00000350: 7b06 27be 6ffe c5bd 8906 3c3e 65c1 6b3d
00000360: 0aa7 633e fa24 413e 85f3 ae3c 0a07 dfbd
00000370: 28ba 473e c9bd 2b3e 9726 8f3d ef73 f6bd
00000380: 851e 123e a4f2 2a3d 24f3 223e 35e9 f33d
00000390: 505c fa3d f9f0 2fbe 62a0 a0bd 2083 fa3d
000003a0: 34ee 73bd 1708 4abe a08f 1c3e c2bf 94bc
000003b0: 0d82 0a3e 8147 24be 52d7 923d 0861 8ebd
000003c0: 3d84 b73b 74db dfbc 3ecf 70bd d171 be3d
000003d0: 0897 4abd dc60 333e 0cb1 bb3c 58a3 79bd
000003e0: c5d5 ffbd f79d 52be 895a 65bd 71f4 92be
000003f0: 0490 113c 8628 9b3d 3a3f 383d b189 bbbd
0.14349213 0.14956583 0.03050698 0.23540652 0.17520458 0.23109475 -0.070121005 0.17218816
-0.20843455 -0.12718262 -0.01864273 -0.09531255 0.16976215 0.15659356 0.14571333 0.19996108
-0.14924452 0.02880597 0.037930343 0.006445759 0.10326628 -0.10769936 -0.090830505 0.1436919
-0.100636326 -0.19852693 0.10961822 0.13379845 -0.039547607 -0.09428309 -0.10226157 -0.1888781
0.06466125 -0.08143453 0.12399916 -0.12990549 -0.1013494 0.018948587 0.09405924 0.207796
0.19646832 0.10222509 -0.10532924 -0.1342461 -0.19229344 0.0057785367 0.18848954 -0.01935456
-0.021560665 -0.13550335 0.12206257 0.15549521 -0.14061971 -0.20063826 0.17793314 0.05412197
-0.031118065 -0.0018130578 -0.054909915 -0.010029165 -0.18170412 0.16672298 -0.0668979 -0.06549247
0.008390594 -0.16928872 -0.057357803 -0.19385344 0.1333276 0.070609406 -0.14374456 -0.072343595
0.1852968 -0.05501018 -0.0024703632 0.06653185 -0.18754332 0.17038305 0.0048374515 0.1893605
0.029451502 0.04345254 0.25155976 -0.29300746 -0.031412475 0.19618286 -0.13076328 0.22310185
0.1875092 0.2847914 -0.087905414 0.1613326 -0.114211954 -0.101661116 0.051071014 -0.0057272925
0.09673818 0.13857222 -0.1920265 0.07359919 0.032503173 0.13319252 0.09055786 -0.071222946
-0.1294086 0.15134309 -0.1449346 -0.009438083 -0.18815582 -0.05872942 -0.024799393 0.026397716
0.03132809 0.14228816 -0.016266631 0.059308205 0.22127637 -0.112087734 0.019995915 -0.072861515
0.23914339 0.18332511 -0.074513346 -0.03328357 -0.17492574 0.27257878 -0.02144798 0.22461373
0.22626752 0.251086 0.2187681 -0.30682558 -0.050622262 -0.10534518 0.06288647 0.05572211
0.075720705 -0.005101063 -0.27364707 0.017793141 -0.013558304 -0.0006299403 0.11139756 -0.13709685
0.08015808 -0.13186686 0.0011887545 -0.079037525 0.11146227 0.20860782 0.16534881 0.001973393
0.12703848 -0.18916221 -0.11395384 -0.052284174 -0.0030538945 -0.12537329 -0.054898493 -0.07190249
-0.19697776 0.06847175 0.15665874 0.07464799 -0.07869824 -0.190674 -0.15723087 -0.0033988168
0.12411516 -0.08136604 -0.1047449 -0.1420034 -0.054583892 -0.20712188 -0.18651426 0.18716945
-0.10002986 -0.03481462 -0.040249318 -0.17959158 -0.001404694 0.0376574 -0.10564804 -0.02526102
0.0027051594 -0.1954162 0.14653058 0.16544324 0.14216831 -0.05188335 0.12173032 -0.18622902
-0.07604159 -0.01801307 -0.024460696 0.06881907 -0.106311604 -0.039611485 -0.10295905 -0.23709324
-0.057803005 -0.1875805 0.16241956 0.11438711 0.29500943 -0.12667245 0.06190676 0.02962699
0.24721654 0.17445077 -0.102917574 -0.218802 -0.16311066 -0.0966767 0.18361868 0.057557482
0.22231689 0.18861762 0.021356354 -0.108900145 0.19504607 0.16771616 0.06989782 -0.12033831
0.14269455 0.041735306 0.15913063 0.11909715 0.122246385 -0.17181768 -0.078430906 0.12232041
-0.05955334 -0.19729649 0.15289164 -0.018157844 0.13526173 -0.16042902 0.07169975 -0.06952101
0.005600481 -0.027326323 -0.05879139 0.092990525 -0.04946044 0.17517418 0.022911571 -0.060946792
-0.12491945 -0.20568071 -0.055994544 -0.2870212 0.008884434 0.075760886 0.044982173 -0.09157122

trend_block.c_attn_q.conv.bias f4 [16]
00000000: 8e28 66bd e6c2 1cbe 4a96 bf3d 0925 a83d
00000010: 34ae 22be 1c08 c3bd 25a5 bc3d e165 163e
00000020: 9717 903c ea82 e7bd 4456 bf3d 3d3f 513d
00000030: 9111 04be 2086 02be d77d f13d a343 f03d
-0.05619102 -0.15308723 0.09354837 0.08210189 -0.15886766 -0.09523031 0.09211186 0.14687301
0.017589374 -0.11304267 0.09342626 0.0510857 -0.12897326 -0.12746477 0.1179158 0.11731651

trend_block.c_attn_q.proj_back.weight f4 [8, 16]
00000000: 5090 dabd f003 273e ac0a 52be eebe a93e
00000010: 5bba 323e 3d30 773e db0c 8e3d 56b9 ca3d
00000020: ed99 1dbe cf9d 06bd d822 cd3d d466 bbbc
00000030: d7e8 b63e 88a0 d9bd 0759 b8be cdf7 21be
00000040: 56b6 58be e145 153e d64c cbbd a639 7fbe
00000050: ffbe d3bc cf53 71be 02ca b1bd 8c30 0d3e
00000060: f556 40be 63bb 1c3e 9786 253e e30d 06bd
00000070: b98f a73d 331f 10be d429 803e 2411 8e3e
00000080: 1361 9a3d 27bf 663e 443b 67be 17b8 afbc
00000090: 13d2 5b3d 09fb 59be 2c36 1b3e f593 85bd
000000a0: 49b7 cfbd 9ea1 2cbe a243 c33d dd9b 51be
000000b0: f4dc 09bd 55ac da3d 73d9 3b3e 62e7 be3d
000000c0: 4f7f 9cbd fa90 11be bbd5 3b3e 68c2 b3bc
000000d0: 3c0e 5f3e 562e 9ebd 0f9b 783e d5e0 51be
000000e0: 85bf 3e3e 1298 a4bd 4927 8abd 6e17 06bd
000000f0: ab14 1fbe 8757 be3c dd4f b23e 49c4 acbd
00000100: 2a14 533d e295 09be d0a9 8fbc 657a a33e
00000110: 7212 233e 6e7d b43e f526 a03d d03d c63b
00000120: a39c 043e 781b 3bbe 3257 983e 2490 5c3e
00000130: 90b6 d4bd f02d 8f3e e275 29be 4124 44bd
00000140: 2a8b bdbd fd8d 28be ed7d c03d 1625 57be
00000150: 5835 6bbe 580d 62be 1028 03bd 129b 1c3e
00000160: 037b bc3d 77a6 4bbd 9210 f8bd b8d0 1fbe
00000170: 1351 29be adcb 23be 5d8e 6b3d 364c 1a3e
00000180: 9009 43be 4f7d f83c 44e4 edbd 7087 e6bd
00000190: ee2a 413e d013 4bbe 9037 16bc 798f 833e
000001a0: a9b2 fc3d d97c 0bbe 0a17 1dbe 3f49 a9bd
000001b0: f3d3 3bbe 7c8d 873d 2899 32bd b969 293e
000001c0: 71d5 52be 3133 cebd d615 a53d da72 6c3e
000001d0: abcc 6d3e 3a77 903d d9b6 bf3c 1d3e aabd
000001e0: 4e1e 0d3e 1604 3abe aaf9 f9bc 794c 7ebe
000001f0: 044e 85be bd75 d53d 9039 12bd ec1d 423e
-0.10672057 0.16310096 -0.20511883 0.3315348 0.17453901 0.24139495 0.06936046 0.09898631
-0.1539075 -0.03286534 0.100164115 -0.02287618 0.35724518 -0.10626322 -0.36005422 -0.15817185
-0.21163306 0.14577438 -0.09926765 -0.24924335 -0.02584791 -0.23567127 -0.08681108 0.1378805
-0.18783171 0.15305857 0.16164623 -0.032728087 0.0818171 -0.14074402 0.25031912 0.27747452
0.07538047 0.22533856 -0.22581202 -0.021450086 0.05366714 -0.21287169 0.15157384 -0.06522361
-0.10142381 -0.16858527 0.09534384 -0.20469613 -0.033657983 0.10677401 0.18344669 0.093214765
-0.0764147 -0.1421546 0.1834325 -0.021943286 0.21782774 -0.07723682 0.242779 -0.20495923
0.18627746 -0.080368176 -0.06745774 -0.032737188 -0.15535228 0.023235096 0.34826556 -0.08435876
0.0515329 -0.13436082 -0.017537028 0.31929317 0.15925005 0.35251945 0.078199305 0.006049849
0.12950377 -0.18272197 0.29754025 0.2153936 -0.103863835 0.27964735 -0.16548875 -0.047886137
-0.09255059 -0.16460414 0.093990184 -0.21010241 -0.22969568 -0.22075403 -0.03202063 0.1529353
0.0920315 -0.0497193 -0.121125355 -0.15606964 -0.16534834 -0.15995665 0.057508815 0.15068135
-0.19046617 0.03033319 -0.11615804 -0.112563014 0.18864033 -0.19831777 -0.009168521 0.25695398
0.12338764 -0.13621844 -0.1534082 -0.08265924 -0.18342571 0.06618783 -0.043603092 0.16544236
-0.20589234 -0.10068358 0.080608055 0.23090687 0.23222606 0.07053991 0.023402618 -0.083126284
0.13781092 -0.18165621 -0.030514557 -0.2483386 -0.26036084 0.104228474 -0.035699427 0.18956727

trend_block.c_attn_q.proj_back.bias f4 [8]
00000000: 2ff1 373e 4b6e 1a3e d60f f93d 93d8 27bd
00000010: 0c31 bc3d 94be 4f3e fef2 a83d ad45 18bc
0.17963098 0.15081136 0.121612236 -0.040978026 0.091890424 0.20287544 0.08249472 -0.009293956

trend_block.c_attn_k.conv.weight f4 [16, 8, 3]
00000000: a851 4c3d ece1 9f3c 6b0c 19be 99b7 273d
00000010: 2043 21be 0baa fa3d a014 c4bd 44e4 a9bc
00000020: c6da 58bd 48ff 3f3e 022e 04be b36b af3d
00000030: 5f46 cc3d 993c f53d 7e6e 703d f5c5 593d
00000040: 7586 163e 650e 883c d299 873d 49b6 1abe
00000050: ec8c 69bd cb36 563c d817 693c d07a a5bd
00000060: 2b4e 52be b248 b9bc b4e1 fe3d 3b39 6d3e
00000070: 566e 1fbe 93ec be3d 56dc 18be 6ceb 54be
00000080: 0ad9 24be ac15 1ebd 3949 a53d d3a6 b9bd
00000090: d2a7 243e 623e 693e 061f 183d 8809 163e
000000a0: debe 1ebe 530b f6bd 2df8 dbbb 0a59 873d
000000b0: 9ede d7bd f112 47be 4cb5 663d 7e1d 0f3d
000000c0: 49fd 6e3e 4c9a 09be 0a41 c539 4f3f c2bd
000000d0: 7704 f53d fd40 743d 728d 0e3e 67f7 f83d
000000e0: 9d29 183e 0e93 db3d 7057 9f3c 1bdb 023e
000000f0: ca47 2fbe 8242 f13d d016 763e 674e 2c3e
00000100: 6cd2 4dbd d967 03bd 7c5d 9fbb edf0 5e3d
00000110: c435 ad3d 6b82 f53d 7baf 373e 0069 99bd
00000120: 4cb0 963c b144 1b3e e929 9f3d f471 84be
00000130: a118 dcbd 44bf 55be 0613 88bd 3ab1 95bd
00000140: 6dd3 5f3e a378 9bbd 4684 35bd 2798 4dbe
00000150: fc74 003e 916a 0fbe e0a8 f73d b1ec 2dbe
00000160: fa17 d2bd f45f 9abd 3583 6abc 04ee 473e
00000170: 2130 393e cd8c e1bc a7eb 70be e867 e5bd
00000180: bfa2 8abd 1685 f13b d563 003e 4678 e23d
00000190: 2561 9a3d 85c3 3d3d 1934 85bd 42ea 32bb
000001a0: f677 0f3d d73b edbd 12f3 07bd 06a7 b93a
000001b0: 5498 25be f69c 473e b276 68bd 5cb7 29be
000001c0: 9929 053e c8e1 08be 090c bf3d b181 5c3e
000001d0: 3d48 db3c e20f 933c 2f4b 843d 909b 163e
000001e0: 2a46 133d b034 71bd 25eb 1b3d e816 843c
000001f0: 95b2 b5bd 74b6 ca3d 7ee6 2ebd 97fd 003d
00000200: 53b4 f73c 5ca4 f23d 38ae 86bd cfe9 3cbe
00000210: ada8 913d 9587 153e a710 653e fd7f 44bc
00000220: e268 073e 7248 043e 67dc 66be 4597 3dbe
00000230: f4ef 21be 0db1 2f3c 382e 36be 7fd7 02be
00000240: 6494 43bd b7d4 ed3d 0f90 0c3d c26d 833e
00000250: f474 6f3e 914c 2dbd 930a 573d 7f92 923d
00000260: 7a7b 813e ea5d 9fbd b921 16be 0501 23be
00000270: 5e03 f03d 46a8 c5bd 0b74 38be 72d5 1c3e
00000280: ab21 1b3e 3d44 8fbd d006 31be 4c15 443e
00000290: d0eb 8fbd f4f5 06be 0297 0cbe 23ea a1bd
000002a0: e949 0abe a628 01be 04f9 6bbe 4cd4 da3c
000002b0: 4722 f83d aab0 7fbd 3e44 7b3d c01b 93bc
000002c0: 9276 213e d8dc 3c3e 5c9e 8bbd eaf8 35be
000002d0: a0bb 7abe 2aa4 2bbe 51ab f33c 64b8 63bc
000002e0: 1a7e a43d 0ad9 6ebd f3e5 133e 7cbd eabd
000002f0: 1c10 723d f673 243e ca5f 6abe 7e3f f6bd
00000300: 8e43 d13d 2456 213d 3568 00bd 9e5b 333e
00000310: 1640 4f3d 49c5 7a3d 0b9e 05bc f379 543e
00000320: fa34 2d3e cb71 e1bc 3e27 63bd 2fcf 383d
00000330: 2abc e63d 015e 0bbe 543f cdbd da7d 013e
00000340: 54f3 16be d5af 753d dd3e 53be 2697 c93d
00000350: eec8 22be c61c 5c3d 73a0 183e 1aed 853d
00000360: 3ab6 87bd 3aed 043e c559 09be e46a 95bd
00000370: 85df 01be f201 e9bd bf96 58bb 711d f5bd
00000380: 9f74 8c3c e57d 7dbd 62b3 033e f2a8 bcbd
00000390: bf5b 30bd eb73 123e 2935 99bd a31f 5c3e
000003a0: 236a d5bd 678f e7bc f4c9 76bd c93b 9a3d
000003b0: 95b3 8b3d 1da2 bbbd c234 2c3e 5a01 ad3c
000003c0: 25b9 92bd bbf3 b3bc 4fcc 1e3e cc2c ab3e
000003d0: 06d9 673e 2e66 eb3d 374d 703e 5b95 ff3c
000003e0: b560 dcbc 2e2b 42be a9d9 68be 7fcb 393d
000003f0: 5dd5 41bd d51f 28be 1dd7 ebbd 912d 55bd
0.04988256 0.019516908 -0.14946143 0.040946577 -0.15748262 0.12239464 -0.095742464 -0.020738728
-0.052943014 0.18749726 -0.12908176 0.08565464 0.0997436 0.11974449 0.058699124 0.053167302
0.14699729 0.016608426 0.06621136 -0.15108599 -0.05701916 0.013074587 0.014226876 -0.08080065
-0.20537631 -0.022617672 0.12445393 0.23166363 -0.15569434 0.09322467 -0.14927801 -0.20792931
-0.16098419 -0.038594887 0.08070607 -0.09065022 0.16079643 0.22777703 0.03713896 0.14652073
-0.15502498 -0.12013879 -0.0067129345 0.0660878 -0.10540508 -0.1944082 0.056325242 0.034940235
0.23338808 -0.13437766 0.00037623226 -0.094847314 0.11963742 0.05963229 0.13921145 0.12156563
0.14859624 0.10721408 0.019450873 0.12778895 -0.17117229 0.117802635 0.2403214 0.16826783
-0.050249502 -0.03208146 -0.004863439 0.054428983 0.084575206 0.11987766 0.17938034 -0.0749073
0.018394612 0.15162922 0.077716656 -0.2586819 -0.10746885 -0.20873743 -0.066442534 -0.07309194
0.21857996 -0.07591369 -0.0443156 -0.20077573 0.12544626 -0.14005496 0.12092757 -0.16984822
-0.102584794 -0.07537833 -0.014313509 0.1952439 0.18084766 -0.02753296 -0.23527394 -0.11201459
-0.067693226 0.0073706014 0.12538083 0.110580966 0.0753806 0.04632904 -0.065040775 -0.0027300273
0.035026513 -0.11583679 -0.033190794 0.0014164157 -0.1617139 0.1949347 -0.05675382 -0.16573852
0.1300415 -0.13367379 0.093284674 0.21533848 0.026767844 0.01795191 0.06459653 0.1470778
0.035955586 -0.058888137 0.03806605 0.016124204 -0.088719524 0.098980814 -0.042700283 0.031491842
0.030237352 0.11847755 -0.06576198 -0.18448566 0.071122505 0.14602502 0.22369634 -0.011993405
0.13223603 0.1291826 -0.22545014 -0.18514736 -0.15814191 0.010723365 -0.17791069 -0.12777518
-0.04774894 0.11612838 0.034317072 0.25669676 0.23384458 -0.042309348 0.05250032 0.07156848
0.25289518 -0.077815846 -0.14661302 -0.15918358 0.11719392 -0.09651236 -0.18013017 0.15315798
0.15149562 -0.06995437 -0.17287755 0.19148749 -0.070273995 -0.13179761 -0.1372948 -0.07905986
-0.13504757 -0.12613162 -0.2304421 0.02671256 0.12115913 -0.06242434 0.061344378 -0.017957568
0.15767887 0.1844362 -0.06817314 -0.17770734 -0.24485636 -0.16761842 0.029744776 -0.013898943
0.080318645 -0.058312453 0.14443187 -0.114619225 0.059097394 0.1605986 -0.22888103 -0.12023829
0.10217963 0.03938879 -0.03134938 0.17515418 0.050598226 0.061223302 -0.008155356 0.20749645
0.1691474 -0.027520081 -0.055457346 0.04511946 0.11266358 -0.13610078 -0.100218445 0.12645665
-0.1474126 0.05998214 -0.20629449 0.098432824 -0.15896961 0.053738378 0.14904957 0.06539364
-0.06626554 0.1298112 -0.1341315 -0.072957784 -0.12682922 -0.11377324 -0.0033048836 -0.11968506
0.017145453 -0.06188764 0.12861398 -0.09211911 -0.043056246 0.14302032 -0.074808426 0.21496443
-0.104206346 -0.028266622 -0.06025119 0.07530934 0.06821362 -0.0916178 0.16817 0.021118809
-0.0716422 -0.021966806 0.15507625 0.33432615 0.22641382 0.114940986 0.23466955 0.031199148
-0.026901582 -0.18961784 -0.22739281 0.045360085 -0.04732262 -0.16418393 -0.11515639 -0.05204541

trend_block.c_attn_k.conv.bias f4 [16]
00000000: 331e b6bd 32f0 2f3e 18d1 de3c 0380 7e3d
00000010: d023 b53d fd12 9bbb a9d5 6cbd ca2e c03d
00000020: e668 29bd 3281 ebbd ca58 e73d 996b af3d
00000030: b15b 2f3d 3f0a e9bd 4848 07bc af68 9dbd
-0.08892479 0.17181471 0.027199313 0.0621338 0.08844721 -0.004732488 -0.05782095 0.09383924
-0.041359805 -0.114992514 0.11296232 0.085654445 0.042812053 -0.113789074 -0.008256979 -0.076859824

trend_block.c_attn_k.proj_back.weight f4 [8, 16]
00000000: c9ca 183e 34af 68be cbfd 4a3e 2b59 f23d
00000010: e7e4 90be 7e44 7e3e 571d abbe 7026 1f3d
00000020: 50b4 4fbe 2616 7bbe 2952 1dbd 0c18 6bbd
00000030: 458b 723e f546 47be 4b5f 703e b164 583e
00000040: 7e6d 503e 3f87 41bd 98c6 38be c7b6 3cbe
00000050: d149 773e 9e5c 08be 9e8e 0d3d 42ae 87bd
00000060: c76f aa3d f6d3 42be 19e0 983e cd8a 5cbe
00000070: 2641 7c3e 2bcc c4bd 5547 e7bd e4aa bfbd
00000080: 354b a83d a4ec dbbc 6692 73be c9fd 663e
00000090: 703f 4d3e b938 f83d d41a 463e a47a ec3c
000000a0: fff7 70bd 4253 05be c739 a1be 88df 80bd
000000b0: 22bb 01be 6d66 383e 1772 acbd be50 f03c
000000c0: facc d53c b848 10be 384a 67bc fad0 913e
000000d0: 3770 103e db2f 433e 5122 92bd 0768 10bd
000000e0: d34c 973d f397 3dbd 2579 49be 1fda 9a3e
000000f0: 4272 04bd 99f5 14be 5fb5 793e 70f8 bb3d
00000100: 6daa d43d 8e48 6cbe 58e0 f93b 3b87 143e
00000110: 81e8 fe3b 0cdc fdbd 3805 903e b81d ed3d
00000120: 065d 3c3e ae92 dc3c 700e 4b3d 162c 1e3e
00000130: e2b3 dabd 6c28 3abe e060 c23d c9db 9f3d
00000140: d903 9f3d d442 ebbc 8f05 0bbd 35bc 3fbb
00000150: d2e1 123d 99c2 78be 3b9b 96be 7d08 5f3d
00000160: ba34 86be 9a16 053d b16d 03bd d919 b93d
00000170: cffb 443e 862a 313e d4f2 393d 308c 69bd
00000180: 1a12 09bd b8b6 033d 8a1a 193e 6043 79be
00000190: aa4b a3bc 928d 80be 1024 adbc dc49 6d3e
000001a0: 7484 33be fe06 83be 4cd0 893e 1c3e 5bbe
000001b0: e4c7 153e 8e8a 483d fa68 ebbb 0e97 883d
000001c0: e2d6 88be c9fa 3f3e 9ec0 7f3d a31f 39be
000001d0: 5b9a bd3d 67dc 87bd c1e8 eabd 7dbb 43bd
000001e0: dca1 0dbe a665 523e baef 733e 8728 81bd
000001f0: cf96 80be 02fa b8bd 49ae 3e3d a1ad 273e
0.14921106 -0.22723085 0.19823377 0.11833414 -0.2829964 0.24830815 -0.33420822 0.038855016
-0.20283628 -0.24520168 -0.038408432 -0.05739598 0.2368594 -0.19460662 0.23473851 0.2113216
0.20354268 -0.04724812 -0.18044508 -0.18429099 0.24149252 -0.1331658 0.03455984 -0.06625034
0.08322101 -0.19026169 0.29858473 -0.21537323 0.24634227 -0.096092544 -0.112929024 -0.09358767
0.082174696 -0.026846237 -0.23786315 0.22557749 0.2004373 0.12120194 0.19346172 0.028867073
-0.058830258 -0.13020042 -0.31489393 -0.06292635 -0.12669042 0.18007822 -0.084201984 0.029335376
0.026098717 -0.1409024 -0.014116816 0.2847975 0.14105307 0.19061224 -0.071354516 -0.03525546
0.073877 -0.04628749 -0.19675119 0.30244538 -0.032335527 -0.14546813 0.24385594 0.09178245
0.10384069 -0.23074552 0.007625621 0.14504711 0.0077791815 -0.12395486 0.28128982 0.11577934
0.1839486 0.026925411 0.049574316 0.15446505 -0.10678841 -0.18179482 0.09491134 0.078055926
0.07764406 -0.02871839 -0.033940848 -0.0029256467 0.03585989 -0.24292983 -0.29415306 0.054451454
-0.26212102 0.032492258 -0.03208703 0.09038133 0.19236682 0.17301378 0.045397595 -0.05701846
-0.03346453 0.032156676 0.1495153 -0.24342108 -0.01993354 -0.2510801 -0.02113536 0.23172706
-0.17530996 -0.25591272 0.2691673 -0.21410412 0.14627033 0.04896026 -0.007184145 0.066694364
-0.26726443 0.1874801 0.062439553 -0.18078475 0.092579566 -0.06633835 -0.114701755 -0.047786225
-0.13831276 0.20546588 0.23821917 -0.06306558 -0.25115058 -0.0903206 0.04655293 0.16374828

trend_block.c_attn_k.proj_back.bias f4 [8]
00000000: f0a8 033c cc04 953d 56dc 873d 673f 11be
00000010: 3bc7 1ebe c8cd 64be 927f 00bb 5598 9e3d
0.008035883 0.072763056 0.066338226 -0.14184342 -0.15505688 -0.22344124 -0.0019607288 0.07743899

trend_block.c_attn_v.conv.weight f4 [16, 8, 3]
00000000: cfc1 8f3b 4a86 5c3e 2f1b f5bc 4025 11be
00000010: 884e ab3c 55f9 8cbd d7d0 29bd d149 373e
00000020: bbdb 8cbc f808 5b3e 36f0 6d3d 11bd 22bd
00000030: b6bf 0e3e 2655 d1bd 8d00 6e3b 2064 483d
00000040: 6c11 d13d 921f 36be 67b7 6bbb efbd 8abd
00000050: 7c9f de3d 19c7 8d3d a9ce ab3d c0a7 033e
00000060: 46d3 6bbd 5ea8 e7bc 9b72 143e e772 61be
00000070: 0331 4abe 133a 22bd da68 cebd c281 1abc
00000080: a7fa 213e ff8f d13c 1b00 02be ec8f 42bd
00000090: a09f 203e eb24 9abd 7c9d eebd c98e f53d
000000a0: b536 6e3d ee99 16be 440e 153e f0f8 bc3d
000000b0: 7027 1d3e 9f8d e43d f802 3fbd 8d20 33bd
000000c0: 9e14 1d3e fe33 a93c d7b9 aa3d 7245 2cbe
000000d0: 00ef 8bbd 0c03 f83d 634b 783c c742 98bd
000000e0: a7df 1abe ffca 5a3e d563 413d 979d f6bd
000000f0: 2714 393e dc25 b43d fb5c 02be f06e 5fbe
00000100: 3ff7 013e 0772 84bd 0d39 d2bd 28a3 0e3e
00000110: 46a0 cabc 456e 98bc b1f0 0fbe c087 52be
00000120: 4776 1fbe 7857 07bd 67d9 2abe 858f 833e
00000130: 717a 5d3d 5f78 cdbc 4242 d23d daa0 20be
00000140: 2ac2 9abd 33ef a8bc 95ed 84be 01be 8a3c
00000150: ca64 cd3b 1362 4bbe 3519 6abe 3ec4 5d3d
00000160: e690 a23d ad02 69bd dbcc 24be 0b1b d3bd
00000170: 1cac 383d 8d02 c13a a779 4f3d cbb7 063d
00000180: 79df 03bd 31d5 923d 9caf 2b3e 62ed 2e3e
00000190: ac94 473e 7097 77bd 4bb9 46bd 2f25 90bb
000001a0: d4c6 a43d 0ba1 db3d dc54 a73b aa64 f0bd
000001b0: 0170 40be 1972 233e 8877 9cbd b958 09bd
000001c0: 248a f3bd 2af7 d0bd 5148 953d 770c e23d
000001d0: b413 57bd 9255 b5bd cc2f 163e c542 f5bd
000001e0: d76b fcbd 36f6 adbb 1c93 643e c04d 153b
000001f0: a78f 66bc 4c85 90bd 725c ca3d f046 08be
00000200: df63 d63d 7b14 af3d 2ab4 643d a47f 8e3d
00000210: fc1e 17be 3711 0a3e 38ff a53d 3c19 00be
00000220: f015 20be ccb2 a5bc f86c bd3d a1ff 11be
00000230: 040d 133e 9673 a5bd da59 25be 7f5f e83d
00000240: da8e 65be 5478 09be c920 0fbe ee18 b2bc
00000250: 9779 2cbe 1760 59be 7c80 9a3d baf9 afbc
00000260: 7654 01be c324 adbd 1571 8bbe d374 b2bb
00000270: a08f 563d bdc6 293e 9260 3cbe fadc 5fbb
00000280: acca e63d 9ec3 283e c88a 0ebe 4784 bc3d
00000290: e3e0 b23d 302a 2b3e 4ae3 bebd b711 463e
000002a0: 04ee 12be 55b3 2ebe 3c32 9eba 9b8e 3f3e
000002b0: 6184 03be 1cfe e03d 336b 88bb b36e a43d
000002c0: 6878 323e b528 56bd b867 87be f346 18be
000002d0: cc50 2d3c c0e9 4ebe 7c01 08bc 6df9 c1bd
000002e0: 37c0 0ebd 6de0 973d af02 24be ad8e 02be
000002f0: 94a1 c63d 5562 37be e180 283e a0ce 05be
00000300: 75a2 f5bc b130 b93c c698 4c3d d5cb b0bd
00000310: bf42 753d 496e 043e 46de 483e a651 05be
00000320: 9971 9ebd 5f0c 6dbb 9667 71bd 3a51 49be
00000330: bb94 34be 6d27 4abe fa36 20be 6b32 b9bd
00000340: 346c 1abe 3efd 38be c0f2 053d d013 153e
00000350: 0f4e 99bd e1ed 333c cbd7 72bc 1108 aa3d
00000360: e7f4 29be 7825 a7bb 557e 2e3e 80e1 1c3e
00000370: 5f58 49be febe ddbc 98e1 4e3c 644a 63bd
00000380: dce9 f8bd 8050 1fbe a397 103e 0f1f 9abd
00000390: bfa7 b0bc 5a1c 2b3d 36eb 14be cb3b 063d
000003a0: ad36 1c3e a6d4 b6bd 8b18 9a3d 5471 86ba
000003b0: 79b5 f73d 290d 003e ef10 263d 562c 46bb
000003c0: 1bbb 4fbe 049a 693d 4152 e03d 9984 97bd
000003d0: 6ec6 4cbe 9e9a 253e d71b a3bd 5491 fc3b
000003e0: d9a6 b5bd 9e23 c73d ae47 253e 2ff5 be3d
000003f0: 2af7 aabd 37a4 fb3d ffb3 a03d 9fc8 593d
0.0043871175 0.21535602 -0.029920189 -0.14174366 0.02091147 -0.06883494 -0.04145893 0.17899252
-0.01719462 0.2139014 0.05809041 -0.03973109 0.1394032 -0.10221319 0.0036316246 0.04892361
0.10208401 -0.1778548 -0.003596747 -0.06774508 0.10870263 0.069227405 0.08389027 0.1285696
-0.057574533 -0.028278526 0.14496844 -0.22016488 -0.19745259 -0.039606165 -0.100785926 -0.009430351
0.15818273 0.025581358 -0.12695353 -0.047500536 0.15685892 -0.07526573 -0.116511315 0.11990125
0.05815764 -0.14707157 0.14556223 0.092271686 0.15347075 0.111598246 -0.04663369 -0.043732215
0.15339896 0.020654675 0.083362274 -0.16823366 -0.06832695 0.12109956 0.015154692 -0.07434612
-0.15124379 0.213665 0.047214348 -0.120417766 0.18074094 0.087962836 -0.12730782 -0.21819663
0.12691973 -0.064670615 -0.10264788 0.13929427 -0.024734627 -0.018607268 -0.1405666 -0.20559597
-0.15572463 -0.0330424 -0.16684495 0.25695434 0.054071847 -0.025081811 0.10266544 -0.1568636
-0.07556565 -0.020621872 -0.2596251 0.016936304 0.0062681185 -0.19861631 -0.22861178 0.05414223
0.079377934 -0.056887317 -0.16093771 -0.103078924 0.04508601 0.0014725492 0.050653126 0.032890122
-0.032195542 0.07169569 0.16766208 0.17082742 0.19490308 -0.060447156 -0.048516553 -0.004398964
0.08045736 0.10724076 0.0051065516 -0.1173795 -0.18792726 0.15961494 -0.07639986 -0.03353188
-0.118915826 -0.10203393 0.07289184 0.11037534 -0.052509025 -0.08854212 0.1466667 -0.11975626
-0.12325256 -0.0053088916 0.22321743 0.0022781938 -0.014072335 -0.07056674 0.09880914 -0.1330831
0.10468268 0.08548828 0.05583588 0.06957939 -0.14757913 0.1348313 0.0810532 -0.12509626
-0.15633368 -0.020226859 0.092493 -0.14257671 0.14360434 -0.08078687 -0.16147557 0.113463394
-0.22417775 -0.13424808 -0.1397735 -0.021740403 -0.16843258 -0.21228062 0.07544038 -0.021481384
-0.12629876 -0.08454277 -0.27234712 -0.0054460554 0.052383065 0.16579719 -0.18396214 -0.0034158812
0.11269125 0.16480872 -0.13920128 0.092049174 0.087343 0.16715312 -0.09320696 0.19342695
-0.14348608 -0.17060597 -0.0012069414 0.18706743 -0.12843467 0.109859675 -0.00416317 0.08028927
0.17428744 -0.052284915 -0.2644632 -0.14870815 0.0105783455 -0.20206356 -0.008301135 -0.09471402
-0.03485128 0.07415853 -0.16016649 -0.12749739 0.09698787 -0.17908604 0.16455413 -0.13067102
-0.029984692 0.022606226 0.049950384 -0.08632628 0.059878107 0.12932695 0.1961604 -0.13019428
-0.07736511 -0.0036170704 -0.058936678 -0.19659892 -0.17634861 -0.19741602 -0.15645972 -0.090428196
-0.15080339 -0.18065354 0.032702208 0.14558339 -0.074855916 0.010982008 -0.014821957 0.0830232
-0.16597329 -0.005100902 0.1704038 0.15320396 -0.19662617 -0.027068611 0.012627028 -0.055490866
-0.1215398 -0.15558052 0.14120345 -0.07525455 -0.021564363 0.041775085 -0.14542851 0.032771867
0.15255232 -0.08927278 0.075242124 -0.0010257163 0.1209516 0.1250502 0.040543493 -0.0030238829
-0.20286219 0.057031646 0.10953189 -0.07398338 -0.1999757 0.16172263 -0.079642944 0.007707754
-0.08869714 0.0972359 0.16140625 0.09324109 -0.08347924 0.12287181 0.078468315 0.053169843

trend_block.c_attn_v.conv.bias f4 [16]
00000000: 63b7 ebbd 43fd 2c3e 7fbe cfbb 591f 3e3e
00000010: 8541 863c 5eec 55bd 4a61 e2bd 5585 23be
00000020: e696 1bbe 1627 143e c289 ccbd 78a4 58be
00000030: 76a4 0b3e d36b b13c 977e 65bd d5c7 23be
-0.115095876 0.16893487 -0.0063398476 0.18566646 0.016388664 -0.05222737 -0.11053713 -0.15968831
-0.15194282 0.14468035 -0.09987213 -0.2115649 0.13636956 0.02165786 -0.05602893 -0.15994199
