hnam_experiments/Fit_and_Predict/models/Favorita/HNAM/lightning_logs/version_4/checkpoints/model-29-0.787.ckpt (torch, 399610 bytes, 216 tensors)

input_embeddings.embeddings.national_holiday.weight f4 [178, 8]
0.1712829 0.38644418 0.45248222 0.8365644 0.035646487 -0.09168581 -0.4875881 -1.3607184
1.2365183 -1.8490593 -0.3215171 -1.3623644 -0.49499047 0.8021668 1.2677506 -0.5928378
-1.2833698 -1.6437187 -0.6858852 -1.2181394 0.20805833 -1.3836411 2.3566422 3.0350165
-0.6076506 -4.956692 -0.07646134 0.5011766 1.1931431 -0.42192522 2.048116 0.040917233
1.2764955 -1.0029805 0.30561706 0.05616546 -0.7256162 0.014924142 0.5296846 -0.668582
0.94484425 -1.6813425 -0.1862032 -0.92272323 -0.36901057 -0.01863978 0.7729418 1.2254772
-0.6932375 0.6452753 1.4826784 -0.8968558 -0.7685641 -0.16147599 2.8048391 -1.9159354
-0.8358908 0.14296152 -1.285078 0.36029637 0.08475629 -2.4640331 0.72800446 2.1079257
0.22930561 0.24215887 -0.0031140477 -0.96857816 -0.9946227 -0.0997774 0.52521276 1.3502054
0.5919405 1.5297927 0.9286758 1.0298419 -1.6489019 -0.29962277 0.2882815 -1.0684236
0.032907132 3.5418332 1.5170741 -0.32979536 -0.7587181 0.062431782 0.22265568 -1.7827827
-0.87053484 -0.2541042 0.20554055 -1.1035475 0.07971136 2.0937946 0.16581386 0.19761397
0.09356462 0.025957262 1.5052077 0.31924284 -0.133951 -1.3597378 0.15779047 -0.7924193
0.38424924 -0.78238875 0.58234984 -0.326363 0.61925566 -1.9260676 0.80341524 0.67984515
-0.42343056 0.54789805 -0.35281095 -0.16509075 0.16049612 -1.5631526 -1.1567363 1.1319532
-1.2262123 1.7722217 2.517211 -0.34810045 -1.1622472 1.1592506 -0.22062662 0.52638805
-0.9957773 0.7993731 -0.35599568 1.3788843 0.11029643 -0.91840696 -0.9043006 0.19755913
0.81359136 0.2316576 -0.13840428 -1.2684569 -0.75624466 0.6121987 0.18750098 0.71127486
-1.529432 0.1837165 1.8122272 0.7674828 0.020583086 0.06908061 -0.6384736 0.09620921
0.9312495 -0.33391866 -0.4297115 0.048034772 -0.28391692 0.9434205 0.066463396 -0.8306192
0.9790837 -0.00062401185 0.8536728 0.18239059 0.0019666862 0.30421966 0.26110327 -1.8250046
0.7348034 -0.13540842 1.1112821 0.34118757 -0.0850055 -0.57885695 -0.6169878 -0.5756845
0.34969324 -0.39730632 0.68802744 -0.084822945 -0.74496514 -0.6226021 0.30971545 0.15684819
-0.8381708 0.21604407 1.2029948 -0.27298948 -0.86049634 -0.23000585 1.2506285 0.21353967
0.4815642 -0.4278872 -1.2815983 0.50404954 -0.21764055 1.1784042 0.4332748 -0.88424164
0.07338382 -0.7301359 -0.47028345 0.038895786 -0.22163521 0.7372902 0.036147226 0.35230836
0.31089073 -0.80324143 -1.0738059 0.5862534 -1.0164756 -0.4453614 0.91474295 1.165726
0.3937151 0.6403753 -2.0429723 1.1569129 -1.6982347 0.28811842 1.1300583 -0.16769542
-0.93107176 -0.6773663 -0.08411599 0.5192504 0.3516786 -0.5842238 0.2558085 0.35944912
0.78778857 -0.5834507 -0.041471515 0.53148216 -0.5901756 -0.006243323 -0.43213877 0.108246654
0.70875055 -2.861287 -0.73764616 0.41627386 -1.0196885 0.2098601 0.9547289 0.25513905
1.2919605 -1.9435074 1.1485507 -0.28218505 -0.106876105 -0.78200465 -0.39933968 -0.4958036
00000000: c964 2f3e 03dc c53e c0ab e73e 1629 563f
00000010: 0d02 123d c5c5 bbbd 26a5 f9be 052c aebf
00000020: 3b46 9e3f faad ecbf e49d a4be f561 aebf
00000030: 646f fdbe ce5a 4d3f a745 a23f 38c4 17bf
00000040: 7645 a4bf 6065 d2bf 2c96 2fbf feeb 9bbf
00000050: 3e0d 553e 271b b1bf 3ad3 1640 b63d 4240
00000060: fd8e 1bbf 399d 9ec0 c397 9cbd 1c4d 003f
00000070: eab8 983f 9506 d8be 5514 0340 d498 273d
00000080: 3464 a33f aa61 80bf d779 9c3e c10d 663d
00000090: fcc1 39bf 6384 743c 6999 073f 3128 2bbf
000000a0: 50e1 713f 3b36 d7bf 0dac 3ebe 9737 6cbf
000000b0: f4ee bcbe 74b2 98bc 84df 453f 70dc 9c3f
000000c0: 0378 31bf c330 253f 68c8 bd3f 5798 65bf
000000d0: 9ec0 44bf f659 25be 7c82 3340 5f3d f5bf
000000e0: f1fc 55bf 8164 123e 707d a4bf c478 b83e
000000f0: b594 ad3d b8b2 1dc0 805e 3a3f 41e8 0640
00000100: 17cf 6a3e 7ff8 773e 0d15 4cbb bdf4 77bf
00000110: 989f 7ebf 1858 ccbd 5874 063f 88d3 ac3f
00000120: 6a89 173f 3fd0 c33f b2bd 6d3f dcd1 833f
00000130: 380f d3bf 2868 99be a299 933e 1bc2 88bf
00000140: a1c9 063d 65ad 6240 7c2f c23f f0da a8be
00000150: 593b 42bf 78b8 7f3d daff 633e 3932 e4bf
00000160: 5fdb 5ebf f219 82be 3979 523e 0b41 8dbf
00000170: b63f a33d bb00 0640 1ccb 293e 515b 4a3e
00000180: cf9e bf3d 53a4 d43c a5aa c03f cc73 a33e
00000190: 732a 09be e30b aebf d393 213e fedb 4abf
000001a0: 51bc c43e a14a 48bf e114 153f 0d19 a7be
000001b0: 8a87 1e3f 6289 f6bf 9fac 4d3f 550a 2e3f
000001c0: e4cb d8be 0c43 0c3f a3a3 b4be 8d0d 29be
000001d0: 1859 243e 6215 c8bf ef0f 94bf d8e3 903f
000001e0: 86f4 9cbf 29d8 e23f fc19 2140 393a b2be
000001f0: 84c4 94bf 5362 943f f2eb 61be 5ec1 063f
00000200: 43eb 7ebf b7a3 4c3f 1145 b6be 487f b03f
00000210: 18e3 e13d b81c 6bbf 3e80 67bf f14c 4a3e
00000220: 8647 503f a637 6d3e dab9 0dbe cc5c a2bf
00000230: 4099 41bf 0eb9 1c3f 4200 403e 1c16 363f
00000240: 6ec4 c3bf 2e20 3c3e 10f7 e73f c179 443f
00000250: dc9d a83c 237a 8d3d 0173 23bf 5609 c53d
00000260: 5e66 6e3f 63f7 aabe 2503 dcbe 1cc0 443d
00000270: 8f5d 91be 0284 713f f61d 883d 76a3 54bf
00000280: 3ba5 7a3f ba94 23ba 4d8a 5a3f 99c4 3a3e
00000290: 85e3 003b aec2 9b3e 54af 853e c099 e9bf
000002a0: 131c 3c3f 81a8 0abe 7e3e 8e3f 23b0 ae3e
000002b0: 5d17 aebd f82f 14bf eaf2 1dbf 0f60 13bf
000002c0: fe0a b33e bc6b cbbe 9122 303f a7b7 adbd
000002d0: 09b6 3ebf da62 1fbf 0693 9e3e d09c 203e
000002e0: 5d92 56bf a83a 5d3e bcfb 993f 47c5 8bbe
000002f0: 7d49 5cbf a786 6bbe 9814 a03f 25aa 5a3e
00000300: 958f f63e 0814 dbbe 6a0b a4bf 6409 013f
00000310: 2add 5ebe f3d5 963f 32d6 dd3e a95d 62bf
00000320: 424a 963d 30ea 3abf fec8 f0be 3051 1f3d
00000330: 57f4 62be 0dbf 3c3f 1d0f 143d c361 b43e
00000340: 122d 9f3e 3ba1 4dbf 7972 89bf b414 163f
00000350: df1b 82bf 6906 e4be 982c 6a3f 8236 953f
00000360: 0795 c93e a3ef 233f 0fc0 02c0 b915 943f
00000370: c15f d9bf 4284 933e c0a5 903f 59b8 2bbe
00000380: b85a 6ebf e167 2dbf 0145 acbd 98ed 043f
00000390: 380f b43e b18f 15bf 55f9 823e b709 b83e
000003a0: 83ac 493f 065d 15bf 09de 29bd 370f 083f
000003b0: c015 17bf ca94 ccbb 4b41 ddbe 6cb0 dd3d
000003c0: ad70 353f 541f 37c0 61d6 3cbf d921 d53e
000003d0: 2785 82bf 91e5 563e 1d69 743f 96a1 823e
000003e0: f65e a53f dac4 f8bf b603 933f 8f7a 90be
000003f0: dce1 dabd 7531 48bf 4076 ccbe f8d9 fdbe

input_embeddings.embeddings.regional_holiday.weight f4 [19, 8]
-0.33612967 0.039928034 -0.020053284 -0.3312469 0.1565911 0.10507558 0.3181113 0.1445796
0.73902977 -0.61440194 -0.3428397 0.7468774 -0.012226387 -1.1507294 0.3970392 -1.0074971
0.05275446 0.093650036 0.34334037 -0.91373515 0.6386199 0.19588552 -0.52186173 -0.1611409
0.110167064 0.019984046 -0.79417855 0.5068722 0.4765581 0.9537804 -0.67892134 -0.16899611
-0.7328041 -0.78697014 0.4333275 2.0345664 -2.2856429 -2.0793 0.042370975 1.817567
-0.7063505 -1.4745637 0.62838864 1.1070765 -0.9291802 -2.0851617 2.012713 0.86400706
-1.3442676 -1.7803427 -0.31887564 -0.033057783 0.9973807 -0.18120624 1.8410656 0.4257533
1.3656262 -2.1329231 -1.6990793 0.18268703 -1.4176974 -0.33740422 1.3268855 0.9527761
-1.1595032 -0.07360646 0.5426249 -1.7318845 -0.16450152 0.89906925 -0.39109197 2.2836483
1.6817886 -0.5529815 0.13717304 -1.0716732 -1.8641994 0.2689832 1.016463 0.6330259
1.6046566 -1.7073499 -0.63835734 -0.5052729 -0.6928253 0.86228067 1.1801696 -0.6173702
-0.0074324193 -1.1923654 -1.2348856 0.8535367 0.0919118 0.41327506 0.50410885 0.6545409
-0.92392343 -0.92549926 -0.8533547 0.19964951 0.027912721 0.26868063 0.995474 0.7883062
0.5436805 -0.7289573 -1.5966817 0.2641292 -1.2428833 0.7333218 -0.95874524 1.842101
0.7724795 -2.5933568 -0.6125155 0.35086554 -0.6468101 -0.54070425 0.79478186 1.2490287
1.224595 -1.0214916 -0.77323014 -1.0309505 -0.035547026 0.38883987 -0.191355 0.5571823
1.2618868 -0.74505216 -0.9967725 0.32785287 -1.2831655 1.2716831 0.75745666 -0.9558534
1.0654994 -0.7526189 -1.3276443 0.18885282 -0.31093124 1.2656424 0.3854626 -0.22769618
-0.8497651 -0.64732826 -2.3047407 1.6793321 -0.24350849 -0.45357877 1.2443271 0.35747898
00000000: 3019 acbe 948b 233d c946 a4bc 3299 a9be
00000010: 6b59 203e de31 d73d 7cdf a23e ad0c 143e
00000020: 0e31 3d3f 7249 1dbf af88 afbe 5b33 3f3f
00000030: 2f51 48bc 1a4b 93bf b948 cb3e aaf5 80bf
00000040: 1015 583d 97cb bf3d 4fca af3e 8cea 69bf
00000050: 987c 233f 3796 483e bb98 05bf 1f02 25be
00000060: 459f e13d 95b5 a33c 494f 4bbf 60c2 013f
00000070: 6cff f33e f42a 743f cacd 2dbf 510d 2dbe
00000080: 0d99 3bbf e076 49bf 1add dd3e 5636 0240
00000090: f947 12c0 4013 05c0 308d 2d3d 09a6 e83f
000000a0: 63d3 34bf 81be bcbf 14de 203f afb4 8d3f
000000b0: c1de 6dbf 4a73 05c0 4ad0 0040 912f 5d3f
000000c0: f610 acbf 45e2 e3bf ab43 a3be 9967 07bd
000000d0: 5754 7f3f 218e 39be 0aa8 eb3f 56fc d93e
000000e0: d7cc ae3f d081 08c0 6e7b d9bf 4f12 3b3e
000000f0: 1c77 b5bf 3fc0 acbe 62d7 a93f 22e9 733f
00000100: 9a6a 94bf fcbe 96bd 77e9 0a3f 64ae ddbf
00000110: 1673 28be 6729 663f 353d c8be 4b27 1240
00000120: d944 d73f 3290 0dbf 1777 0c3e 962c 89bf
00000130: 169e eebf 2ab8 893e 761b 823f fc0d 223f
00000140: 6365 cd3f 718a dabf 636b 23bf 9159 01bf
00000150: 005d 31bf 6dbe 5c3f cc0f 973f f90b 1ebf
00000160: a78b f3bb 6e9f 98bf bb10 9ebf 6281 5a3f
00000170: 413c bc3d ca98 d33e 470d 013f fe8f 273f
00000180: 3f86 6cbf 85ed 6cbf 7475 5abf ec70 4c3e
00000190: 38a9 e43c 8290 893e 62d7 7e3f 6fce 493f
000001a0: a52e 0b3f f29c 3abf 1160 ccbf f13b 873e
000001b0: cd16 9fbf faba 3b3f 5470 75bf f7c9 eb3f
000001c0: 37c1 453f 8ff9 25c0 d1cd 1cbf a6a4 b33e
000001d0: 5995 25bf 986b 0abf d376 4b3f 2ce0 9f3f
000001e0: 87bf 9c3f 3dc0 82bf 69f2 45bf 30f6 83bf
000001f0: c299 11bd 0516 c73e 91f2 43be 80a3 0e3f
00000200: 8285 a13f bdbb 3ebf 7c2c 7fbf 55dc a73e
00000210: c43e a4bf 83c6 a23f aee8 413f cfb2 74bf
00000220: 4962 883f a2ab 40bf 40f0 a9bf a262 413e
00000230: 6132 9fbe 9200 a23f 5b5b c53e 3029 69be
00000240: 358a 59bf 4eb7 25bf df80 13c0 5bf4 d63f
00000250: 4a5a 79be 7a3b e8be 1c46 9f3f 7c07 b73e

input_embeddings.embeddings.local_holiday.weight f4 [115, 8]
-0.4046609 0.47258824 0.34228522 -0.20015915 0.56894326 0.11356581 -0.13809559 -0.5257274
-1.4924738 -2.055032 -0.04365535 -0.6875473 0.44901967 2.1463373 1.2304461 -0.41423082
0.23166807 0.13866784 -0.28469846 -0.62757164 -1.0101558 1.0075742 1.1758726 -0.9394646
-0.6478469 -0.016933333 0.3145717 -0.69762677 0.12490004 1.0019853 -0.041514333 -0.09430031
0.2809533 -0.5211557 -1.2617233 -0.4772112 -0.2237376 0.36192933 1.2605356 -0.27356154
0.22390024 -1.711306 -0.06281659 -0.06785799 1.7556081 -0.8283827 -0.30651626 0.64726543
0.077162236 -0.2691235 0.33102053 -0.5606439 0.31779817 -1.1495109 0.8283963 -0.11425794
-1.186025 -0.41909695 -1.0271022 0.42808345 -0.69821846 0.93342495 0.103142105 1.0892755
0.94504696 -2.8235292 0.4805599 0.7752914 0.09280742 -1.1134723 -0.080473244 -0.26273724
0.18239276 -2.9105344 -0.3304007 -1.7034017 0.30609497 0.6451825 0.9388067 1.0082954
1.5680581 -1.656507 -0.27520642 -1.1079187 0.019030334 0.9036084 0.23472928 -0.60499793
-1.4883806 -0.49997863 -0.167518 -0.6066744 -0.9500472 3.8951514 -0.33042789 0.85700744
1.5795248 -1.6805335 -1.1896619 0.22873092 0.33003908 -0.2767939 0.7923978 -0.846896
0.8811042 -1.2014508 -0.20390166 1.1252404 -0.9712868 -0.02938926 0.06023923 -0.4976046
0.12267741 -1.3403891 -0.64741135 0.9637791 0.36712852 -0.52613205 -0.09739294 0.5134679
-0.35131186 -0.5016074 -1.2777923 1.2037946 0.510928 -1.227494 0.31058276 0.6422055
-0.29014766 -0.52558005 0.25758997 1.8602939 -0.9518843 -0.62458074 -0.30784747 0.9143176
-0.31490338 -0.84476393 -0.30882922 0.38252512 0.3888362 0.5605824 -1.1336644 0.110503696
-0.15051338 -0.4749898 -0.65367913 1.6840348 0.47064885 -0.38029844 -1.0287507 -0.34579638
-1.1535176 0.24929678 0.044728354 0.97739327 0.99447966 -0.59103847 0.29163685 -1.1896187
0.76416934 -1.0624777 0.14139612 0.64931273 -2.1481764 -0.56880325 0.50703585 0.64415854
-0.20084172 -0.40984532 -1.4347804 -0.2957357 0.721553 0.3072861 0.6271171 0.18265529
-0.6664899 0.56306785 1.0544336 1.2110126 0.38438946 -1.3782127 0.77542466 -1.4467819
-0.48797747 0.44405726 0.54001755 0.5339467 0.598167 -0.5389606 -0.15354832 -0.39498886
0.27988872 -0.81055814 0.7549518 1.0112076 -1.0948925 -0.69160706 1.2363241 -1.7567114
0.27796924 -1.4093194 0.021816172 0.20203544 -0.8914662 1.012177 -0.29634023 0.26012248
1.3919934 -0.8364467 -2.2336433 1.1137046 -0.2697926 -0.17169043 0.43319225 -0.7578621
-0.10090811 0.6528015 0.42527318 -0.9782654 -0.9608569 0.19520673 -0.17042764 1.2648627
-0.7052005 0.68995625 0.15186843 -0.052989136 -0.8757875 1.2735134 -0.34190443 0.05071501
-0.43442854 0.1237561 -1.3494587 0.21816543 -1.8290958 0.43928275 1.6959568 0.68436164
-0.21848944 0.8122938 -0.1625897 -0.73906475 -0.06819096 1.5509142 -0.17946689 -1.1287869
0.08807255 1.0202572 -0.23238482 0.65056145 0.15926968 1.2041012 -1.0589068 -1.6725906
00000000: b72f cfbe 16f7 f13e 0240 af3e 85f6 4cbe
00000010: 44a6 113f 3195 e83d ee68 0dbe 1296 06bf
00000020: 6209 bfbf a585 03c0 f4cf 32bd 1a03 30bf
00000030: e8e5 e53e 975d 0940 427f 9d3f 1016 d4be
00000040: 653a 6d3e f1fe 0d3e ffc3 91be 89a8 20bf
00000050: c94c 81bf 31f8 803f fe82 963f c180 70bf
00000060: 4bd9 25bf c6b7 8abc 8b0f a13e ab97 32bf
00000070: 98cb ff3d 0e41 803f ef0a 2abd 8520 c1bd
00000080: 1cd9 8f3e 766a 05bf 2680 a1bf 0755 f4be
00000090: 781b 65be cd4e b93e 3b59 a13f 4210 8cbe
000000a0: 1b46 653e 130c dbbf fca5 80bd 21f9 8abd
000000b0: c4b7 e03f e310 54bf b3ef 9cbe 30b3 253f
000000c0: 3c07 9e3d 8eca 89be 867b a93e 5c86 0fbf
000000d0: 71b6 a23e 2c23 93bf c811 543f 1100 eabd
000000e0: abcf 97bf e093 d6be 1678 83bf c12d db3e
000000f0: 72be 32bf f0f4 6e3f 2b3c d33d 616d 8b3f
00000100: 99ee 713f b4b4 34c0 f20b f63e 7f79 463f
00000110: d111 be3d 4386 8ebf 28cf a4bd 7f85 86be
00000120: 2bc5 3a3e 3246 3ac0 482a a9be 1109 dabf
00000130: 7bb8 9c3e ae2a 253f a355 703f d30f 813f
00000140: 21b6 c83f 6c08 d4bf dbe7 8cbe 48d0 8dbf
00000150: 81e5 9b3c e152 673f df5c 703e 25e1 1abf
00000160: 4183 bebf 33fd ffbe d789 2bbe 034f 1bbf
00000170: 4b36 73bf 294a 7940 d82d a9be d764 5b3f
00000180: de2d ca3f b91b d7bf d746 98bf 7038 6a3e
00000190: e2fa a83e eeb7 8dbe 95da 4a3f 2dce 58bf
000001a0: 0b90 613f 24c9 99bf 99cb 50be e107 903f
000001b0: 40a6 78bf bfc1 f0bc 69bd 763d 08c6 febe
000001c0: 4b3e fb3d df91 abbf c0bc 25bf 3aba 763f
000001d0: 45f8 bb3e 97b0 06bf f375 c7bd a272 033f
000001e0: 26df b3be 5869 00bf b38e a3bf f115 9a3f
000001f0: 2dcc 023f 861e 9dbf b404 9f3e 9467 243f
00000200: 3c8e 94be 6a8c 06bf d5e2 833e 1c1e ee3f
00000210: b1ae 73bf 86e4 1fbf 2f9e 9dbe b810 6a3f
00000220: 043b a1be 7342 58bf dd1e 9ebe 55da c33e
00000230: 8a15 c73e 5482 0f3f ea1b 91bf c34f e23d
00000240: 2e20 1abe dd31 f3be 8457 27bf 748e d73f
00000250: e3f8 f03e 7ab6 c2be 1aae 83bf 390c b1be
00000260: 77a6 93bf a847 7f3e 1435 373d 7236 7a3f
00000270: 3896 7e3f 4c4e 17bf 6d51 953e 6d45 98bf
00000280: 9aa0 433f 45ff 87bf 25ca 103e 5c39 263f
00000290: b97b 09c0 179d 11bf 1acd 013f 93e7 243f
000002a0: 74a9 4dbe 3fd7 d1be e2a6 b7bf ab6a 97be
000002b0: b3b7 383f 9b54 9d3e bf8a 203f fd09 3b3e
000002c0: 159f 2abf 3725 103f aef7 863f 7602 9b3f
000002d0: b2ce c43e 4669 b0bf 3b82 463f 2630 b9bf
000002e0: 2fd8 f9be 795b e33e 973e 0a3f bbb0 083f
000002f0: 7921 193f 52f9 09bf c53b 1dbe fb3b cabe
00000300: 934d 8f3e bd80 4fbf 8544 413f 406f 813f
00000310: 7025 8cbf 290d 31bf de3f 9e3f ebdb e0bf
00000320: fc51 8e3e 9464 b4bf d4b7 b23c 61e2 4e3e
00000330: 2137 64bf 048f 813f e8b9 97be c62e 853e
00000340: d72c b23f 5f21 56bf 03f4 0ec0 df8d 8e3f
00000350: 4122 8abe 9ecf 2fbe 60cb dd3e 4003 42bf
00000360: e9a8 cebd 001e 273f 68bd d93e 9a6f 7abf
00000370: b8fa 75bf 46e4 473e 9584 2ebe 05e7 a13f
00000380: 0588 34bf f9a0 303f 6683 1b3e 230b 59bd
00000390: 9c33 60bf 7d02 a33f 190e afbe 8bba 4f3d
000003a0: 6b6d debe d773 fd3d 10bb acbf c266 5f3e
000003b0: d01f eabf abe9 e03e 1d15 d93f 5332 2f3f
000003c0: b2bb 5fbe 7df2 4f3f ea7d 26be 5933 3dbf
000003d0: b4a7 8bbd 5b84 c63f 2bc6 37be 177c 90bf
000003e0: 625f b43d ca97 823f 49f6 6dbe 328b 263f
000003f0: 9717 233e fd1f 9a3f 428a 87bf 7317 d6bf

input_embeddings.embeddings.art.weight f4 [174, 8]
-0.00077847275 0.63644487 -0.40062228 0.30782187 -0.45122102 -0.22173017 0.21405874 0.14693138
-0.29485932 -0.235496 -0.37045375 -0.69632757 0.33826256 0.82011944 0.664197 -0.20188309
-0.126711 -0.4129112 0.04400073 -0.50859153 -0.10829183 0.59396225 0.8218416 -0.2847799
0.028336847 -0.5810203 0.49702397 -0.027217926 -0.8583082 -0.25602505 0.07626187 1.258279
0.011721356 0.6324469 -1.2739958 0.02232036 0.4325635 -0.009604961 -0.27423033 0.21269737
0.01099165 -0.15008403 -0.6395152 0.71368897 0.14340292 -0.15885694 0.058277823 -0.2590869
0.011495056 -0.07887785 0.57731843 0.08137127 -0.040318925 0.4230511 -0.2293081 -0.26677135
-0.19289619 -0.008171227 0.58018136 -0.015467815 -0.15940042 0.43989015 0.138924 -0.40680265
0.03375462 0.28597313 0.21417592 -0.44002873 0.791252 -0.2343963 -0.07561642 -0.46942875
0.098435804 -1.2171266 -0.08403649 -0.15373819 0.66007113 1.0317382 0.4222022 -0.5114737
0.104691505 -0.2976379 -0.28161514 0.22264053 -0.5443842 0.040377527 0.41729116 0.18669814
0.393174 -0.13256128 -0.26989114 0.087020606 -0.21307813 -0.016700013 -0.060059234 0.21885811
-0.31036702 -0.25869352 0.61689883 -0.3296443 -0.41249233 -0.15055938 -0.18136396 1.2831591
0.23077007 -0.089024566 -0.3672005 0.13008845 1.634631 1.5966161 -0.8701836 -1.6296322
0.8514425 1.4749664 -0.07272124 0.46054617 1.430235 1.3905833 0.029545555 -1.7732378
-0.68260604 -0.24588898 0.039280817 -0.46388084 -0.22704749 0.16010521 0.013774685 1.0579855
0.16328266 0.2656811 -0.24307522 0.037020374 -0.8342922 -0.3155397 0.2346649 0.35369632
0.11502139 0.019763311 -0.7581234 0.44746324 0.27056107 -0.13768876 0.03804309 -0.113244735
-0.21101627 0.70596045 -0.9462092 -0.26195738 0.040997814 -0.24381104 0.36923277 0.2715802
-0.05454114 -0.24725428 -0.571787 0.2685421 0.12058569 0.2570757 -0.08836908 0.21694921
-0.12601805 0.20761932 -0.7584183 0.16531216 0.041964483 -0.3737188 0.111689925 0.34927294
0.020323433 -0.08305975 -0.060838137 0.11459616 0.41486767 -0.33302355 -0.11592538 0.067746855
-0.20311682 0.40893584 -0.28910506 0.21721196 0.31642023 -0.1497093 -0.15444021 0.038094126
-0.8314767 -0.41949388 -0.5813596 -0.8702114 0.476776 0.601185 0.07052395 0.9106658
0.0024797777 -0.48908192 0.48695865 0.45568585 0.27811012 -1.3786335 -0.42666662 0.7560486
0.05712888 -0.30029324 0.6298978 0.3242506 0.40754324 0.14772391 -0.8576017 -0.011022752
0.4194673 -0.75810176 -0.0014032191 0.31233838 -0.46149823 0.08784439 0.056598093 0.21809722
0.44015017 -0.8247257 0.60549086 -0.41555524 -0.8293988 0.37676257 0.18589431 -0.09615187
0.35409433 -0.32221442 0.6759799 0.25482735 -0.7142694 0.01695699 -0.24436592 -0.21107015
-0.30593172 -0.5886417 1.031611 0.30461115 0.07828547 -0.23012882 -1.008611 0.0831315
0.17824668 -0.75678664 0.74545187 0.18971337 -0.581053 0.22311448 -0.1560828 -0.24101952
0.055687245 -0.8947887 0.8106913 0.15517642 -0.602763 0.38270912 -0.06682976 -0.30111203
00000000: 6c12 4cba 0dee 223f 5d1e cdbe d49a 9d3e
00000010: 7106 e7be 3c0d 63be 3732 5b3e 2e75 163e
00000020: cdf7 96be dd25 71be 1dac bdbe 8642 32bf
00000030: c030 ad3e 59f3 513f d108 2a3f 71ba 4ebe
00000040: 87c0 01be 1969 d3be 1c3a 343d 0e33 02bf
00000050: 1bc8 ddbd e90d 183f 3664 523f acce 91be
00000060: ad22 e83c bfbd 14bf ed79 fe3e 21f8 debc
00000070: 16ba 5bbf b715 83be 2f2f 9c3d 490f a13f
00000080: ee0a 403c 0ae8 213f 4b12 a3bf 30d9 b63c
00000090: f778 dd3e 205e 1dbc eb67 8cbe 57cd 593e
000000a0: 5216 343c a1af 19be 45b7 23bf 52b4 363f
000000b0: 37d8 123e 65ab 22be bab4 6e3d 0aa7 84be
000000c0: c255 3c3c b68a a1bd 24cb 133f fba5 a63d
000000d0: 7525 25bd 279a d83e becf 6abe 4196 88be
000000e0: 9486 45be 9ce0 05bc c486 143f b86c 7dbc
000000f0: dd39 23be 4839 e13e 1842 0e3e 7048 d0be
00000100: 4942 0a3d 126b 923e ef50 5b3e 724b e1be
00000110: 7e8f 4a3f 9505 70be c8dc 9abd f758 f0be
00000120: b698 c93d ceca 9bbf 531b acbd 8b6d 1dbe
00000130: 6cfa 283f ff0f 843f e32a d83e f1ef 02bf
00000140: 8068 d63d ff63 98be dc2f 90be e1fb 633e
00000150: c35c 0bbf e862 253d 30a7 d53e cc2d 3f3e
00000160: 1a4e c93e 25be 07be 2c2f 8abe dc37 b23d
00000170: 2731 5abe 77ce 88bc ac00 76bd 571c 603e
00000180: 6de8 9ebe 7a73 84be 15ed 1d3f 23c7 a8be
00000190: 3232 d3be 3d2c 1abe 79b7 39be 8f3e a43f
000001a0: fd4e 6c3e 8352 b6bd b401 bcbe e835 053e
000001b0: 973b d13f eb5d cc3f 5ac4 5ebf ca97 d0bf
000001c0: 23f8 593f b3cb bc3f e0ee 94bd b5cc eb3e
000001d0: f111 b73f a2fe b13f 8509 f23c 75f9 e2bf
000001e0: 45bf 2ebf 52ca 7bbe ece4 203d ca81 edbe
000001f0: 237f 68be 9ff2 233e 37af 613c 126c 873f
00000200: 9233 273e 5a07 883e b6e8 78be ada2 173d
00000210: 2c94 55bf 6b8e a1be ff4b 703e af17 b53e
00000220: 5690 eb3d abe6 a13c 6014 42bf e719 e53e
00000230: fb86 8a3e 48fe 0cbe 12d3 1b3d dbec e7bd
00000240: a614 58be d3b9 343f c43a 72bf 471f 86be
00000250: 53ed 273d 9aa9 79be 140c bd3e 8f0c 8b3e
00000260: 8866 5fbd 3a30 7dbe a260 12bf 5a7e 893e
00000270: a1f5 f63d 6d9f 833e d9fa b4bd ef27 5e3e
00000280: e00a 01be 299a 543e b427 42bf 9747 293e
00000290: f3e2 2b3d 1258 bfbe b0bd e43d e7d3 b23e
000002a0: 547d a63c 3b1b aabd 6931 79bd 64b1 ea3d
000002b0: 8969 d43e 1082 aabe 496a edbd ddbe 8a3d
000002c0: dbfd 4fbe 0a60 d13e 9405 94be d06c 5e3e
000002d0: d501 a23e 654d 19be 9325 1ebe 9608 1c3d
000002e0: a8db 54bf e7c7 d6be fcd3 14bf 2dc6 5ebf
000002f0: fc1b f43e 43e7 193f dc6e 903d 6521 693f
00000300: c483 223b f268 fabe a552 f93e a84f e93e
00000310: 7364 8e3e 1077 b0bf 0c74 dabe 678c 413f
00000320: f9ff 693d 09c0 99be fb40 213f 2d04 a63e
00000330: 82a9 d03e f044 173e c98b 5bbf c698 34bc
00000340: 6bc4 d63e f512 42bf 38ec b7ba d1ea 9f3e
00000350: 7f49 ecbe c2e7 b33d 67d3 673d e154 5f3e
00000360: 5d5b e13e 3921 53bf 7301 1b3f a8c3 d4be
00000370: 7b53 54bf 06e7 c03e 145b 3e3e 46eb c4bd
00000380: da4b b53e 4af9 a4be 050d 2d3f bb78 823e
00000390: 5cda 36bf 63e9 8a3c 0f3b 7abe c622 58be
000003a0: 15a3 9cbe 39b1 16bf d40b 843f fef5 9b3e
000003b0: 2254 a03d e4a6 6bbe 2a1a 81bf d940 aa3d
000003c0: 4c86 363e c5bc 41bf efd5 3e3f 3944 423e
000003d0: e4bf 14bf 1f78 643e 2bd4 1fbe d2cd 76be
000003e0: 4f18 643d df10 65bf 7789 4f3f 91e6 1e3e
000003f0: ad4e 1abf 73f2 c33e 0bde 88bd 5b2b 9abe

input_embeddings.embeddings.pos.weight f4 [45, 8]
0.6948045 0.123226106 0.6484672 -1.2991794 0.525823 0.022936739 -0.85429084 0.1624916
0.48321024 0.020101372 -0.244349 -0.5991749 0.31166807 -0.19998395 0.4848151 -0.2368246
0.5129206 -0.58557063 -0.37728718 0.5090182 0.32676563 -0.66011953 0.31540656 -0.11141594
-0.04607178 -0.46574423 0.23738681 -0.6533541 0.4523059 -0.4877508 0.44174224 0.17611952
0.7890649 -0.10436752 -0.23286115 -1.0027643 0.16844065 0.38250697 0.1826198 -0.44879407
0.7977166 -0.024463758 0.050524402 -1.0889573 0.45017454 -0.11665388 -0.053191766 -0.218453
0.8549352 -0.19361088 0.122943 -0.078411974 0.1940471 -1.0139647 -0.56353045 0.48083988
-0.398448 -1.0857879 0.177706 -0.2563943 0.6592046 -1.6561265 0.5622997 1.2925206
0.7652886 0.19469616 -0.37996837 -1.8941201 0.36821613 1.0249577 0.3805992 -0.32319942
0.076906025 -0.025351971 -0.021240521 -0.23923275 -0.19297943 0.3770989 0.027834952 0.1751915
0.033008616 -0.7986531 -0.4005563 0.6749746 0.094299406 -0.23562245 0.65888137 -0.17095773
-0.3958699 -0.21329783 -0.3118667 -0.1969366 -0.14881265 -0.13431442 1.3622322 0.17784047
-0.32926726 0.378553 0.37922707 -0.7566959 0.74106747 0.1433505 -0.5470104 -0.13529524
-0.5011827 0.58517665 0.317901 -0.37023935 -0.19251493 -0.11705589 0.30597988 -0.021983976
-0.51561683 0.023580795 0.21014243 -0.2903714 0.48061785 -0.41239163 0.72217965 -0.348179
-0.15018897 0.30684492 0.17807126 -0.53394186 0.49673772 -0.5935064 0.70330185 -0.34472838
-0.05021395 0.14126049 0.13725372 0.042090163 -0.4391581 0.35393292 -0.28680283 0.11151636
0.01162729 -0.25411004 0.007285663 0.0066876723 0.7687464 -0.15643334 0.360852 -0.3674387
0.1698777 -0.7617019 0.056940872 -0.21612869 1.0213287 -0.56458986 0.31850275 0.02924466
-0.03787368 -1.2946874 0.22575718 0.08713992 1.1069224 -1.5450133 -0.20094486 0.51523733
-0.49814984 -0.50657505 -0.2625408 -0.16392513 1.344753 -0.29519013 0.28099677 0.03838711
0.3831909 -0.80040866 -0.14190912 0.27534997 0.9940534 0.08104258 -0.23921433 -0.07492798
-0.20374429 -0.30497804 0.0595183 0.21077023 1.0585674 -0.9759706 0.23207319 0.08806122
0.1687608 0.35501513 0.23115313 -0.68741846 -0.09515134 0.3337931 -0.39211652 0.14530735
0.16801599 -0.14817674 -0.306546 -0.017478213 -0.052354332 0.4241287 0.030898824 -0.055629686
-0.059532903 -0.35671473 0.034467906 -1.2368433 0.2632032 0.7044506 0.6581804 0.27842167
-0.18577565 0.16930431 0.15068589 0.05450504 -0.39468047 0.13707818 0.32803455 -0.042627674
-0.15072915 -0.07799713 0.38771418 -1.1455637 0.6826844 -0.29221246 0.36819297 0.07618502
-0.1644127 0.2842605 0.09515218 -0.182827 0.03938506 -0.19761604 0.20434514 -0.10661086
0.5036811 0.17317413 -0.04338283 -0.33369178 -0.4018006 0.5068308 -0.114779964 -0.21087687
-0.09642968 0.06674263 0.0020486012 0.19342554 -0.575007 0.48379698 -0.24792214 0.116836764
0.04699741 0.12151329 -0.19412473 0.8008212 -0.41519672 -0.08099954 -0.20198636 -0.041298922
00000000: b5de 313f f85d fc3d f201 263f 834b a6bf
00000010: 569c 063f d4e5 bb3c ceb2 5abf 3364 263e
00000020: 5567 f73e a2ab a43c a036 7abe 8763 19bf
00000030: f592 9f3e 98c8 4cbe af39 f83e 2682 72be
00000040: c44e 033f f5e7 15bf c92b c1be 044f 023f
00000050: d34d a73e 98fd 28bf f87c a13e 0a2e e4bd
00000060: c3b5 3cbd 0776 eebe 8715 733e 3742 27bf
00000070: a494 e73e 79ba f9be 0a2c e23e ad58 343e
00000080: 2800 4a3f a3be d5bd 2773 6ebe 955a 80bf
00000090: b57b 2c3e f4d7 c33e af00 3b3e 56c8 e5be
000000a0: 2837 4c3f 3868 c8bc adf2 4e3d f462 8bbf
000000b0: 477d e63e 3be8 eebd 9cdf 59bd 25b2 5fbe
000000c0: 09dd 5a3f ee41 46be 8ac9 fb3d 7596 a0bd
000000d0: 48b4 463e 98c9 81bf 8843 10bf a530 f63e
000000e0: 6001 ccbe 19fb 8abf 90f8 353e 1d46 83be
000000f0: a2c1 283f f4fb d3bf e0f2 0f3f 5171 a53f
00000100: f4e9 433f 6e5e 473e 378b c2be 8772 f2bf
00000110: d386 bc3e d031 833f e6dd c23e 657a a5be
00000120: e880 9d3d f0ae cfbc 9a00 aebc 6ef9 74be
00000130: 669c 45be 1b13 c13e 2006 e43c 6765 333e
00000140: 0b34 073d 8874 4cbf b715 cdbe 23cb 2c3f
00000150: 0c20 c13d 0347 71be 73ac 283f 8b0f 2fbe
00000160: 76af cabe bf6a 5abe feac 9fbe c0a9 49be
00000170: 5862 18be b889 09be a05d ae3f d01b 363e
00000180: b895 a8be b3d1 c13e 0d2a c23e d3b6 41bf
00000190: 99b6 3d3f 79ca 123e e008 0cbf d68a 0abe
000001a0: 824d 00bf 23ce 153f ebc3 a23e 0390 bdbe
000001b0: a222 45be 00bb efbd 65a9 9c3e bd17 b4bc
000001c0: 77ff 03bf 832c c13c 942f 573e 8fab 94be
000001d0: 8b13 f63e ff24 d3be c4e0 383f 8544 b2be
000001e0: 23cb 19be c71a 9d3e 5058 363e 6ab0 08bf
000001f0: 6854 fe3e 09f0 17bf 970b 343f 3d80 b0be
00000200: 25ad 4dbd 97a6 103e 3d8c 0c3e bc66 2c3d
00000210: 55d9 e0be b236 b53e d2d7 92be b062 e43d
00000220: 6480 3e3c b61a 82be 92bc ee3b 4324 db3b
00000230: 90cc 443f 1030 20be 98c1 b83e ed20 bcbe
00000240: 6bf4 2d3e e5fe 42bf d53a 693d d750 5dbe
00000250: e6ba 823f f688 10bf cb12 a33e 7f92 ef3c
00000260: 6f21 1bbd 51b8 a5bf e42c 673e 6a76 b23d
00000270: a2af 8d3f ffc2 c5bf 7dc4 4dbe 98e6 033f
00000280: 7f0d ffbe e7ae 01bf bf6b 86be fddb 27be
00000290: de20 ac3f 2923 97be cfde 8f3e cd3b 1d3d
000002a0: 9931 c43e 95e7 4cbf a050 11be acfa 8c3e
000002b0: 497a 7e3f a7f9 a53d 9af4 74be d773 99bd
000002c0: 58a2 50be 1526 9cbe 76c9 733d 27d4 573e
000002d0: 237f 873f 36d9 79bf 98a4 6d3e 7159 b43d
000002e0: a2cf 2c3e 8bc4 b53e 68b3 6c3e a8fa 2fbf
000002f0: b5de c2bd eee6 aa3e 7fc3 c8be 73cb 143e
00000300: 620c 2c3e a5bb 17be 99f3 9cbe 782e 8fbc
00000310: 7f71 56bd 6627 d93e 881f fd3c f4db 63bd
00000320: c6d8 73bd 50a3 b6be 382e 0d3d e250 9ebf
00000330: 92c2 863e e056 343f 837e 283f 498d 8e3e
00000340: f93b 3ebe 1c5e 2d3e 674d 1a3e ad40 5f3d
00000350: 8f13 cabe 395e 0c3e 25f4 a73e 5b9a 2ebd
00000360: be58 1abe f6bc 9fbd 7982 c63e d5a1 92bf
00000370: 68c4 2e3f df9c 95be ca83 bc3e e406 9c3d
00000380: ce5b 28be 988a 913e 25df c23d 0037 3bbe
00000390: 3b52 213d dc5b 4abe da3f 513e cb56 dabd
000003a0: 3ff1 003f 8f54 313e 32b2 31bd a6d9 aabe
000003b0: cfb8 cdbe aabf 013f c211 ebbd 1bf0 57be
000003c0: ed7c c5bd 5cb0 883d d341 063b 5811 463e
000003d0: a933 13bf 3db4 f73e 4ddf 7dbe 1d48 ef3d
000003e0: 5b80 403d f6db f83d a2c8 46be 9e02 4d3f
000003f0: aa94 d4be 16e3 a5bd 83d5 4ebe 0f29 29bd

input_embeddings.embeddings.cluster.weight f4 [15, 8]
-0.0680936 -0.44871616 -0.09666123 -0.18151392 0.42035455 0.155057 0.08332299 0.25211456
-0.32873693 -0.004196826 0.4449905 0.16129823 -0.1215982 0.3997365 -0.72391045 0.5930017
0.08603525 -0.47238168 0.037814435 -0.2820755 -0.053217832 0.20781437 0.4373068 -0.1770615
-0.09623917 0.16085328 -0.18783084 0.08970232 0.16860399 0.20641826 0.0025005513 -0.3437266
0.14732642 -0.24003838 0.04044087 -0.20649678 0.017778775 0.11073145 0.11260835 -0.071671136
-0.6360583 0.6127392 -0.02299627 0.78803 -0.28354675 -0.34140262 -0.44064945 0.72431344
-0.13928173 0.117392 -0.2876783 -0.46903548 0.38947442 -0.71635336 0.37344638 0.62648696
-0.121112354 0.38200778 -0.8810322 0.40860072 0.27917576 -0.6896852 0.44285312 -0.09836965
-0.277726 0.16902786 0.46680847 -0.480184 -0.59828424 0.6083856 -0.27860802 1.0899938
-0.42992476 0.13370559 0.14907882 -0.031898994 0.26814553 -0.089872606 0.22606708 -0.035915043
0.24671674 -0.008088039 -0.20228748 -0.10545133 0.046284277 -0.48499605 0.39811546 -0.18573059
-0.18981111 0.59175104 0.08589428 0.42908946 0.044356205 0.027803266 -0.7339494 8.8744666e-05
-0.45892763 0.32717267 -0.35386539 0.49991825 -0.3668937 0.9668587 -0.67481214 0.45052403
0.010815352 -0.06412979 -0.04724114 0.107609265 -0.13818572 -0.113729335 0.4035253 -0.41846007
0.40206254 -0.20428765 -0.3666189 0.5152402 -0.08120649 0.11701357 0.11349459 -0.96073294
00000000: a874 8bbd 20be e5be 53f6 c5bd c9de 39be
00000010: b638 d73e 43c7 1e3e 3ea5 aa3d 2915 813e
00000020: 3550 a8be 8785 89bb cbd5 e33e 5d2b 253e
00000030: 7a08 f9bd 43aa cc3e 3252 39bf f6ce 173f
00000040: 4033 b03d 03dc f1be 4fe3 1a3d 336c 90be
00000050: f1fa 59bd 4acd 543e ade6 df3e 9c4f 35be
00000060: 0b19 c5bd b9b6 243e ba56 40be dab5 b73d
00000070: 86a6 2c3e 4f5f 533e 4ae0 233b effc afbe
00000080: bddc 163e 9fcc 75be 53a5 253d e473 53be
00000090: cba4 913c 2cc7 e23d 359f e63d 51c8 92bd
000000a0: b7d4 22bf 7adc 1c3f ac62 bcbc 56bc 493f
000000b0: 0a2d 91be 53cc aebe ce9c e1be 9b6c 393f
000000c0: df9f 0ebe 386b f03d 924a 93be 6b25 f0be
000000d0: 3169 c73e ef62 37bf 5d34 bf3e 7361 203f
000000e0: c109 f8bd 8696 c33e 548b 61bf 1d34 d13e
000000f0: 20f0 8e3e 368f 30bf a5bd e23e 0776 c9bd
00000100: 1a32 8ebe a415 2d3e 8501 ef3e adda f5be
00000110: 2829 19bf 29bf 1b3f b6a5 8ebe eb84 8b3f
00000120: 191f dcbe 1eea 083e 1ea8 183e 85a8 02bd
00000130: 5f4a 893e 210f b8bd 217e 673e a71b 13bd
00000140: 50a3 7c3e b283 04bc 7324 4fbe def6 d7bd
00000150: 9594 3d3d 6751 f8be cad5 cb3e 2930 3ebe
00000160: d85d 42be ff7c 173f 57e9 af3d 9db1 db3e
00000170: daae 353d adc3 e33c 1ce4 3bbf 6e1c ba38
00000180: 90f8 eabe 2d83 a73e d82d b5be 49f5 ff3e
00000190: 7ed9 bbbe 0d84 773f 7dc0 2cbf 16ab e63e
000001a0: e032 313c 7b56 83bd ed7f 41bd 3f62 dc3d
000001b0: 8f80 0dbe edea e8bd de9a ce3e 6640 d6be
000001c0: 24db cd3e c830 51be 79b5 bbbe c8e6 033f
000001d0: 974f a6bd d0a4 ef3d da6f e83d 98f2 75bf

input_embeddings.embeddings.weekday.weight f4 [7, 8]
0.40941042 0.3154475 0.0027959326 -0.116732195 0.033722527 -0.44612482 0.523119 -0.343986
-0.6785464 -0.008637215 0.029101174 0.40529373 0.03669588 -0.057565387 0.17636976 -0.042576924
-0.3441437 0.32758796 0.45485786 0.43588525 -0.37670553 -0.76258945 0.023413159 -0.08491904
-1.0828099 -0.056075063 0.09897953 -0.25454766 0.52206475 0.18567178 0.29604915 0.17963384
-0.112399966 -0.46273866 0.016199717 0.8808931 0.51429147 -1.2355138 -0.2746608 0.22825246
0.550873 -0.29661372 -0.5322935 -0.5833213 -0.249808 0.32126895 0.6589972 -0.13333547
0.5412881 0.019114578 -0.11790933 -0.47356156 -0.5374946 1.4910454 -1.0569704 0.27928436
00000000: 3e9e d13e 5682 a13e f73b 373b 4a11 efbd
00000010: a220 0a3d 796a e4be 20eb 053f ef1e b0be
00000020: 38b5 2dbf 1b83 0dbc 9665 ee3c a982 cf3e
00000030: 6b4e 163d afc9 6bbd 469a 343e 2465 2ebd
00000040: 9a33 b0be 9cb9 a73e 21e3 e83e 5a2c df3e
00000050: 8cdf c0be 1039 43bf f4cc bf3c 09ea adbd
00000060: 8499 8abf f7ae 65bd c8b5 ca3d 1254 82be
00000070: 09a6 053f be20 3e3e c193 973e eff1 373e
00000080: f431 e6bd 15ec ecbe 45b5 843c 3682 613f
00000090: 9ba8 033f 5125 9ebf 57a0 8cbe 03bb 693e
000000a0: 0306 0d3f c1dd 97be 6344 08bf 8b54 15bf
000000b0: abcd 7fbe 5d7d a43e 0ab4 283f 1889 08be
000000c0: db91 0a3f 2d96 9c3c 727a f1bd a976 f2be
000000d0: 3f99 09bf 93da be3f ce4a 87bf 5cfe 8e3e

input_embeddings.embeddings.onpromotion.weight f4 [2, 8]
0.043634582 -0.18980747 0.2025439 0.00023778714 -0.059481706 0.32299414 -0.109864704 -0.09778704
0.75646836 0.45298937 -0.5490405 -0.35190666 -0.36797568 -0.2197118 -0.031676143 0.032000646
00000000: 2dba 323d e45c 42be ab67 4f3e 8056 7939
00000010: 17a3 73bd 7d5f a53e bf00 e1bd 9244 c8bd
00000020: e9a7 413f 39ee e73e eb8d 0cbf 1c2d b4be
00000030: 4f67 bcbe 21fc 60be d8be 01bd 1c13 033d

prescalers.time_idx.weight f4 [8, 1]
0.009086131 -0.07198473 0.0798047 -0.011213545 0.014502115 0.0072501865 0.0026349064 -0.021366233
00000000: ffdd 143c bb6c 93bd a670 a33d 04b9 37bc
00000010: 479a 6d3c f992 ed3b 65ae 2c3b 3d08 afbc

prescalers.time_idx.bias f4 [8]
-0.833315 0.12587737 -0.74919724 -0.4613168 -0.3980274 0.3832474 -0.17609565 -0.1322903
00000000: 2254 55bf ffe5 003e 64cb 3fbf b731 ecbe
00000010: 3fca cbbe 0139 c43e 6b52 34be 1c77 07be

prescalers.doy_sine.weight f4 [8, 1]
0.06535438 -0.12450492 0.020608928 -0.011775781 -0.035211273 0.008063858 -0.0062647606 0.0393141
00000000: 84d8 853d 6ffc febd 0ed4 a83c 35ef 40bc
00000010: b239 10bd 461e 043c 9f48 cdbb d207 213d

prescalers.doy_sine.bias f4 [8]
-0.79491687 0.036673248 -0.50178206 0.123761125 0.78601146 -0.061350003 0.5398918 -0.13493602
00000000: ac7f 4bbf b036 163d ca74 00bf 7976 fd3d
00000010: 0c38 493f 244a 7bbd 5936 0a3f ab2c 0abe

prescalers.doy_cosine.weight f4 [8, 1]
0.05032256 -0.06732403 0.06580376 -0.03394973 -0.18940549 0.024549648 0.04359283 0.097900495
00000000: 071f 4e3d 2ee1 89bd 1fc4 863d df0e 0bbd
00000010: 83f3 41be 581c c93c 658e 323d 0e80 c83d

prescalers.doy_cosine.bias f4 [8]
-0.5390643 0.25888544 1.166113 0.22484711 -0.26747954 -0.6162473 0.12343251 0.18998384
00000000: 1e00 0abf a28c 843e 3143 953f 523e 663e
00000010: 14f3 88be 62c2 1dbf 2fca fc3d 208b 423e

prescalers.relative_time_idx.weight f4 [8, 1]
1.4770283 -1.9084741 0.49713328 -1.0217335 1.7367867 -2.0649235 1.48089 -2.1341248
00000000: 430f bd3f e148 f4bf 4188 fe3e 2ac8 82bf
00000010: 074f de3f b527 04c0 ce8d bd3f 8095 08c0

prescalers.relative_time_idx.bias f4 [8]
0.8855541 -0.96865743 0.4717899 -0.9329819 0.46757534 -0.41455323 -0.57111275 -0.79339904
00000000: acb3 623f eff9 77bf 728e f13e e7d7 6ebf
00000010: 0966 ef3e 5240 d4be 7234 12bf 331c 4bbf

prescalers.sales.weight f4 [8, 1]
-0.9377559 0.23038821 0.10846722 0.48484853 -0.23309542 0.06961136 0.77446926 -0.317705
00000000: c510 70bf e3ea 6b3e 1024 de3d 113e f83e
00000010: 91b0 6ebe 6790 8e3d 9e43 463f 3baa a2be

prescalers.sales.bias f4 [8]
0.4295038 -0.045472827 -0.27825075 -0.31222 -0.46559697 -0.24045603 -0.069059104 -0.96353406
00000000: ece7 db3e b741 3abd e276 8ebe 4ddb 9fbe
00000010: ba62 eebe 1b3a 76be dc6e 8dbd 2baa 76bf

prescalers.dcoilwtico.weight f4 [8, 1]
0.13024126 -0.25058228 0.066433184 0.05397343 0.008511096 0.12079239 -0.104837425 -0.07903633
00000000: f75d 053e 524c 80be 1f0e 883d 3e13 5d3d
00000010: 2072 0b3c 0062 f73d 01b5 d6bd cddd a1bd

prescalers.dcoilwtico.bias f4 [8]
1.9489205 0.73035836 -0.42841777 0.048451044 0.32423016 -0.6148422 -0.12436306 0.022477487
00000000: 3a76 f93f c4f8 3a3f 9359 dbbe 9a74 463d
00000010: 7f01 a63e 4c66 1dbf 0fb2 febd b522 b83c

causal_lns.weekday.weight f4 [8]
2.1378026 0.4826672 0.4301389 3.1694214 1.1282914 3.8970914 5.660986 1.869424
00000000: c2d1 0840 2820 f73e 2a3b dc3e cdd7 4a40
00000010: da6b 903f f269 7940 cc26 b540 4949 ef3f

causal_lns.onpromotion.weight f4 [8]
2.2634335 6.8359494 6.1119757 4.8287477 1.5949607 -0.3934402 1.5792184 5.3414016
00000000: 18dc 1040 19c0 da40 4e95 c340 1a85 9a40
00000010: ac27 cc3f fe70 c9be d423 ca3f c3ec aa40

causal_lns.national_holiday.weight f4 [8]
1.017393 0.88858485 5.3142195 5.8003306 1.4772358 5.3573523 4.6680565 11.7229
00000000: ef39 823f 4c7a 633f 160e aa40 4f9c b940
00000010: 1016 bd3f 6e6f ab40 b860 9540 0091 3b41

causal_lns.regional_holiday.weight f4 [8]
17.533443 9.847231 5.7243447 9.63395 14.70601 -0.9178659 11.686061 3.399984
00000000: 7e44 8c41 428e 1d41 d52d b740 a924 1a41
00000010: d14b 6b41 42f9 6abf 1bfa 3a41 5699 5940

causal_lns.local_holiday.weight f4 [8]
1.104394 0.5027576 3.621818 13.089735 3.0187998 16.538027 7.0157857 4.400104
00000000: c85c 8d3f b9b4 003f decb 6740 8e6f 5141
00000010: 0434 4140 e14d 8441 5181 e040 a7cd 8c40

past_ln.weight f4 [8]
1.1192677 -0.004609181 0.80859923 1.0191854 0.96969813 0.7812379 1.076135 0.55723256
00000000: 2a44 8f3f 9d08 97bb 5c00 4f3f ab74 823f
00000010: 233e 783f 35ff 473f cbbe 893f cba6 0e3f

post_lns.weekday.weight f4 [8]
0.94424254 1.4495189 1.2080592 0.6738934 1.2459372 0.509766 0.20715114 0.9477385
00000000: e1b9 713f d689 b93f afa1 9a3f 4784 2c3f
00000010: df7a 9f3f 0680 023f 6e1f 543e fe9e 723f

post_lns.onpromotion.weight f4 [8]
0.0013122046 0.55924547 1.0836209 0.024272062 1.5250543 2.7477078 1.2553371 0.7844033
00000000: 48fe ab3a b62a 0f3f 17b4 8a3f 34d6 c63c
00000010: fb34 c33f 72da 2f40 e3ae a03f a8ce 483f

post_lns.national_holiday.weight f4 [8]
1.6153083 1.8914218 0.45683923 0.49105796 1.6362039 0.4491958 0.5709418 0.009552064
00000000: 6cc2 ce3f 1c1a f23f d5e6 e93e f36b fb3e
00000010: 216f d13f fefc e53e 3e29 123f 4380 1c3c

post_lns.regional_holiday.weight f4 [8]
-0.025432551 0.16447052 -0.5941243 0.24153793 -0.028721707 -0.50482255 -0.1346584 0.5688664
00000000: ed57 d0bc f66a 283e 8818 18bf b855 773e
00000010: c949 ebbc 0d3c 01bf e4e3 09be 3aa1 113f

post_lns.local_holiday.weight f4 [8]
3.4473102 2.901038 0.93165606 0.48019296 1.0793746 -0.005193538 0.57679427 0.7203597
00000000: bba0 5c40 9baa 3940 0381 6e3f dadb f53e
00000010: f228 8a3f 8e2e aabb caa8 133f 7e69 383f

trend_block.gru.weight_ih_l0 f4 [24, 8]
-0.86180264 -0.10046358 -0.16264766 0.31854308 0.4381697 1.070413 -0.80516034 0.27455887
0.20470269 0.07285268 -0.15020321 0.9073813 -0.6504727 -0.9379294 -1.030915 -0.24148251
1.0486867 0.03675134 -1.1505215 2.0753298 -0.8009364 0.32060817 -1.0982208 -1.6583798
0.71023256 0.15500358 -0.18213642 0.78386533 0.09847828 0.026568942 -1.1329082 -0.0018986353
1.1274569 0.12706265 -0.580495 -0.8218645 -0.1529487 0.07089849 -1.0958643 0.34795573
-0.7257879 0.20390193 -1.5447795 0.15659235 0.8409307 -0.111836284 -1.4269437 -1.6080326
0.6701052 0.060080748 0.3935308 -0.77107507 0.036202416 -0.41387004 0.47310382 -0.060089882
0.28021663 0.09723146 1.2353013 -0.28690878 0.94289875 -0.7391505 0.25564596 -0.71547985
0.0028526804 -0.033189554 0.2846929 -0.41342843 0.8996518 -0.19340032 0.41611794 -0.80410546
-0.13277417 0.015636763 1.4269111 0.44826144 0.005986807 -0.72845846 -0.14116295 -0.7310213
1.113015 0.020409 0.8327218 -0.7524695 0.9851705 -0.075907394 0.20175199 -1.9177268
-0.24076182 0.2356624 0.5160056 0.27373743 -0.47721002 0.0035939428 0.20367888 0.2653487
0.5782969 0.22482386 0.19562507 -0.35330665 -0.37787086 0.15637028 -0.60027474 0.38921925
-0.05993805 0.16093144 0.36568344 -0.2136327 0.68497163 0.05545384 -0.33330357 -0.965606
-0.7053259 -0.097201996 -0.5421154 -0.70484847 0.13754678 0.6024681 -0.5328061 0.557384
0.5348163 0.091697514 -0.0400943 -0.91041833 0.17957765 -0.51595485 0.2414993 -0.57493377
0.042873558 0.01739688 -0.6993394 0.048630852 -0.7397964 -0.371977 0.7242227 0.5861572
0.39750016 -0.12354105 0.076610364 0.16360591 0.46462896 -0.22837292 0.13849822 -0.14365846
0.26585147 0.08252885 0.048319913 0.013059518 -0.050427463 -0.26687196 0.8885086 0.114564046
-0.83221257 0.044098977 -0.058352027 0.9409587 -0.68619424 -0.018111901 -0.19475514 -0.16228049
0.27666208 -0.1467338 0.11236614 -0.047965527 -0.08362395 0.17895412 0.08335145 0.26023886
-0.61836696 0.25954008 -0.106234044 0.33793998 -0.5703094 0.14159654 -0.18680438 -0.13656265
-0.3742414 -0.057115465 -0.14570361 0.328883 0.32398972 -0.28733876 0.6386215 -0.11156739
0.53330165 -0.019030277 0.25782788 -0.37890774 0.015537703 -0.15823919 -0.5266828 0.09485578
00000000: 199f 5cbf d9bf cdbd 1c8d 26be 1418 a33e
00000010: c757 e03e 4b03 893f fd1e 4ebf fb92 8c3e
00000020: 959d 513e c933 953d dfce 19be 244a 683f
00000030: 6185 26bf 241c 70bf 06f5 83bf 3147 77be
00000040: 5e3b 863f 9388 163d 4a44 93bf 34d2 0440
00000050: 2b0a 4dbf c126 a43e 8092 8cbf ca45 d4bf
00000060: cdd1 353f 42b9 1e3e f881 3abe 66ab 483f
00000070: fbae c93d 1ca7 d93c 2303 91bf a1db f8ba
00000080: 8250 903f b61c 023e 529b 14bf b665 52bf
00000090: 969e 1cbe 3a33 913d 4845 8cbf 4127 b23e
000000a0: 3ccd 39bf abcb 503e 56bb c5bf bf59 203e
000000b0: 3c47 573f 6c0a e5bd 17a6 b6bf 03d4 cdbf
000000c0: 048c 2b3f 3b17 763d de7c c93e 2d65 45bf
000000d0: fc48 143d c6e6 d3be aa3a f23e cf20 76bd
000000e0: 8e78 8f3e 4a21 c73d 5a1e 9e3f b5e5 92be
000000f0: d061 713f f838 3dbf 07e4 823e b029 37bf
00000100: 09f4 3a3b c5f1 07bd 45c3 913e e4ac d3be
00000110: 954f 663f bc0a 46be 690d d53e dbd9 4dbf
00000120: f4f5 07be ab18 803c 06a5 b63f 8682 e53e
00000130: fa2c c43b 417c 3abf 058d 10be 3624 3bbf
00000140: 4777 8e3f c630 a73c 422d 553f d7a1 40bf
00000150: 2234 7c3f 5675 9bbd 1398 4e3e 1278 f5bf
00000160: 448a 76be 7c51 713e f118 043f 5027 8c3e
00000170: df54 f4be 5b88 6b3b 3291 503e c9db 873e
00000180: 440b 143f 3a38 663e f051 483e 9ce4 b4be
00000190: 4a78 c1be 881f 203e 9bab 19bf bf47 c73e
000001a0: 9a81 75bd 36cb 243e dc3a bb3e 88c2 5abe
000001b0: 4d5a 2f3f 9123 633d c4a6 aabe f431 77bf
000001c0: 3d90 34bf d711 c7bd 13c8 0abf f370 34bf
000001d0: 10d9 0c3e 593b 1a3f fb65 08bf b8b0 0e3f
000001e0: b9e9 083f e8cb bb3d ec39 24bd 2d11 69bf
000001f0: 34e3 373e 9e15 04bf 984b 773e dc2e 13bf
00000200: 2f9c 2f3d e783 8e3c e807 33bf 2531 473d
00000210: 4c63 3dbf c573 bebe a966 393f 660e 163f
00000220: 2485 cb3e 1703 fdbd e5e5 9c3d 4f88 273e
00000230: d9e3 ed3e 97da 69be 7ad2 0d3e 341b 13be
00000240: af1d 883e e304 a93d 1aeb 453d 97f7 553c
00000250: 078d 4ebd 71a3 88be 4d75 633f 8ea0 ea3d
00000260: e20b 55bf 21a1 343d 8902 6fbd abe2 703f
00000270: 6daa 2fbf 695f 94bc e46d 47be db2c 26be
00000280: a7a6 8d3e 6341 16be 3820 e63d 8077 44bd
00000290: 0943 abbd c03f 373e 2ab4 aa3d 073e 853e
000002a0: 4c4d 1ebf 70e2 843e 3c91 d9bd 7806 ad3e
000002b0: ccff 11bf affe 103e a649 3fbe 14d7 0bbe
000002c0: 929c bfbe e8f1 69bd 5433 15be 5a63 a83e
000002d0: fbe1 a53e 111e 93be b37c 233f 727d e4bd
000002e0: 7586 083f 62e5 9bbc 0402 843e 3200 c2be
000002f0: da91 7e3c 7409 22be afd4 06bf bf43 c23d

trend_block.gru.weight_hh_l0 f4 [24, 8]
1.6076349 -0.117070384 -0.050957512 1.6281953 -1.0983642 -0.8292191 0.6384039 -1.1273781
0.3533995 0.43868196 -0.052935086 0.12016928 0.7895094 -1.1955271 0.7942653 1.7885222
0.055210903 0.1477384 0.060806055 -0.65223014 -0.17837477 -0.036626242 0.033373937 -0.33252916
1.4190983 -0.026025428 0.8642177 -0.21476701 -0.7179893 1.0059793 -0.16726068 -0.20582168
1.1103452 1.504737 1.267217 -0.14420925 -0.16148852 1.073557 -0.17249687 0.035042405
-0.3802425 -0.2961106 0.1163253 0.0747962 -0.26504922 0.6991229 0.35596696 0.48050055
-1.8912971 1.0361124 -2.2360804 -1.0005149 0.09410316 0.71336794 -0.22876713 -0.5525773
-0.04109953 -0.6550301 0.5531055 -0.18915775 -0.6496836 1.8282912 -1.1268857 0.061192777
0.91020185 -0.91048235 1.8236063 0.19008143 -0.107008144 -0.13371842 0.36497045 -0.30932924
-0.35467425 -1.717794 0.62815213 -1.9386753 0.51993996 0.62701267 0.26356417 -0.39795208
1.0376525 -0.6123875 -0.30481496 -0.35118997 -1.0966617 0.8181388 -0.5487382 0.35042828
0.78645253 -0.21874619 0.6512722 0.14084871 -0.073046 -0.35547242 0.18370312 -0.13208443
-0.62053263 0.6707033 -2.0935025 1.4888566 -0.9090255 0.3903596 0.48688263 0.31849033
-0.66435903 0.06538747 0.05028741 -0.7533182 -0.357201 -0.31643832 1.1118258 0.57736653
0.25142115 0.41843018 1.8851665 -0.13657354 -0.9593559 -0.20447761 0.8987306 -0.36603746
-1.379294 1.5660609 -0.3295543 0.34918386 0.5738504 0.31045476 0.43621576 -2.0864234
-0.27951398 1.0534612 -0.67059106 -0.20806572 0.66113114 -0.23375456 -0.0738861 -1.0032336
0.54214895 0.5555321 -1.5687993 -0.26511556 0.13603519 0.88242435 -0.67334116 -0.78721166
0.028147204 -1.3975837 0.28437528 1.0086788 -0.6531227 0.15400878 -1.4124026 -1.6649457
0.090650536 -0.6972149 -0.14381166 0.5724344 0.56043893 -1.3950877 0.1157456 0.15801564
-0.38898385 0.0382947 -0.829731 -0.5975881 0.0022863634 0.16877809 -0.1712464 1.7110343
1.03278 0.44078624 -0.4821271 1.2940199 0.59198123 1.2687385 0.15968367 -0.023349226
-0.27032956 -0.17163041 -0.5313402 1.6488425 -0.26552266 -0.35711035 0.6858394 -1.9413892
0.61440766 1.1934389 0.4222426 -0.9309094 -0.119440734 0.36426133 0.10464747 1.1236372
00000000: fbc6 cd3f 99c2 efbd d3b8 50bd b468 d03f
00000010: 3397 8cbf b447 54bf 706e 233f ed4d 90bf
00000020: c7f0 b43e ec9a e03e 76d2 58bd 501b f63d
00000030: 4a1d 4a3f 0807 99bf f854 4b3f 4cee e43f
00000040: d424 623d bc48 173e c50f 793d 8ef8 26bf
00000050: e0a7 36be 6605 16bd 1cb3 083d 4341 aabe
00000060: 03a5 b53f 4733 d5bc 5f3d 5d3f e2eb 5bbe
00000070: 26ce 37bf eec3 803f 6246 2bbe ebc2 52be
00000080: cb1f 8e3f 399b c03f 2b34 a23f 97ab 13be
00000090: 3f5d 25be 516a 893f 05a3 30be a088 0f3d
000000a0: 25af c2be cf9b 97be f53b ee3d c02e 993d
000000b0: 88b4 87be b8f9 323f 4d41 b63e 2b04 f63e
000000c0: 0616 f2bf 559f 843f f11b 0fc0 df10 80bf
000000d0: 28b9 c03d 489f 363f ee41 6abe b575 0dbf
000000e0: fb57 28bd 0db0 27bf 5298 0d3f 92b2 41be
000000f0: aa51 26bf 7205 ea3f ca3d 90bf 47a5 7a3d
00000100: fd02 693f 5f15 69bf ee6b e93f b5a4 423e
00000110: 1627 dbbd 7bed 08be 68dd ba3e 6760 9ebe
00000120: dd97 b5be ace0 dbbf 94ce 203f 8326 f8bf
00000130: c91a 053f e783 203f e2f1 863e 60c0 cbbe
00000140: ccd1 843f 6dc5 1cbf b510 9cbe 2ccf b3be
00000150: 695f 8cbf 8b71 513f 1b7a 0cbf 566b b33e
00000160: f454 493f 00ff 5fbe c6b9 263f a53a 103e
00000170: 2499 95bd 7b00 b6be ac1c 3c3e 2441 07be
00000180: 3adb 1ebf 36b3 2b3f f2fb 05c0 da92 be3f
00000190: e5b5 68bf 37dd c73e ae48 f93e 2a11 a33e
000001a0: 6f13 2abf dee9 853d 2cfa 4d3d 76d9 40bf
000001b0: 0de3 b6be 3404 a2be 4f50 8e3f 4bce 133f
000001c0: 46ba 803e 7b3c d63e 234d f13f efd9 0bbe
000001d0: 5998 75bf 9462 51be 3513 663f 4369 bbbe
000001e0: b58c b0bf af74 c83f 57bb a8be 3ac8 b23e
000001f0: dce7 123f edf3 9e3e ac57 df3e f687 05c0
00000200: 751c 8fbe d1d7 863f dbab 2bbf 2e0f 55be
00000210: e43f 293f 5b5d 6fbe 9851 97bd f569 80bf
00000220: 46ca 0a3f 5a37 0e3f 6ace c8bf 3abd 87be
00000230: cf4c 0b3e 90e6 613f 1660 2cbf b486 49bf
00000240: f794 e63c 06e4 b2bf a399 913e 631c 813f
00000250: 0d33 27bf 7ab4 1d3e 9cc9 b4bf f11c d5bf
00000260: fda6 b93d ad7c 32bf 5d43 13be 108b 123f
00000270: ed78 0f3f 3c92 b2bf 070c ed3d dace 213e
00000280: e428 c7be e7da 1c3d 4069 54bf 89fb 18bf
00000290: d0d6 153b 2ad4 2c3e 375b 2fbe 2c03 db3f
000002a0: 2332 843f bcae e13e 5dd9 f6be 72a2 a53f
000002b0: 158c 173f 0666 a23f 1e84 233e e046 bfbc
000002c0: a368 8abe e2bf 2fbe e905 08bf 450d d33f
000002d0: 96f2 87be 2bd7 b6be 2c93 2f3f 717f f8bf
000002e0: d249 1d3f 9bc2 983f 2f30 d83e 1450 6ebf
000002f0: 589d f4bd 7680 ba3e 6a51 d63d 58d3 8f3f

trend_block.gru.bias_ih_l0 f4 [24]
0.52622783 1.0734105 -0.32346615 1.193021 -0.3911207 1.2893652 -0.81986046 0.57409805
1.6310725 2.362469 1.8082007 0.78532225 0.61620826 2.3527174 1.8524697 0.019631531
-1.1242262 2.6855755 0.93317443 3.5445154 3.4910798 -1.961417 -1.5150737 3.7389247
00000000: deb6 063f 8465 893f 5b9d a5be eab4 983f
00000010: f940 c8be eb09 a53f 60e2 51bf 17f8 123f
00000020: fcc6 d03f b132 1740 1f73 e73f e10a 493f
00000030: d3bf 1d3f ec92 1640 ba1d ed3f 4ed2 a03c
00000040: a5e6 8fbf 78e0 2b40 85e4 6e3f 57d9 6240
00000050: da6d 5f40 b60f fbbf efed c1bf 8b4a 6f40

trend_block.gru.bias_hh_l0 f4 [24]
0.14032838 1.0156657 -0.09907011 1.147302 0.1656105 1.3511716 -0.9387404 0.60106826
1.4381384 2.2187936 1.4928954 0.33196852 0.6838551 2.2309947 1.3933849 0.5285197
3.2508261 -3.6610684 -1.2582389 -3.014301 -5.484376 2.0487955 3.2377288 -4.612758
00000000: 3eb2 0f3e 5501 823f 45e5 cabd cbda 923f
00000010: cd95 293e 31f3 ac3f 4a51 70bf 9cdf 193f
00000020: eb14 b83f b700 0e40 3217 bf3f c7f7 a93e
00000030: 2111 2f3f 9ec8 0e40 705a b23f 114d 073f
00000040: 890d 5040 f24e 6ac0 f90d a1bf 4fea 40c0
00000050: 0280 afc0 771f 0340 f336 4f40 b79b 93c0

trend_block.param_projection.weight f4 [3, 8]
1.3832765 -0.8407696 -0.037687715 0.3632936 0.1385915 -0.63338226 1.7305431 2.0759492
-0.6484534 0.06251081 -0.23751144 1.1670029 -1.6024389 0.5551305 -0.6118833 0.3095459
1.233421 -0.6451332 1.0370429 -1.4749726 -1.955186 -0.35715264 1.2478707 -0.11206623
00000000: 340f b13f ad3c 57bf 6f5e 1abd 9e01 ba3e
00000010: eeea 0d3e 5725 22bf 7082 dd3f 5adc 0440
00000020: 0b01 26bf ab05 803d 3336 73be 5a60 953f
00000030: b81c cdbf 081d 0e3f 62a4 1cbf cd7c 9e3e
00000040: bde0 9d3f 7327 25bf d2bd 843f e7cb bcbf
00000050: 8943 fabf b6dc b6be 3aba 9f3f fb82 e5bd

trend_block.param_projection.bias f4 [3]
-2.6753943 -2.5074065 -2.5803049
00000000: a939 2bc0 5979 20c0 b723 25c0
