hnam_experiments/Fit_and_Predict/models/Favorita/TFT/lightning_logs/version_1/checkpoints/model-initial-val_loss=0.93.ckpt (torch, 633094 bytes, 305 tensors)

input_embeddings.embeddings.national_holiday.weight f4 [178, 29]
0	0xbea9bb8a	-0.33150893
1	0xbe4b9f05	-0.1988488
2	0x3ed03f29	0.40673187
3	0x3e867895	0.26263872
4	0x3e0c3132	0.13690642
5	0x3e8b2cfa	0.27182752
6	0x3eb33eab	0.3500875
7	0xc07b72cc	-3.9288816
8	0x3dfb553e	0.12272118
9	0xbe90e379	-0.28298548
10	0x3e19c120	0.15015078
11	0x3e5312cf	0.20612644
12	0xbd504576	-0.050847493
13	0xbcfd8378	-0.030946478
14	0x3eb4a313	0.35280666
15	0xbc671741	-0.014104665
16	0xbea2b81e	-0.31781095
17	0xbe211d51	-0.1573384
18	0x3f46dae3	0.77677745
19	0x3dbc7557	0.09202068
20	0x3c30c760	0.010789722
21	0xbf1318f5	-0.57459956
22	0xbd2a37b5	-0.041557033
23	0x3f7a6212	0.97805893
24	0x3e455ac3	0.19272904
25	0x3e8ed4ab	0.27896628
26	0xbe04f164	-0.12982708
27	0x3e87d9d1	0.26533368
28	0x3f41f00c	0.7575691
29	0xbeb486d6	-0.35259122
30	0xbe966557	-0.2937419
31	0xbe124142	-0.14282706
32	0x3e4fd933	0.20297699
33	0x3f6bfe2b	0.92184705
34	0x3e596a4d	0.21231957
35	0xbed4d26c	-0.4156679
36	0x3e8281b7	0.2548959
37	0x3e8a4415	0.27005067
38	0x3ed3ac57	0.41342422
39	0xbf8c3458	-1.0953474
40	0x3f915293	1.1353325
41	0xbfde0fe2	-1.7348597
42	0xbf313c97	-0.6923308
43	0x3f103404	0.5632937
44	0x3d035acf	0.032069024
45	0x3de3938e	0.11112128
46	0xbe96b36c	-0.29433763
47	0xbf48fc66	-0.7851013
48	0xbeab7e32	-0.33494717
49	0xbfdc106b	-1.719251
50	0x3e666ab4	0.22501642
51	0xbf62b750	-0.8856096
52	0x3ed95439	0.4244707
53	0x3f02605f	0.509283
54	0x3ffcb021	1.974125
55	0x3ec82338	0.3908937
56	0x3f09daec	0.53849673
57	0xbf2b4df8	-0.66915846
58	0xbf42b8cc	-0.7606323
59	0x3f2646fb	0.6495206
60	0x3e08519d	0.13312383
61	0x3f5d2842	0.86389554
62	0x3daf1b9c	0.08550188
63	0x3fb736a3	1.4313549
64	0xbf000410	-0.500062
65	0xbb09429d	-0.0020944246
66	0x3e847e44	0.25877583
67	0x3e752fb3	0.23943977
68	0xbfec04f6	-1.8439014
69	0x3f27f8bf	0.6561393
70	0x3f7c8151	0.9863482
71	0x3ed8ca59	0.4234188
72	0x3f417477	0.75568336
73	0xbf2622bb	-0.64896744
74	0xbf8bf3fd	-1.0933834
75	0x3f54cb14	0.8312237
76	0x3e27eb9b	0.1639847
77	0xbf12e3f8	-0.573791
78	0xbf3b885b	-0.73254937
79	0xbf1f2e46	-0.6217998
80	0xbf8389fa	-1.0276482
81	0xbe06cd34	-0.13164216
82	0xbea72b8d	-0.32650414
83	0x3f1e648d	0.6187218
84	0xbc2118ac	-0.009832542
85	0x3eab0e15	0.3340918
86	0xbe8f418e	-0.27979702
87	0xbf63cdce	-0.8898591
88	0x3f607bfd	0.8768919
89	0x3dfbe2f4	0.12299147
90	0x3f08aec7	0.5339169
91	0x3ec4bfb2	0.38427502
92	0xbf92f9ff	-1.1482543
93	0xbf0f349d	-0.55939656
94	0x3f3b19f6	0.7308649
95	0x3e862bde	0.26205343
96	0x3f27cd7f	0.6554794
97	0xc02adcc7	-2.6697252
98	0x3eec0def	0.4610438
99	0x3f37d421	0.7180806
100	0x3e7ca170	0.24670959
101	0xbd95dda2	-0.07317664
102	0xbe0335b6	-0.12813458
103	0xbe5b6d2e	-0.21428367
104	0x3e6c18fe	0.23056409
105	0xbd7fb9c5	-0.062433023
106	0xbec82844	-0.3909322
107	0x3e24363a	0.16036311
108	0xbf10ee66	-0.5661377
109	0xbf68e4c5	-0.90974075
110	0x3e068138	0.1313523
111	0xbe242773	-0.16030674
112	0x3e1bcc3d	0.1521463
113	0x3ee84745	0.45366874
114	0xbefa4190	-0.48878145
115	0xbf1f3e75	-0.62204677
116	0x3f1369a4	0.5758307
117	0xbf15ea3b	-0.5856053
118	0x3f574956	0.84096277
119	0x3e1d01af	0.15332673
120	0x3fbce727	1.4758042
121	0x3f8ce15f	1.1006278
122	0xbf146750	-0.5797014
123	0x3f17c341	0.5928231
124	0xbcd04787	-0.025424732
125	0xbf12b9eb	-0.5731494
126	0xbf7c1388	-0.984673
127	0xbeab8bf9	-0.33505228
128	0x3fcc8cd4	1.5980477
129	0x3fe9218c	1.8213363
130	0xbee17daf	-0.440412
131	0x3f1e6519	0.6187301
132	0x3f27ba0c	0.6551826
133	0x3e3a9680	0.18221474
134	0xbe993ea5	-0.29930606
135	0xc0050bea	-2.0788522
136	0x3e00a000	0.12561035
137	0xbed78c92	-0.42099434
138	0xbdcf7991	-0.10130609
139	0x3dfda5a7	0.12385111
140	0xbf084c45	-0.5324138
141	0xbeb7326b	-0.35780653
142	0x3ea6467a	0.32475644
143	0x3f45fe18	0.7734084
144	0xbec5a8c5	-0.38605323
145	0x3ee6c6f9	0.4507368
146	0x3f4ba5c2	0.795498
147	0x3ef77fdd	0.4833974
148	0x3ec0dc44	0.3766805
149	0xbf39435f	-0.72368425
150	0xbeb89534	-0.36051333
151	0x3f0e5a52	0.5560657
152	0x3f9f313a	1.2436898
153	0xbe530ee9	-0.20611157
154	0xbf8b58d4	-1.0886483
155	0x3f14c328	0.58110285
156	0x3e9fa452	0.31180054
157	0x3f04c6a1	0.51865584
158	0x3f6cc2b1	0.92484576
159	0xbf45576c	-0.7708652
160	0xbf013041	-0.50464255
161	0x3e4b939b	0.19880526
162	0x3f9b4ff2	1.2133772
163	0xbdf2c395	-0.118537106
164	0xbeb401b4	-0.3515755
165	0xbf995a47	-1.1980675
166	0xbf5b22dd	-0.8560007
167	0xbf13de5e	-0.5776118
168	0x3ebdac3e	0.37045473
169	0xbe1d3cb9	-0.15355195
170	0x3e3cc5fe	0.18434903
171	0xbee32b8c	-0.4436916
172	0x3fad7006	1.3549812
173	0xbf192aac	-0.5983074
174	0x3c8a3133	0.016869163
175	0x3fd4ad9f	1.6615485
176	0x3e0d25ee	0.13784
177	0x3cbdf4d0	0.023188025
178	0x3e4ece05	0.20195778
179	0x3f22e256	0.6362661
180	0xbf148ccc	-0.5802734
181	0xbef4ec7f	-0.47836682
182	0xbfacbc5b	-1.3494982
183	0xbe33b23e	-0.17548463
184	0xbf5b440b	-0.856507
185	0xbf3f7b4a	-0.747975
186	0x3f5a8b1b	0.8536851
187	0x3e8e2632	0.27763516
188	0x3f305232	0.6887542
189	0x3f195d32	0.5990783
190	0x3d666583	0.056249153
191	0x3f3a4e17	0.72775406
192	0xbec84d96	-0.39121693
193	0x3ebd095c	0.36921203
194	0xbf01e9b2	-0.50747216
195	0xbe9b43fc	-0.30325305
196	0xbef11db3	-0.4709297
197	0x3fba2f02	1.4545596
198	0x3f4b8b4d	0.7950943
199	0x3f7a6e40	0.9782448
200	0x3d993a8a	0.074818686
201	0x3f66848b	0.90045995
202	0xbdfb3311	-0.122655995
203	0xbf8d4e98	-1.103961
204	0xbeb69c90	-0.35666323
205	0x3e650ed8	0.22368944
206	0x3eb7891e	0.358468
207	0x3ee95a69	0.4557679
208	0x3f7c1aed	0.98478585
209	0xbf69c323	-0.9131338
210	0x3f8432d3	1.032801
211	0xbed9c600	-0.42533875
212	0x3f165497	0.58722824
213	0xbecbcb9b	-0.39803776
214	0x3e372c3e	0.17887971
215	0x3fee9afc	1.8641047
216	0x3e0dc475	0.13844474
217	0xbf8f34dd	-1.1188008
218	0xbe7e56d6	-0.24837813
219	0x3f66ec97	0.9020476
220	0x3ddc5df0	0.10760105
221	0x3eefef21	0.46862128
222	0xbf0a12d8	-0.53935003
223	0x3fef66f7	1.8703297
224	0xbea6db3e	-0.32589144
225	0x3f446e41	0.76730734
226	0xbde5d351	-0.11221946
227	0xbe7a7ab8	-0.24460876
228	0xbd09e968	-0.03366986
229	0x3ea139da	0.3148945
230	0x3e209a37	0.15683828
231	0xbf7e0788	-0.9923024
232	0x3d569486	0.052387737
233	0x3d42ad54	0.04752858
234	0x3f71ac99	0.9440399
235	0x3f5ea552	0.8697101
236	0x3e68d1a5	0.22736223
237	0xc01f477c	-2.488738
238	0x3f511ae3	0.8168165
239	0xbfe0adda	-1.7553055
240	0x3ec05e1d	0.37571803
241	0xbd4d058d	-0.05005412
242	0xbf7ae161	-0.9800015
243	0xbea4258c	-0.32059896
244	0x3ef98c4d	0.48739854
245	0xbdb1c63d	-0.08680389
246	0xbefa8242	-0.48927504
247	0xbeb0511c	-0.34436882
248	0x3df4e89e	0.11958431
249	0x3ece2fbb	0.4027079
250	0xbe24ad7c	-0.16081804
251	0x3da60709	0.081068106
252	0xbd9f347b	-0.07773682
253	0xbf759bc0	-0.9594078
254	0xbe9d8207	-0.30763265
255	0xbf3686be	-0.7129935

input_embeddings.embeddings.regional_holiday.weight f4 [19, 8]
0	0x3cf37e0d	0.029723192
1	0xbebdbdfa	-0.37059003
2	0xbd669ea2	-0.056303628
3	0x3ece0b9f	0.4024324
4	0xbd2b1466	-0.0417675
5	0xbbc8a2f1	-0.0061229398
6	0x3c8e0240	0.017335057
7	0xbb71ec18	-0.0036914404
8	0xc0369a1e	-2.8531566
9	0xbd8491ed	-0.06473146
10	0xbdb37e86	-0.08764367
11	0x3de8bd93	0.113642834
12	0x3ec34d7f	0.38145062
13	0x3f1d084b	0.6134078
14	0xbf65b94c	-0.89735866
15	0xc02289e8	-2.5396671
16	0x3f59a534	0.85017705
17	0x3e133206	0.14374551
18	0xbfe66f13	-1.8002647
19	0xbf63ad28	-0.8893609
20	0xbf96472d	-1.1740471
21	0x3f6ebdd3	0.932584
22	0xbe86c440	-0.26321602
23	0xbf0e3a5e	-0.5555781
24	0x3fe837cd	1.8142029
25	0x3deca1ab	0.11554273
26	0xbf186270	-0.59525204
27	0xbf0e5c2c	-0.55609393
28	0xbfbe4e0c	-1.4867568
29	0x3cad9aae	0.021191921
30	0xc01e4623	-2.4730308
31	0xc0a09e17	-5.019298
32	0xbf907c2a	-1.1287892
33	0x3d000437	0.03125402
34	0x3f4f46f9	0.8096767
35	0xbea2d423	-0.31802472
36	0x3e1e0dda	0.15434971
37	0x3f9f1cc5	1.2430655
38	0xbf15f20b	-0.58572453
39	0x3f23ba90	0.63956547
40	0x3f9b9a10	1.2156391
41	0xbd4a69fd	-0.049417485
42	0xbf27c0c1	-0.65528494
43	0xbd9001bd	-0.070315816
44	0xbf28e0db	-0.659681
45	0xbecc972b	-0.39959082
46	0x3f863be4	1.0487027
47	0xbfc76112	-1.5576499
48	0x4022ea8e	2.545566
49	0xbe8b8275	-0.27247968
50	0xbf83d600	-1.0299683
51	0xbed62d33	-0.4183136
52	0xbf3ccaca	-0.7374693
53	0xbec71636	-0.38884133
54	0xbeda0a30	-0.42585897
55	0x3f85f209	1.0464488
56	0x3fb92ea2	1.4467356
57	0x3f348482	0.7051469
58	0xbf3446cd	-0.70420533
59	0xbe9491d4	-0.29017508
60	0xbf8cda29	-1.1004077
61	0xbf148da1	-0.5802861
62	0xbe5dcb6f	-0.21659635
63	0xc02aa0dd	-2.6660683
64	0x3ec909b9	0.3926523
65	0xbe4b7387	-0.19868289
66	0xbe47d918	-0.19516408
67	0x3def84a6	0.116952226
68	0xbc9547fe	-0.018222805
69	0xbd0d18de	-0.034447543
70	0x3e8dcd8e	0.27695888
71	0xc057ee82	-3.3739324
72	0xbf5747e2	-0.8409406
73	0xbdf7dfbc	-0.12103221
74	0xbfb408c8	-1.406518
75	0x3ed001a3	0.4062625
76	0xbf834373	-1.0254959
77	0x3ee15c4a	0.44015723
78	0xbf2b4a8c	-0.66910625
79	0xbfdf3481	-1.7437898
80	0x402cd6ba	2.7006059
81	0x403636a1	2.8470843
82	0xc014b189	-2.323336
83	0xc032c448	-2.79323
84	0xc04e35c3	-3.2220314
85	0x3ec4a9cb	0.38410792
86	0xc00a9943	-2.1656044
87	0xc003f5e1	-2.0618823
88	0xbd34c015	-0.044128496
89	0x3de94b11	0.11391271
90	0x3e454fa3	0.1926866
91	0x3e827ebc	0.25487316
92	0xbe4a94b8	-0.19783294
93	0x3e7849eb	0.24246947
94	0xbebea5f1	-0.37235978
95	0x402ed6b8	2.7318554
96	0x40326a99	2.7877562
97	0x4038f0d9	2.8897002
98	0xbf8a46bb	-1.0802835
99	0xc0235b25	-2.552438
100	0xc032564b	-2.786517
101	0x3fa634b9	1.298484
102	0xbfc61557	-1.5475262
103	0xc0478300	-3.1173706
104	0xbe352ed4	-0.17693645
105	0xbb33737a	-0.0027382062
106	0x3d6f2d31	0.058392707
107	0xbd251bee	-0.04030984
108	0x3d8f82ab	0.07007345
109	0xbedfa87d	-0.43683234
110	0x3fa0d496	1.2564876
111	0xc03a3224	-2.9093103
112	0xc053018f	-3.2969701
113	0xbfd81a9f	-1.6883124
114	0xbdc1435f	-0.09436678
115	0x3f80b20e	1.0054338
116	0x3e9a4739	0.30132464
117	0xbf137986	-0.57607305
118	0xbf2adee1	-0.66746336
119	0x3d72d058	0.059280723
120	0x3f62530a	0.8840796
121	0x3e07aa22	0.13248494
122	0x3e7d190d	0.24716587
123	0x3e327168	0.17426074
124	0xbf110fb0	-0.5666456
125	0xbdcfaf2a	-0.10140832
126	0x3f963204	1.1734014
127	0x4001ad4c	2.0262022
128	0x3edb6a0a	0.4285434
129	0x3f0d3f87	0.5517506
130	0x3f85f226	1.0464523
131	0xbe2d2d6c	-0.16911858
132	0xbee98d36	-0.45615548
133	0x3f34b14d	0.7058304
134	0x3b565f1b	0.0032710496
135	0xbfc569e8	-1.5422945
136	0xbff34ed2	-1.9008429
137	0x3d4e18f1	0.050316755
138	0x3f23413a	0.637714
139	0x3ea98d0d	0.33115426
140	0x3f75822e	0.95901763
141	0x3fb3a79c	1.4035525
142	0x40095c1c	2.146247
143	0xbf66912d	-0.9006527
144	0xc0059bd4	-2.087636
145	0x3e14384f	0.14474605
146	0x3fdea856	1.7395122
147	0x3e5faffb	0.21844475
148	0x3f09aad0	0.53776264
149	0x3fbb45fd	1.4630734
150	0x3f8d8e05	1.1058966
151	0xbe593caf	-0.21214555

input_embeddings.embeddings.local_holiday.weight f4 [115, 23]
0	0x3d0cb0e6	0.03434839
1	0xbdb4ba29	-0.0882457
2	0xbe43f56b	-0.19136588
3	0x3d7ed029	0.062210236
4	0x3d27afaf	0.04093903
5	0xbe1aa1ec	-0.15100831
6	0xbef4bc7c	-0.47800052
7	0xbe2da591	-0.1695769
8	0xbdc91b9e	-0.09819721
9	0x406f3d08	3.7381
10	0x3ea452aa	0.32094318
11	0xbdb8a070	-0.09014976
12	0xbd8c809d	-0.068604685
13	0x3c41e2b4	0.011833835
14	0x3d3bc2f6	0.045840226
15	0x3d0667fb	0.032814007
16	0xbed8835c	-0.4228772
17	0x3da43308	0.08017546
18	0x3e04e62d	0.1297843
19	0xbd146444	-0.036228433
20	0x3dd9b53a	0.10630269
21	0x3a56e2ba	0.0008197237
22	0x3d079f28	0.033110768
23	0x3fbff232	1.4995787
24	0xbf547f48	-0.83006716
25	0xbf8930c1	-1.0718004
26	0x3f34d8c7	0.70643276
27	0x3c57007e	0.013122676
28	0x3f5ab96f	0.854392
29	0x3fa23cc3	1.2674793
30	0xbdecab3a	-0.115560964
31	0xbe41468e	-0.1887457
32	0x3f1aaaec	0.60417056
33	0x3f9502aa	1.1641438
34	0x3eac5567	0.33658907
35	0xbf2f8ca4	-0.68573976
36	0x3f030188	0.5117421
37	0x3ea1242e	0.31472915
38	0x3e9891b4	0.29798663
39	0x3c8ec724	0.017428942
40	0xbefe0da1	-0.49619773
41	0xbea75eeb	-0.32689604
42	0xbf9b5bea	-1.2137425
43	0x3f6f26db	0.93418664
44	0xbe818c90	-0.25302553
45	0xbf112443	-0.56695956
46	0x3dedd8c8	0.11613613
47	0x3f57bb15	0.8426984
48	0x3ab29f09	0.0013627718
49	0xbd24e668	-0.040258795
50	0x3f46d25a	0.7766472
51	0xbf05902f	-0.5217313
52	0x3f044065	0.5166076
53	0xbf6cdc98	-0.925241
54	0xbf329843	-0.6976358
55	0x3dbd7023	0.09249904
56	0x3eb294e9	0.34879234
57	0x3f205ad7	0.6263861
58	0x3fc5336d	1.5406319
59	0x3f445b84	0.7670214
60	0xbd37674e	-0.044776253
61	0x3eba5fef	0.36401317
62	0x3f6112d1	0.87919337
63	0xbfbe63f9	-1.4874259
64	0xbf3fb46c	-0.74884677
65	0x3f7a9dfb	0.9789731
66	0x3f541452	0.82843506
67	0x3d9fd76c	0.0780476
68	0x3f36c3da	0.71392596
69	0x3fe33095	1.7749201
70	0x3f843573	1.0328811
71	0xbf6d3db9	-0.92672306
72	0xbfa562fa	-1.292083
73	0xbf3d4852	-0.7393848
74	0x3f10404a	0.563481
75	0x3f0f11a4	0.5588629
76	0x3f78a9d7	0.97134155
77	0xbf048b20	-0.5177479
78	0x3e8e44ad	0.2778677
79	0xbf30b275	-0.69022304
80	0x3edc55c6	0.4303419
81	0x3ee41923	0.44550428
82	0x3d9c0a92	0.076192036
83	0xbf86c4a9	-1.0528766
84	0xbdd2e3f9	-0.102973886
85	0xbec84197	-0.3911254
86	0x3f7830bd	0.9694937
87	0xbe1cf730	-0.1532867
88	0x3f7429b8	0.9537616
89	0xbea5c840	-0.3237934
90	0x3e15623b	0.14588253
91	0xbf88ca78	-1.0686789
92	0xbf1b7585	-0.60726196
93	0x3f7bd201	0.98367316
94	0xbe04305c	-0.12909073
95	0x3f03a495	0.5142301
96	0xbe5da68d	-0.21645565
97	0x3f289104	0.65846276
98	0x3f508816	0.8145765
99	0xbf2b1a80	-0.6683731
100	0xbf73e108	-0.95265245
101	0x3e6f0364	0.23341137
102	0xbf1195c7	-0.5686917
103	0x3e5ecd85	0.21758087
104	0x3e6980a1	0.22802974
105	0x3efcf85a	0.49408227
106	0x3f1133ad	0.56719476
107	0xbdd16e4f	-0.10226118
108	0x3e8ec96a	0.27888042
109	0xbf65e849	-0.89807564
110	0x3f5b51f5	0.8567193
111	0xbd3ff5bd	-0.046865214
112	0x3ef066a3	0.46953306
113	0xbfe50349	-1.7891628
114	0xbfb4e82e	-1.4133356
115	0xbf7fb38c	-0.9988334
116	0x3e4e60ba	0.20154086
117	0xbefce1fc	-0.49391162
118	0xbf67ae96	-0.9050077
119	0x3f98d18b	1.1938947
120	0x3f2199e7	0.6312546
121	0x3eeabedc	0.4584874
122	0xbf1a3966	-0.60243833
123	0xbe69f736	-0.2284821
124	0xbf10320d	-0.5632637
125	0xbfc3c18b	-1.529344
126	0x3f1459af	0.57949346
127	0xbf6dee17	-0.9294142
128	0xbe4775f2	-0.19478586
129	0x3f5bb0e8	0.8581681
130	0x3f8aa37c	1.0831141
131	0xbfabcf87	-1.3422707
132	0x3e058dbe	0.13042352
133	0xbe6e3f62	-0.23266366
134	0x3f591fb8	0.84814024
135	0x3edbb82c	0.4291395
136	0x3f8fc428	1.1231737
137	0xbf869ff0	-1.0517559
138	0x3f4b0c8e	0.7931603
139	0xbe9a5d0b	-0.3014911
140	0x3f81cc96	1.014056
141	0x3fefd775	1.8737627
142	0x3cc55580	0.024088621
143	0xbf8a9754	-1.0827432
144	0x3fb9c34a	1.4512722
145	0x3eb8302c	0.35974252
146	0x3f0e8630	0.55673504
147	0xbde7fe02	-0.11327745
148	0x3f2d6bbe	0.67742527
149	0x3f202821	0.6256123
150	0xbf667e25	-0.9003623
151	0xbd27a6fe	-0.04093074
152	0x3f5ba058	0.8579154
153	0x3e9282d4	0.2861544
154	0xbec4cc8a	-0.384373
155	0xbe719308	-0.23591244
156	0x3f0ad6ed	0.542342
157	0x4001e956	2.0298667
158	0xbc9a394d	-0.018826151
159	0x3ecc9bc9	0.39962605
160	0xbf2b8c49	-0.67010933
161	0xbdfb1174	-0.12259188
162	0x3f27c01b	0.65527505
163	0x3fb51ae6	1.4148834
164	0xbf4b08c7	-0.7931027
165	0x3f1b5a81	0.60684973
166	0xbd59530c	-0.053057715
167	0x3f2b9ce8	0.67036295
168	0xbf5b6534	-0.857013
169	0x3e33f251	0.17572905
170	0x3d85b568	0.06528741
171	0xbd23d424	-0.039997235
172	0x3edd3bcd	0.43209687
173	0xbf77897a	-0.9669415
174	0x3f1c62ec	0.6108844
175	0xbe8eae5f	-0.2786741
176	0x3e1d7b61	0.15379097
177	0x3f2d7867	0.67761844
178	0x3ba6fa4c	0.0050957557
179	0xbda0a462	-0.078438535
180	0x3f185e43	0.5951883
181	0xbda0b9bc	-0.07847926
182	0xbf860392	-1.046984
183	0xbf086cfc	-0.53291297
184	0x3d793a04	0.060846344
185	0xbfa07e4e	-1.2538545
186	0x3ee361ee	0.44410652
187	0xbf30e907	-0.6910557
188	0x3fa95ce6	1.3231475
189	0x3ecf75e2	0.40519625
190	0x3c416cc5	0.011805718
191	0x3e4c0cf9	0.19926824
192	0xbe722ad9	-0.23649158
193	0xbdf95646	-0.121746585
194	0x3f133389	0.5750051
195	0xbe47abfa	-0.19499198
196	0xbeb72235	-0.35768285
197	0x3e133281	0.14374734
198	0xbea6d80f	-0.32586715
199	0xbd05a258	-0.032625526
200	0xbce88b2e	-0.028386679
201	0x3ea5e401	0.32400516
202	0x3f07fe49	0.53122383
203	0x3ff5c7dc	1.9201617
204	0xbf2a1267	-0.6643433
205	0xbf31a8e8	-0.69398355
206	0xbed30682	-0.41215903
207	0x3f269283	0.6506731
208	0xbeb8ab9c	-0.36068428
209	0x3e9c90ba	0.30579168
210	0x3eb355b9	0.3502634
211	0x3f3312af	0.69950384
212	0xbf8fa071	-1.1220838
213	0xbd7bd941	-0.061486486
214	0x3eec84c3	0.4619504
215	0x3f6c5345	0.9231456
216	0x3d7e46ba	0.06207917
217	0xbe4b5572	-0.19856814
218	0xbf4ddde2	-0.8041669
219	0xbeaedde8	-0.34153676
220	0xbcdc1288	-0.026864305
221	0xbe729dec	-0.23693055
222	0x3b96bff9	0.0046005216
223	0x3e92f07e	0.28699106
224	0x3f64ee55	0.89426166
225	0xbfa9c65f	-1.3263663
226	0xbf9c2c88	-1.220109
227	0x3ebb873e	0.3662662
228	0x3f35d9eb	0.7103564
229	0xbe832e81	-0.25621417
230	0x3da8ab61	0.08235813
231	0xbfc2b0e1	-1.5210229
232	0xbf306972	-0.68910897
233	0xbf8cf627	-1.101262
234	0x3ea10e1b	0.31456074
235	0x3f7ab31e	0.9792956
236	0x3fbded8c	1.4838119
237	0xbe371f2c	-0.17882985
238	0x3d97a172	0.0740384
239	0xbe608721	-0.21926548
240	0xbf00a624	-0.5025351
241	0x3f839e89	1.0282756
242	0x3f53e762	0.8277494
243	0x3f33e47b	0.7027051
244	0x3f0a7beb	0.54095334
245	0xbee47e7a	-0.44627744
246	0x4007e4da	2.123343
247	0x3e40eb14	0.18839675
248	0xbea17ff0	-0.3154292
249	0x3e9c5f87	0.30541632
250	0x3e14d4ea	0.14534345
251	0x3e1a27d1	0.15054251
252	0x3eba2ba3	0.36361417
253	0x3e39ad70	0.18132567
254	0xbf0566dd	-0.5211008
255	0x3f18b746	0.59654653

input_embeddings.embeddings.art.weight f4 [174, 29]
0	0x3f3f8813	0.7481701
1	0x3e80bec7	0.25145552
2	0xbfad9e95	-1.356402
3	0xbe88f6f8	-0.26750922
4	0xbe8cd24d	-0.27504197
5	0xbf450081	-0.76953894
6	0xbeaebeb3	-0.34129867
7	0xbe4c1f75	-0.19933875
8	0x3f3db42e	0.7410306
9	0x3fa5a489	1.2940837
10	0x3f816067	1.0107545
11	0x3f788c18	0.97088766
12	0x3f49fcf6	0.7890161
13	0x3cba1808	0.022716537
14	0xbf02fb50	-0.5116472
15	0xbd2af131	-0.041733924
16	0xbc332fda	-0.010936702
17	0x3ea75a32	0.32686
18	0x3dad8a54	0.084736496
19	0xbf42dc28	-0.7611718
20	0xbf8a341e	-1.0797155
21	0xbd90a88e	-0.07063399
22	0x3e13d6dd	0.14437433
23	0x3ec7f7e6	0.3905632
24	0xbe606f57	-0.21917473
25	0xbf722b20	-0.94597054
26	0xbf6b0e9f	-0.91819185
27	0x3ee09b39	0.43868425
28	0xbf4c9ca4	-0.79926515
29	0xbf1c6e3a	-0.6110569
30	0x3dbae260	0.09125209
31	0x3ddaf374	0.10690966
32	0x3e200083	0.15625195
33	0xbe7e8b81	-0.24857904
34	0xbf1e156b	-0.6175143
35	0xbf28517a	-0.65749323
36	0xbf0719de	-0.52773845
37	0xbd15bf4d	-0.03655939
38	0xbf19fd6f	-0.60152334
39	0x3ec82d74	0.39097178
40	0x3f048900	0.51771545
41	0xbd13fe8f	-0.036131438
42	0xbe1faab1	-0.15592457
43	0xbe7791b2	-0.24176672
44	0xbe7012b6	-0.23444638
45	0xbea4138f	-0.32046172
46	0x3e836127	0.2566006
47	0xbf4746df	-0.77842516
48	0x3ef1fa6f	0.47261378
49	0x3fcbfddc	1.5936847
50	0x3e2df330	0.169873
51	0x3f02b524	0.5105765
52	0x3fab9174	1.3403764
53	0x3e01afde	0.12664744
54	0xbe528ec9	-0.2056228
55	0xbe0c8cfb	-0.13725655
56	0xbe12e39b	-0.14344637
57	0x3e8383c1	0.25686458
58	0x3d884ada	0.06654902
59	0xbec56579	-0.3855398
60	0x3f421553	0.7581379
61	0xbf174150	-0.59084034
62	0xbf694115	-0.9111493
63	0xbf83ef7f	-1.0307463
64	0xbf37413c	-0.71583915
65	0xbefe0f02	-0.49620825
66	0xbf30a487	-0.6900105
67	0xbf1f4346	-0.62212026
68	0x3f269c2c	0.6508205
69	0x3f3321be	0.6997336
70	0xbf1cbc66	-0.61224973
71	0xbe158ffe	-0.1460571
72	0xbd1ee56c	-0.038793012
73	0xbf0761b3	-0.5288345
74	0xbf216345	-0.630421
75	0x3f4f8a67	0.8107056
76	0xbee70f2d	-0.45128766
77	0xbd3eed2f	-0.046612915
78	0x3f2a140a	0.6643683
79	0xbee352fe	-0.44399256
80	0xbd0279ea	-0.031854548
81	0x3f85a0ca	1.0439694
82	0x3f0837fc	0.53210425
83	0x3d5d4ab2	0.054026313
84	0x3ee9b96f	0.45649287
85	0x3e8d31f2	0.27577168
86	0x3f741ca0	0.9535618
87	0x3f85e495	1.0460383
88	0xbe9bd388	-0.30434823
89	0x3f010770	0.50401974
90	0xbf8ea386	-1.1143653
91	0xbf3bc021	-0.7334004
92	0x3ebdce18	0.370713
93	0x3e55f822	0.20895436
94	0x3daa9518	0.083292186
95	0xbe9d6f6b	-0.30749068
96	0xbf995cb7	-1.1981419
97	0x3f99c04c	1.2011809
98	0x3fb05bb5	1.3777987
99	0xbf4acca2	-0.79218495
100	0xbf13cc8f	-0.57734007
101	0xbe999e32	-0.30003506
102	0x3f4105f3	0.753997
103	0x3f79cfb5	0.9758256
104	0xbf0ba4dc	-0.5454843
105	0xbf65d44b	-0.8977706
106	0xbe047861	-0.12936546
107	0x3e193768	0.14962542
108	0xbf4651fc	-0.7746885
109	0xbeac9386	-0.337063
110	0x3f5f6d6a	0.8727633
111	0x3f03b738	0.51451445
112	0x3f887ffe	1.066406
113	0x3f5cd08d	0.86255723
114	0xbe8e1767	-0.2775223
115	0xbf2e4ec2	-0.68088925
116	0x3eba9923	0.3644496
117	0xbe88aa53	-0.26692447
118	0x3db22b29	0.086996384
119	0xbf35490c	-0.70814586
120	0xbf15029d	-0.5820711
121	0x3e51d465	0.20491178
122	0x3ec4c6a4	0.384328
123	0x3ea01542	0.31266218
124	0xbeecbaa5	-0.46236148
125	0xbca91119	-0.020638036
126	0xbdfb2495	-0.12262837
127	0xbeb0ed9a	-0.34556276
128	0xbf1eaf67	-0.6198639
129	0xbfb30e09	-1.3988658
130	0xbfa1a669	-1.2628909
131	0xbefdd922	-0.49579722
132	0xbe5fd22f	-0.21857522
133	0x3e1bc8af	0.15213273
134	0x3f1b1d28	0.60591364
135	0x3f19eea8	0.60129786
136	0x3f16e7e7	0.58947605
137	0x3f6559fe	0.8959044
138	0x3f2ecd3f	0.6828193
139	0x3ef6f77f	0.482357
140	0x3dd3129c	0.10306284
141	0x3e4c4b3e	0.19950578
142	0x3eff6ba4	0.4988681
143	0xbfd331df	-1.6499594
144	0x3dd62b14	0.10457435
145	0xbf68ab3b	-0.90886277
146	0x3f2c8bb6	0.6740068
147	0x3f43ee94	0.76535916
148	0x3e3bc6c9	0.1833755
149	0x3e4c453f	0.1994829
150	0x3ee3a64a	0.44462806
151	0x3e828acb	0.25496516
152	0x3e6af774	0.22945958
153	0xbe992cb9	-0.29916933
154	0x3f675efb	0.90379304
155	0xbea8397c	-0.32856357
156	0xbf080a90	-0.5314112
157	0xbf970d6a	-1.1800969
158	0xbf919549	-1.1373683
159	0xbfe971bf	-1.8237838
160	0xbf4bb200	-0.7956848
161	0xbf0282b7	-0.50980705
162	0xbe8b0b55	-0.27157083
163	0x3fb18b20	1.3870583
164	0x3f3dee4a	0.74191725
165	0xbec93b54	-0.39303076
166	0x3dc7ddf7	0.09759133
167	0x3e92b83b	0.28656182
168	0xbec2c3fa	-0.38040143
169	0xbe20fb3d	-0.1572084
170	0x3f4fede1	0.8122235
171	0x3f51d2e2	0.81962407
172	0xbf0525dc	-0.52010894
173	0x3ee9660b	0.45585665
174	0xbdcddb42	-0.10051586
175	0x3cedecb7	0.029043538
176	0xbf65c34c	-0.89751124
177	0x3f8540e0	1.0410423
178	0x3f917b45	1.1365744
179	0x3ef9e595	0.4880797
180	0x3dbc8455	0.09204928
181	0x3dacf872	0.08445825
182	0x3f4aa435	0.7915681
183	0xbf344b30	-0.7042723
184	0xbe653917	-0.2238506
185	0xbcc5e6ee	-0.024157967
186	0x3f8094bf	1.0045394
187	0x3e958aec	0.2920755
188	0x3e833182	0.2562371
189	0xbf1641db	-0.5869424
190	0xbf2aaff2	-0.6667472
191	0x3f24eb75	0.6442178
192	0xbd21e412	-0.039524145
193	0xbed2590d	-0.41083565
194	0x3f2aba79	0.66690785
195	0xbf0fe9e0	-0.5621624
196	0xbf576ca4	-0.8415015
197	0x3fb5953b	1.4186167
198	0x3f8aa8aa	1.0832722
199	0xbe036fae	-0.12835571
200	0xbf05a4bc	-0.5220449
201	0xbf8481e0	-1.0352135
202	0xbf696daf	-0.9118299
203	0x3ea99396	0.33120412
204	0x3faac25b	1.3340563
205	0x3d178103	0.03698827
206	0x3ee8753c	0.45401943
207	0x3ea89020	0.3292246
208	0xbede5ced	-0.43430272
209	0xbe89caeb	-0.26912627
210	0xbeb91891	-0.36151555
211	0x3e0fbfd5	0.14038022
212	0xbf3505c7	-0.7071194
213	0x3f2a0377	0.66411537
214	0x3f1f7bc0	0.622982
215	0x3f2fba78	0.68643904
216	0x3f1a811b	0.6035325
217	0xbeb21d8a	-0.34788162
218	0xbf794b8d	-0.97380906
219	0xbf99420b	-1.197328
220	0x3f14dca5	0.58149177
221	0xbf60b767	-0.8777985
222	0x3c3a5f5a	0.011375273
223	0x3f2ac9fd	0.6671446
224	0xbedb04c3	-0.4277707
225	0xbe3f9855	-0.18710454
226	0x3f8fef8d	1.124498
227	0x3f18bcb0	0.59662914
228	0xbf552a7c	-0.8326795
229	0xbf8c8e5e	-1.0980947
230	0xbec2c457	-0.3804042
231	0xbf6c33df	-0.9226665
232	0x3f3957e5	0.7239974
233	0xbe7e5c25	-0.24839838
234	0x3ea6d3de	0.32583517
235	0x3e3e8f65	0.18609388
236	0x3e80c9e8	0.25154042
237	0xbeb2507c	-0.3482703
238	0xbfb9c140	-1.45121
239	0xbfcdb2f6	-1.607024
240	0xbe83c504	-0.25736248
241	0x3f2b1b90	0.6683893
242	0xbee7cbf8	-0.45272803
243	0xbf13ec78	-0.577827
244	0x3d14497a	0.036202885
245	0x3e8e6ee7	0.27818987
246	0xbd577038	-0.052597255
247	0xbf346564	-0.7046721
248	0xbf4c3982	-0.7977525
249	0xbf4058dd	-0.75135595
250	0x3e1a5e4f	0.15075038
251	0x3ee26c14	0.44223082
252	0x3f622f1e	0.88353145
253	0x3ee66af8	0.45003486
254	0x3dfc3a3c	0.12315795
255	0x3ab0b750	0.0013482366

input_embeddings.embeddings.pos.weight f4 [45, 13]
0	0xbe72e756	-0.2372106
1	0xbdaafe33	-0.08349266
2	0x4030a17a	2.7598557
3	0xbe2473c4	-0.16059786
4	0xbeb62827	-0.3557751
5	0x3ea18b00	0.3155136
6	0xbe83310d	-0.2562336
7	0xbf4f2171	-0.809104
8	0xbebc2506	-0.36746997
9	0xbd828153	-0.06372323
10	0x3e61b787	0.22042666
11	0x3e8cc6f6	0.27495545
12	0xbed62b33	-0.41829833
13	0x3d207e2e	0.039182834
14	0x3e962255	0.29323068
15	0xbeb7be97	-0.35887596
16	0x3f18876d	0.59581643
17	0x3dbcf914	0.092271954
18	0x3d9a965b	0.07548209
19	0x3f9031f8	1.1265249
20	0xbcc66909	-0.024220007
21	0xbf30ad4a	-0.6901442
22	0xbee2610e	-0.44214672
23	0xbf524dd8	-0.8215003
24	0xbec3c9f6	-0.3824002
25	0x3f8e0405	1.1094977
26	0x3ea4e389	0.32204846
27	0xbebfb0da	-0.37439615
28	0xbf0567cf	-0.52111524
29	0x3e621919	0.22079886
30	0x3f2ff66b	0.6873538
31	0xbf8d064e	-1.1017549
32	0xbf7a43df	-0.97759813
33	0xbdfd6eb1	-0.12374628
34	0x3f1bfc43	0.60931796
35	0x3e3da551	0.18520094
36	0x3f0abc22	0.5419332
37	0x3f4e7620	0.80648994
38	0x3f48a11c	0.78370833
39	0xbf059181	-0.52175146
40	0xbfa56665	-1.2921873
41	0xbf1f840b	-0.62310857
42	0x3f5b6ba2	0.8571111
43	0x3eb93d40	0.36179543
44	0x3d785b8a	0.060634173
45	0x3e1666d9	0.14687671
46	0x3e182992	0.14859608
47	0xbeb81ede	-0.3596105
48	0x3f4c978d	0.7991875
49	0xbdeaef5c	-0.114714354
50	0x3d2e6d80	0.042584896
51	0x3eb4706b	0.35242018
52	0xbf06c599	-0.5264526
53	0xbfa727aa	-1.305898
54	0x3ea25ee0	0.3171301
55	0xbf0d3fcf	-0.5517549
56	0xbecbc8c8	-0.3980162
57	0xbc7aaa19	-0.0152993435
58	0x3f3f5e66	0.74753416
59	0xbf3bff02	-0.73435986
60	0x3f5e1047	0.8674359
61	0xbf133f98	-0.5751891
62	0xbeb1206d	-0.3459505
63	0x3f6774f9	0.9041286
64	0xbeb75f37	-0.3581483
65	0xbee34307	-0.44387075
66	0x3ec812e8	0.39076924
67	0x3eddd443	0.43326005
68	0xbc2c35a2	-0.010510834
69	0xbf41ad55	-0.7565511
70	0xbfbcb2eb	-1.4742101
71	0x3e63ed14	0.22258407
72	0xbdab61b9	-0.083682485
73	0xbe9b17e5	-0.30291668
74	0x3ef88b3a	0.4854372
75	0xbe9e5551	-0.30924466
76	0x3e3d472d	0.18484183
77	0x3f18441d	0.5947893
78	0x3f444c46	0.76678884
79	0x3f7289fe	0.9474181
80	0x3ebe03bb	0.3711222
81	0xbe82d561	-0.2555342
82	0x3c5242c6	0.012833303
83	0xbf6eed33	-0.9333069
84	0xbe9bc87e	-0.304264
85	0x3db577de	0.088607535
86	0xbfae9500	-1.3639221
87	0xbea8077c	-0.3281821
88	0x3e3151ba	0.17316332
89	0x3e67a315	0.22620805
90	0x3e6bed69	0.23039784
91	0xbd8d98a0	-0.069138765
92	0x3f370964	0.71498704
93	0x3e926282	0.2859078
94	0xbf6497ff	-0.8929443
95	0xbf7da605	-0.9908145
96	0xbe25aebf	-0.16179942
97	0x3f566a47	0.83755916
98	0x3f28823f	0.6582374
99	0x3f813c14	1.0096459
100	0x3e9dbf78	0.30810142
101	0xbec7d6fb	-0.39031205
102	0xbeaf239d	-0.34206858
103	0xbf1c4521	-0.6104298
104	0xbfd4a524	-1.6612897
105	0xbd0b2555	-0.03397115
106	0x3ea45082	0.32092673
107	0x3ea5260c	0.3225559
108	0xbfb9219b	-1.446338
109	0x3e9aefe9	0.30261162
110	0x3f7072d7	0.9392523
111	0x3edcdd42	0.43137556
112	0x3ed4490d	0.41461983
113	0xbf9bbf00	-1.2167664
114	0xbdaa9a5d	-0.08330224
115	0x3e94229d	0.28932658
116	0x3e6fe7d1	0.23428275
117	0xbe7cc5b1	-0.24684788
118	0x3e11f505	0.14253624
119	0x3f1f36f7	0.62193245
120	0x3f81c4dc	1.0138202
121	0xbe0937fc	-0.13400263
122	0x3f67eb4a	0.905934
123	0xbd316f88	-0.043319255
124	0xbdf5a60a	-0.1199456
125	0xbff643d8	-1.9239454
126	0xbf2ab562	-0.6668302
127	0x3f4d51e5	0.80203086
128	0x3d2c72de	0.042101733
129	0xbeffc1d6	-0.49952573
130	0xbdda8c58	-0.106713
131	0xbf496bd7	-0.78680176
132	0xbf6ddeed	-0.9291828
133	0x3e628c74	0.22123891
134	0x3d042a5c	0.03226696
135	0x3e0362f2	0.12830713
136	0xbe81ac0c	-0.25326574
137	0x3f1a6ad9	0.60319287
138	0x3f4fbefc	0.81150794
139	0xbec92665	-0.39287105
140	0x3f12b9b4	0.5731461
141	0x3e1bf2d3	0.15229349
142	0x3dedcdd7	0.116115265
143	0x3f0d2ced	0.55146676
144	0x3f268f95	0.6506284
145	0xbf6ecaab	-0.93277997
146	0x3ecd9fec	0.40161073
147	0xbeb7fb1e	-0.35933775
148	0xbe352904	-0.17691427
149	0x3f152025	0.58252174
150	0x3f07ae45	0.5300029
151	0xbee51cdd	-0.44748583
152	0x3f2aac8e	0.6666955
153	0xbed84bd2	-0.42245346
154	0xbf8945b7	-1.07244
155	0x3e57e1e2	0.21082261
156	0xbef138f4	-0.47113764
157	0x3f609107	0.87721294
158	0x3f636437	0.8882479
159	0xbed74b8d	-0.42049828
160	0xbf015376	-0.50517976
161	0xbf0b3936	-0.5438417
162	0x3e8bb8ee	0.27289528
163	0xbf90a9f9	-1.1301872
164	0x3e1ac750	0.15115094
165	0x3f565db2	0.8373672
166	0xbce1e957	-0.027577085
167	0x3d8289f8	0.06373972
168	0x3dc259af	0.09489762
169	0x3e33de73	0.17565326
170	0x3ef66184	0.48121274
171	0xbee489b2	-0.44636303
172	0xbd8f80a4	-0.07006958
173	0xbe4ab2cf	-0.19794773
174	0x3e2f070b	0.1709253
175	0x40421e3c	3.0330954
176	0xbf1411e0	-0.57839775
177	0xbe8aecc9	-0.27133778
178	0x3e54e673	0.20791034
179	0xbf7352a3	-0.9504797
180	0xbf2e55ee	-0.6809987
181	0x3d98fea4	0.07470444
182	0xbed36dc2	-0.41294676
183	0x3f52e5db	0.8238198
184	0xbec959b3	-0.39326248
185	0x3ed36f1d	0.4129571
186	0xbef12e5e	-0.47105688
187	0xbf36fcb7	-0.7147936
188	0x3f2cbeec	0.67478824
189	0xbe359b72	-0.17735079
190	0xbe8b2fa2	-0.27184778
191	0x3ed21417	0.41030952
192	0xbf2037b1	-0.6258498
193	0xbe4e0f3c	-0.20122999
194	0x3fb374c8	1.4020014
195	0xbed24ed8	-0.41075778
196	0x3edda2cf	0.43288276
197	0x3dabaaa0	0.083821535
198	0x3f24ae94	0.64328885
199	0x3ef8730e	0.4852528
200	0xbf3a6320	-0.728075
201	0xbd2a8b6b	-0.041636866
202	0xbd96a5b4	-0.07355824
203	0x3e90bb91	0.28268102
204	0x3dcc694b	0.099810205
205	0xbfe79260	-1.8091545
206	0xbf0bf9df	-0.5467815
207	0x3f3b92c2	0.7327081
208	0x3e11b7d7	0.14230286
209	0xbe484a0e	-0.195595
210	0x3e81b6de	0.2533483
211	0x3f3fb5d3	0.74886817
212	0x3f9b4199	1.2129394
213	0x3fc56657	1.5421857
214	0xbec3043b	-0.38089165
215	0xbf0eb2bb	-0.5574147
216	0xbf151e3d	-0.58249265
217	0xbf91c8b3	-1.1389374
218	0x3ed6fdcf	0.41990516
219	0x3b837e5f	0.0040128673
220	0xbf0c35cd	-0.54769593
221	0xbf4fa5af	-0.8111219
222	0xbe13e5c3	-0.14443116
223	0x3f154b71	0.5831824
224	0x3ef15f38	0.4714296
225	0x3d7f0b27	0.062266495
226	0x3e4cdee3	0.200069
227	0x3e7438de	0.23849818
228	0xbf2f59e9	-0.68496567
229	0x3df5c635	0.120006956
230	0xbee99b09	-0.45626095
231	0xbf03f5ab	-0.51546735
232	0xbdf6d81e	-0.1205294
233	0x40166339	2.349806
234	0xbf378b06	-0.7169651
235	0x3f04e2ba	0.5190846
236	0xbccca9b1	-0.024983259
237	0xbf0069f5	-0.5016168
238	0xbfa7d5b4	-1.3112092
239	0x3f28d528	0.6595025
240	0x3f654d90	0.89571476
241	0xbeb0b77d	-0.3451499
242	0xbfc4a7c6	-1.53637
243	0x3d967e3b	0.07348295
244	0xbf1b5fad	-0.60692865
245	0xbdeff288	-0.11716181
246	0x3e4522a6	0.19251499
247	0xbdb2a9d7	-0.08723801
248	0x3f46da25	0.7767661
249	0x3c9475c1	0.018122556
250	0x3dc5e5d8	0.0966298
251	0xbe1fbde7	-0.15599786
252	0xbef23e87	-0.4731333
253	0x3e5b39c9	0.21408762
254	0xbecc88ca	-0.39948112
255	0xbb423ef0	-0.0029639564

input_embeddings.embeddings.cluster.weight f4 [15, 7]
0	0x3f0ae087	0.5424885
1	0x3f29e98d	0.66371995
2	0x3f1029e4	0.5631392
3	0xbe158803	-0.14602666
4	0xbef5b589	-0.47990063
5	0xbfb0d5fa	-1.38153
6	0xbe3315c7	-0.17488776
7	0x3e97312a	0.29529697
8	0x3ec33127	0.38123438
9	0xbacf9614	-0.0015837573
10	0xbe9bda0a	-0.30439788
11	0xbeb02ca7	-0.34409067
12	0xbf3d5da6	-0.7397102
13	0x3fb75692	1.4323294
14	0xbe833210	-0.25624132
15	0xbeb240c6	-0.34815043
16	0x3fbf273a	1.4933846
17	0xbe0b4323	-0.1359983
18	0x3ecb22fd	0.3967513
19	0x3e88cd8d	0.26719323
20	0xbf2e5571	-0.68099123
21	0x3f378a14	0.71695065
22	0x3f720fb9	0.9455524
23	0xbe8c63eb	-0.2741998
24	0x3fcc5a19	1.5964996
25	0x3cf0886e	0.02936193
26	0x3f47be38	0.78024626
27	0xbe453cff	-0.1926155
28	0xc003125f	-2.0479963
29	0xbf953940	-1.1658096
30	0x3ebfb315	0.37441316
31	0xbf33e0be	-0.70264804
32	0xbe482970	-0.19547057
33	0x3f00ff22	0.503893
34	0xbea9d954	-0.3317362
35	0xbe696562	-0.2279258
36	0xbe90aea8	-0.28258252
37	0xbebf8cac	-0.37412012
38	0x3f213ec5	0.62986404
39	0x3f02e2be	0.5112723
40	0x3fa69095	1.3012873
41	0x3f18f4e8	0.597487
42	0x3ece26a4	0.40263855
43	0x3f0e1daf	0.55514044
44	0x3dcc8def	0.09988009
45	0x3ef2718e	0.4735226
46	0x3e4c0566	0.19923934
47	0xbf6ab630	-0.91684246
48	0xbec3972b	-0.3820127
49	0xbd1269ca	-0.03574542
50	0x3f2b910c	0.670182
51	0x3f5cb890	0.8621912
52	0xbf24a7ce	-0.6431855
53	0xbec3350c	-0.3812641
54	0xbde01b08	-0.10942656
55	0x3da4ca74	0.08046427
56	0x3eac8cb8	0.3370111
57	0xbdfc6f16	-0.123258755
58	0xbfd63a93	-1.6736625
59	0x3ebb9063	0.36633596
60	0x3ecd5f5a	0.4011181
61	0x3f228e60	0.63498497
62	0xbee5ced3	-0.44884357
63	0x3f6c4d54	0.92305493
64	0x3c341f89	0.010993847
65	0xbf12218c	-0.5708244
66	0x3ebee4b0	0.3728385
67	0x3e7268fd	0.23672862
68	0xbf97b869	-1.1853153
69	0x3f0fe70e	0.56211936
70	0xbef2b3ae	-0.4740271
71	0xbea48db0	-0.3213935
72	0x3facdb19	1.3504363
73	0x3c87f3d5	0.01659576
74	0xbf45ab19	-0.772142
75	0x3e4d876e	0.20071194
76	0x3dbd4a88	0.09242731
77	0x3e2b98be	0.16757485
78	0xbc72cb47	-0.014818973
79	0xbf98ab83	-1.1927341
80	0x3d27574d	0.04085474
81	0x3f59e5c2	0.8511621
82	0x3ea45a2b	0.32100043
83	0x3eb3b093	0.35095653
84	0x3efabfb6	0.4897439
85	0x3ecc6929	0.3992398
86	0xbf1f42ea	-0.6221148
87	0xbedcec8c	-0.4314922
88	0x3e584140	0.21118641
89	0x3edd27fb	0.43194565
90	0x3f8f709d	1.1206242
91	0xbe4e43c7	-0.20143043
92	0x3df75a6b	0.12077793
93	0x3f7c989d	0.9867037
94	0xbe4b3024	-0.19842583
95	0xbf2185d1	-0.6309481
96	0x3e448c3d	0.19194122
97	0xbf88b378	-1.067977
98	0xbe61fab2	-0.22068289
99	0xbe527966	-0.20554122
100	0x3e98f9a3	0.29877958
101	0x3fa25940	1.2683487
102	0xbfd004ab	-1.6251425
103	0x3e654208	0.2238847
104	0x3e833e41	0.25633433

input_embeddings.embeddings.weekday.weight f4 [7, 5]
0	0x3f6ebe6a	0.932593
1	0x3e95de8a	0.29271346
2	0xbeea2312	-0.45729882
3	0xbfb0f828	-1.3825731
4	0xbe898637	-0.2686021
5	0x3e1e1f68	0.15441668
6	0x3d3be01e	0.04586803
7	0x3f877553	1.058268
8	0xbf38181f	-0.71911806
9	0xbf8c27ed	-1.0949684
10	0x3f88deb6	1.0692966
11	0xbf2d36ac	-0.6766155
12	0xbf8ea282	-1.1143343
13	0xbd19c795	-0.037543852
14	0xbe9c1cf4	-0.3049084
15	0xbefa5e79	-0.48900202
16	0xbf80869f	-1.0041083
17	0x3f2da082	0.6782304
18	0xbf374a0b	-0.71597356
19	0x3e68a034	0.22717363
20	0xbe866def	-0.26255748
21	0xbf9f1f9b	-1.243152
22	0xbe3d9400	-0.18513489
23	0x3ddfb4f5	0.10923187
24	0x3f98c6e8	1.1935701
25	0x3ea8f367	0.329982
26	0x3eafe56b	0.3435472
27	0x3eebe7df	0.4607534
28	0x3fba0e51	1.4535619
29	0xbf2045b1	-0.6260634
30	0xbeab58b1	-0.33466104
31	0x3fa77deb	1.3085302
32	0x3b588464	0.0033037895
33	0x3e346dae	0.17619964
34	0x3f4197c2	0.7562219

input_embeddings.embeddings.onpromotion.weight f4 [2, 1]
0	0xbec3516b	-0.38148054
1	0x4005a924	2.0884485

prescalers.time_idx.weight f4 [8, 1]
0	0xbf8ce7a6	-1.1008193
1	0x3d40ec78	0.047100514
2	0x3f955cac	1.1668906
3	0x3ea27fde	0.3173818
4	0x3f6de1ba	0.92922556
5	0x3fa240c3	1.2676014
6	0x3d9564ea	0.072946385
7	0x3cbd5884	0.023113497

prescalers.time_idx.bias f4 [8]
0	0xbea51346	-0.32241267
1	0xbddc7f2d	-0.10766444
2	0xbeb990c3	-0.36243257
3	0xbeec0f10	-0.46105242
4	0xbf31dd93	-0.6947872
5	0x3d0872e7	0.033312704
6	0xbd3128cd	-0.0432518
7	0xbc3871d9	-0.011257612

prescalers.doy_sine.weight f4 [8, 1]
0	0x3f1912d8	0.5979438
1	0x3fffa499	1.9972106
2	0x3da40526	0.080087945
3	0x3f5534df	0.832838
4	0xbf84f8ba	-1.0388405
5	0xbf68e4f3	-0.9097435
6	0xbf9a2480	-1.2042389
7	0xbe238c2b	-0.15971439

prescalers.doy_sine.bias f4 [8]
0	0x3d101579	0.035176728
1	0xbe52aa7e	-0.2057285
2	0xbdcb8d34	-0.09939042
3	0xbdb49db4	-0.08819142
4	0xbef2863d	-0.4736804
5	0xbdfd7662	-0.12376095
6	0xbe8fd494	-0.28091872
7	0x3b545b2e	0.003240298

prescalers.doy_cosine.weight f4 [8, 1]
0	0x3f8cb3c3	1.0992359
1	0x3bdbebd0	0.0067114606
2	0xbf055458	-0.52081823
3	0x3fb09b7d	1.3797451
4	0x3f8f1a30	1.1179867
5	0x3c6da6c6	0.014505094
6	0x3fec7659	1.8473617
7	0x3d3d165e	0.04616391

prescalers.doy_cosine.bias f4 [8]
0	0x3f138e6d	0.576392
1	0x3d1a5ac4	0.037684217
2	0xbe9b859f	-0.30375382
3	0x3e857c00	0.26071167
4	0x3f07be6f	0.53024954
5	0x3c46cd84	0.01213396
6	0x3dda9e07	0.106746726
7	0x39e403e7	0.00043490456

prescalers.relative_time_idx.weight f4 [8, 1]
0	0x3fddea59	1.7337142
1	0x3fc94506	1.5724189
2	0xbfaf62b7	-1.3702
3	0xbfb3c63d	-1.4044873
4	0xbc9ac81d	-0.01889425
5	0x3fc9eb35	1.5774904
6	0x3f9210d8	1.141139
7	0xbfd5e05d	-1.6709095

prescalers.relative_time_idx.bias f4 [8]
0	0x3dab10f5	0.08352844
1	0x3da2dd76	0.079523966
2	0xbeb06611	-0.3445287
3	0xbe64317f	-0.22284506
4	0xbc7959f0	-0.015219197
5	0x3eac6134	0.3366791
6	0x3f1ceb18	0.61296225
7	0xbf105b50	-0.5638933

prescalers.sales.weight f4 [8, 1]
0	0x3f30e02f	0.69092077
1	0xbf6cd4ce	-0.92512214
2	0x3ecbfe18	0.39842296
3	0x3e0b52b9	0.13605775
4	0x3e8bb95d	0.27289858
5	0x3f5bcfe4	0.8586409
6	0x3a97da1c	0.0011585387
7	0x3f128aff	0.5724334

prescalers.sales.bias f4 [8]
0	0xbfcff23c	-1.6245799
1	0xbe6be0ce	-0.23034975
2	0x3fcafb98	1.585803
3	0x3e9724f4	0.2952038
4	0xbe1e59f3	-0.15464
5	0xbec347e5	-0.3814079
6	0x3c89ab2e	0.016805258
7	0xbf399cc6	-0.7250484

prescalers.dcoilwtico.weight f4 [8, 1]
0	0x3ec072c2	0.37587553
1	0x3ea81b2a	0.32833225
2	0x3ca31af5	0.019910315
3	0xbd8a63d4	-0.06757322
4	0x3e6a2fe0	0.22869825
5	0xbe527776	-0.20553383
6	0xbe8f3d0e	-0.2797627
7	0x3d8f6798	0.07002181

prescalers.dcoilwtico.bias f4 [8]
0	0x3dc253cb	0.094886385
1	0x3c6af282	0.014340045
2	0x3e275446	0.16340742
3	0xbd0192f6	-0.031634293
4	0x3d9f1924	0.07768467
5	0xbdea538d	-0.11441717
6	0xbded81ba	-0.11597009
7	0x3c832f6b	0.016013822

static_variable_selection.flattened_grn.resample_norm.mask f4 [3]
0	0x3fceb892	1.6150076
1	0x3f869072	1.0512831
2	0xbe7492b0	-0.23884082

static_variable_selection.flattened_grn.resample_norm.norm.weight f4 [3]
0	0x3ffcd3a4	1.9752088
1	0x401f7592	2.491551
2	0x408c4493	4.383371

static_variable_selection.flattened_grn.resample_norm.norm.bias f4 [3]
0	0x3e310e10	0.1729052
1	0xbf0dca36	-0.55386674
2	0xbd02f030	-0.031967342

static_variable_selection.flattened_grn.fc1.weight f4 [3, 49]
0	0xbf72357e	-0.9461287
1	0x3f4919dd	0.7855509
2	0xbedb3436	-0.4281327
3	0x3fa4a338	1.286231
4	0x3fd3451b	1.6505464
5	0x3f04e14b	0.5190627
6	0xbeafc571	-0.34330323
7	0xbe8c1ad2	-0.27364212
8	0x3ea7c246	0.32765406
9	0xbe1b3282	-0.15155986
10	0xbdba19c1	-0.090869434
11	0x3e200697	0.15627514
12	0x3fa4ccc4	1.287499
13	0x3dacf5ba	0.08445306
14	0xbf053c7f	-0.52045435
15	0xbee3c5f1	-0.44486955
16	0xbe1e878e	-0.15481398
17	0x3d646f22	0.055770047
18	0xba79ce17	-0.0009529306
19	0x3db0be16	0.08630006
20	0x3f17fbcd	0.5936859
21	0x3f99d75b	1.2018846
22	0x3f273cf7	0.653274
23	0x3f87f927	1.062291
24	0x3f0b7587	0.5447621
25	0xbf013a69	-0.5047975
26	0xbf3aa950	-0.729146
27	0xbfe58f2e	-1.793432
28	0xbf6eb3f3	-0.9324333
29	0xbe2e0fd6	-0.16998228
30	0x3f1bb6ae	0.6082562
31	0xbf63a608	-0.8892522
32	0x3e78a8e1	0.24283172
33	0xbefa928a	-0.48939925
34	0xbe406c4d	-0.18791313
35	0xbcd291a1	-0.025704207
36	0xbe186f0c	-0.14886111
37	0xbdd13b63	-0.10216405
38	0x3f903426	1.1265914
39	0xbf006393	-0.5015194
40	0xbf15c7f3	-0.58508223
41	0x3e20eeea	0.15716138
42	0xbf144b35	-0.57927257
43	0xbec967e6	-0.3933708
44	0x3d2def2a	0.042464413
45	0xbea7f632	-0.3280502
46	0xbe1f0fd8	-0.15533388
47	0x3d957a76	0.07298748
48	0x3ec85d0b	0.39133486
49	0xbfb6cd85	-1.428147
50	0x3ec66597	0.38749382
51	0xbf0cc05b	-0.5498101
52	0x3fbe793e	1.488075
53	0x3ffd4744	1.9787374
54	0x3f88a052	1.0673926
55	0xbd8c6a91	-0.068562634
56	0xbc714316	-0.014725467
57	0x3e371089	0.17877401
58	0xbd0a26ab	-0.033728283
59	0xbe278067	-0.16357575
60	0xbdd3eaf3	-0.103475474
61	0x3fa9aa0f	1.3255023
62	0xbe8e2d7b	-0.27769074
63	0xbf3ba22f	-0.7329435
64	0xbf3e40e3	-0.7431776
65	0xbefd9387	-0.49526617
66	0x3e641240	0.22272587
67	0x3e283b12	0.16428784
68	0x3e4fb3fa	0.202835
69	0x3f72bfc0	0.9482384
70	0x3f689cc1	0.9086419
71	0x3f2b9148	0.67018557
72	0x3f94b8cb	1.1618894
73	0x3f2eea77	0.68326515
74	0xbeee3f7b	-0.46532807
75	0xbf3445c6	-0.70418966
76	0xc0159a93	-2.3375595
77	0xbf542015	-0.82861453
78	0xbeb65435	-0.3561112
79	0x3f45663c	0.7710912
80	0xbf6ace7c	-0.9172132
81	0xbe0bf993	-0.13669424
82	0xbefcf84b	-0.49408183
83	0xbdd79553	-0.10526528
84	0xbea3d082	-0.31995016
85	0xbc67deb3	-0.014152217
86	0x3b4bd3d6	0.0031101606
87	0x3f39506e	0.7238835
88	0xbebf424a	-0.37355262
89	0xbeef15d3	-0.46696338
90	0x3dfad223	0.12247112
91	0xbec46755	-0.38360086
92	0xbe636cff	-0.22209547
93	0xbe7d9f92	-0.24767902
94	0x3e49ecf1	0.19719292
95	0xbd33c169	-0.043885622
96	0x3e28c68d	0.16481991
97	0x3ebd486c	0.36969316
98	0xbf1bf5dc	-0.60922027
99	0x3df60ca5	0.120141305
100	0x3f15ecf7	0.58564705
101	0xbee00b52	-0.43758637
102	0xbf3b5625	-0.7317832
103	0xbf49c44a	-0.7881514
104	0xbf57ea95	-0.8434232
105	0xbf335c5a	-0.7006279
106	0xbe098df7	-0.13433062
107	0x3e3f30da	0.18670979
108	0x3eb3a288	0.3508494
109	0x3e97ddeb	0.29661497
110	0xbf5ccbe0	-0.8624859
111	0x3d288378	0.041141003
112	0x3e810f78	0.25207114
113	0x3e159459	0.14607371
114	0xbd6c4f6d	-0.057692934
115	0xbdaaf410	-0.083473325
116	0xbe9a08c9	-0.30084828
117	0x3d842128	0.064516366
118	0xbe415c1b	-0.18882792
119	0xbdeed579	-0.116618104
120	0xbd7c171b	-0.061545473
121	0xbe8e0c29	-0.27743652
122	0xbe059654	-0.13045627
123	0xbef017aa	-0.46893054
124	0xbf07202a	-0.52783453
125	0x3ec3252e	0.38114303
126	0x3d49a1f3	0.049226712
127	0xbdbe32bb	-0.0928702
128	0x3dc91372	0.09818162
129	0x3e8d907d	0.27649298
130	0xbf60805a	-0.8769585
131	0xbe9e6a83	-0.30940637
132	0x3e8b71af	0.2723517
133	0xbe484734	-0.19558412
134	0x3ea878aa	0.3290456
135	0x3e415588	0.18880284
136	0xbec3c500	-0.38236237
137	0x3dad9e8c	0.08477506
138	0x3df16f33	0.11788788
139	0xbea100df	-0.31445977
140	0x3f016e4e	0.50558937
141	0x3f38f4d0	0.72248554
142	0xbeba7f89	-0.36425427
143	0x3fb26dab	1.3939718
144	0x3d515032	0.05110187
145	0xbdfdcf37	-0.12393039
146	0x3cd823b8	0.02638422

static_variable_selection.flattened_grn.fc1.bias f4 [3]
0	0xbdcda095	-0.10040394
1	0x3e08ece3	0.13371615
2	0x3d81b9f8	0.06334299

static_variable_selection.flattened_grn.fc2.weight f4 [3, 3]
0	0x3ef738b5	0.48285452
1	0x3f1db6f6	0.616073
2	0x3d32b027	0.043625023
3	0x3f757f17	0.9589705
4	0x3f69dd75	0.9135354
5	0x3e0bbd90	0.13646531
6	0xbe8c3431	-0.2738357
7	0x3ee54090	0.4477582
8	0xbe48db43	-0.19614892

static_variable_selection.flattened_grn.fc2.bias f4 [3]
0	0xbd95f215	-0.07321564
1	0xbf2d1dc6	-0.67623556
2	0x3ec77477	0.38956043

static_variable_selection.flattened_grn.gate_norm.glu.fc.weight f4 [6, 3]
0	0xbc65f4a8	-0.014035381
1	0x3d0f4863	0.034981143
2	0x3e42e71c	0.19033474
3	0xbec94c04	-0.39315808
4	0xbe9cbc8a	-0.30612594
5	0xbedcd0d8	-0.43128085
6	0x3f31cc85	0.694527
7	0x3f82749c	1.0191836
8	0x3eb4e62b	0.35331854
9	0xbe5da9a3	-0.21646743
10	0xbe78eb45	-0.24308498
11	0xbdf022a2	-0.11725356
12	0x3f0156a3	0.5052282
13	0x3f1a5678	0.6028819
14	0x3eec6167	0.46168062
15	0x3f11ef43	0.5700571
16	0x3f4cff05	0.8007663
17	0xbdda9f9d	-0.10674975

static_variable_selection.flattened_grn.gate_norm.glu.fc.bias f4 [6]
0	0x3cded56b	0.027201375
1	0xbff62231	-1.9229184
2	0x3f9647e1	1.1740686
3	0xc0af6869	-5.4814954
4	0xbefe732b	-0.4969724
5	0xbf4124c0	-0.754467

static_variable_selection.flattened_grn.gate_norm.add_norm.norm.weight f4 [3]
0	0x3eaba434	0.33523715
1	0x3b858169	0.004074265
2	0xbcd75e52	-0.026290093

static_variable_selection.flattened_grn.gate_norm.add_norm.norm.bias f4 [3]
0	0x3f40f889	0.75379235
1	0x3aeff3a8	0.0018306868
2	0xbf2b0b14	-0.6681378

static_variable_selection.single_variable_grns.art.mask f4 [32]
0	0xc01fcb83	-2.4967964
1	0xbd5dd7a7	-0.05416074
2	0x401e0e30	2.469616
3	0xbfc837f3	-1.5642074
4	0x3f391145	0.72291976
5	0x3cc22d48	0.023703232
6	0xbdc4b7c4	-0.09605363
7	0x3fc681fc	1.5508418
8	0xc03e8046	-2.9765792
9	0xbf2eb651	-0.6824694
10	0x3fd11b8e	1.6336534
11	0xc00c2b13	-2.190129
12	0x3f8b9848	1.0905848
13	0xbf93871f	-1.1525611
14	0xbfa40b63	-1.2815975
15	0xbec36fb3	-0.38171157
16	0xbc16a18d	-0.00919379
17	0x3ff6942b	1.9263967
18	0xc014b267	-2.3233888
19	0x4009fe39	2.1561415
20	0x3fa05889	1.2527019
21	0xbf0670db	-0.52515954
22	0x3ffd54e8	1.9791536
23	0x3fc42c3c	1.5325999
24	0x407cea79	3.951811
25	0x3f93db16	1.1551235
26	0x3d9ca0b5	0.0764784
27	0xc06f9c8d	-3.74393
28	0xbf9f4a9e	-1.2444646
29	0xbff18141	-1.886757
30	0x3fff2211	1.9932271
31	0xbfaf901c	-1.3715854

static_variable_selection.single_variable_grns.art.norm.weight f4 [32]
0	0x3f56db13	0.8392803
1	0x400676c9	2.101
2	0x40144759	2.3168547
3	0x3f0fb156	0.5612997
4	0x3fa9f1b2	1.3276885
5	0x3fcfd552	1.6236975
6	0x401d780c	2.460452
7	0x408ad8c9	4.338963
8	0xbea5c93f	-0.323801
9	0x3fba795f	1.456829
10	0x40483105	3.127992
11	0xbf3a6b70	-0.72820187
12	0x406352a4	3.551919
13	0x3faa0519	1.3282806
14	0x3f82ebc3	1.0228199
15	0x3fa2d633	1.2721618
16	0x3f970c5e	1.1800649
17	0x4053c72d	3.3090317
18	0x3ff05f59	1.8779098
19	0x405cfa97	3.4527948
20	0x3fd835df	1.689144
21	0x402284de	2.5393596
22	0x4094bc3a	4.647977
23	0x3ffe289b	1.9856142
24	0x40697246	3.6475997
25	0x400f3745	2.2377484
26	0x3fcf8d74	1.6215043
27	0x3e3024be	0.17201516
28	0x3fdcbe1b	1.7245516
29	0x3f8e249b	1.1104921
30	0x4046983a	3.1030412
31	0x3fa12cfe	1.2591856

static_variable_selection.single_variable_grns.art.norm.bias f4 [32]
0	0x3e70085b	0.23440687
1	0xbf267541	-0.65022665
2	0xbf304814	-0.6885998
3	0x3ee2596b	0.44208845
4	0x3fa6454e	1.29899
5	0x3f82f9d0	1.0232487
6	0x3f234c5c	0.6378839
7	0xbf0d3cf6	-0.55171144
8	0xbfb3d06e	-1.4047983
9	0xbebd0de2	-0.36924654
10	0xbda1355c	-0.078715056
11	0xbeaa4205	-0.33253494
12	0x3f98d987	1.1941384
13	0x3f0dac2e	0.5534085
14	0xbe0f6689	-0.14003958
15	0xbf2f8e64	-0.68576646
16	0xbf71b2a0	-0.94413185
17	0xbf8e07a3	-1.109608
18	0x3d6354d7	0.05550083
19	0x3f34806b	0.7050845
20	0x3f77f082	0.9685136
21	0x3f235623	0.6380331
22	0x3f7ab210	0.9792795
23	0xbfa4961f	-1.2858313
24	0xbfecbc40	-1.8494949
25	0x3e8b7b54	0.2724253
26	0x3f80a311	1.0049764
27	0x3f26d66d	0.6517094
28	0x3e441686	0.19149217
29	0x3e040336	0.1289185
30	0xbfab909c	-1.3403506
31	0xbf8a62e9	-1.0811435

static_variable_selection.single_variable_grns.pos.mask f4 [32]
0	0x40276415	2.6154835
1	0x3f577a6e	0.8417119
2	0x3fb1ff50	1.390604
3	0x4091b157	4.552898
4	0x3fc4ec1d	1.5384556
5	0x3ed17f93	0.40917644
6	0xc054996f	-3.3218648
7	0xc070085d	-3.7505105
8	0x3fc7a373	1.5596756
9	0xbf1ad039	-0.6047397
10	0x3fef94d0	1.8717289
11	0x3feb9ef3	1.8407882
12	0x3f728121	0.94728285
13	0x3fab1af2	1.3367598
14	0xc03255c2	-2.7864842
15	0xbf2fba84	-0.68643975
16	0xbc290f44	-0.010318581
17	0xc06b76e4	-3.6791315
18	0xbe412ec5	-0.18865497
19	0xbf161b8b	-0.5863578
20	0xbe8df679	-0.27727106
21	0x3fade831	1.3586484
22	0xbf9e6f12	-1.2377646
23	0x3eb04144	0.34424794
24	0xbe9cb164	-0.30604088
25	0xbfffbbba	-1.9979165
26	0x3f3456c7	0.7044491
27	0xc080eefd	-4.0291734
28	0xbefd4d70	-0.49473143
29	0xbe1eece5	-0.15520056
30	0xc014c233	-2.324353
31	0x3fbc6a47	1.4719933

static_variable_selection.single_variable_grns.pos.norm.weight f4 [32]
0	0x4015db97	2.3415277
1	0x4004e34a	2.0763726
2	0x3fe6cd89	1.8031474
3	0x409211da	4.564679
4	0x408031ae	4.0060644
5	0x4072c978	3.7935467
6	0x3f8a4e8b	1.080522
7	0x3e7465a3	0.23866896
8	0x40435dc9	3.0525992
9	0x3f6c76a1	0.92368513
10	0x40009265	2.0089352
11	0x3fbdd8cb	1.4831785
12	0x3fc42482	1.5323641
13	0x40532d10	3.2996254
14	0x3f583b95	0.84465915
15	0x404b5b66	3.1774535
16	0x4058c594	3.3870592
17	0x3f523464	0.8211119
18	0x409707d3	4.719705
19	0x40680e3d	3.625869
20	0x40355043	2.8330238
21	0x4016b55b	2.354819
22	0xbf294629	-0.6612268
23	0x3fbedb40	1.491066
24	0x3f79be80	0.97556305
25	0x3d6e14fe	0.05812549
26	0x40523eaf	3.285076
27	0xbdc26d1e	-0.09493469
28	0x402e299b	2.7212894
29	0x400ed804	2.2319345
30	0x3f2c4bc7	0.6730313
31	0x40820a74	4.063776

static_variable_selection.single_variable_grns.pos.norm.bias f4 [32]
0	0xbde9e29e	-0.11420177
1	0xbec970e0	-0.3934393
2	0xbf3fb159	-0.74879986
3	0x3f935b5c	1.1512256
4	0x3fa71177	1.3052205
5	0x3f9d318d	1.2280747
6	0x3f6c4540	0.9229317
7	0x3eb9026e	0.36134666
8	0xbe9fbf92	-0.31200844
9	0xbee10924	-0.43952286
10	0xbee7d1c6	-0.45277232
11	0xbf000bb8	-0.5001788
12	0xbd38b5b1	-0.04509515
13	0x3f2dbffd	0.67871076
14	0x3e8fb832	0.28070217
15	0xbe4c6c13	-0.19963102
16	0x3d4bfd01	0.04980183
17	0xbec81f63	-0.39086446
18	0xbe4bfaea	-0.19919935
19	0x3dac5027	0.08413725
20	0x3ed3431d	0.4126214
21	0xbd29fd50	-0.041501343
22	0x3fc6f019	1.5542022
23	0xbd7f0903	-0.062264454
24	0xbfcc6f78	-1.5971518
25	0xbedbedfd	-0.42955008
26	0x3ecfbc04	0.40573132
27	0xbd2d3aa9	-0.04229227
28	0xbda3cf5f	-0.07998537
29	0xbe6467dc	-0.22305244
30	0xbf970dbc	-1.1801066
31	0xbf37b1d8	-0.71755743

static_variable_selection.single_variable_grns.cluster.mask f4 [32]
0	0xc0131080	-2.297882
1	0xbf971983	-1.180466
2	0xc03447f3	-2.8168914
3	0x403a6c6a	2.912867
4	0xbe4a06c0	-0.19729137
5	0xbfcd77c3	-1.6052173
6	0xc019eb6f	-2.4049947
7	0xc0123e6f	-2.2850606
8	0xc00f440d	-2.2385285
9	0x4027f307	2.6242082
10	0xbfd05da8	-1.6278582
11	0x4044c332	3.0744138
12	0xbfe1cc59	-1.7640487
13	0x3eb8ad8d	0.3606991
14	0x3d6d3b28	0.057917744
15	0xbf618ccd	-0.8810547
16	0x3f69b649	0.9129377
17	0x3e8955fa	0.26823407
18	0x40230f38	2.5478039
19	0xc00816df	-2.126396
20	0x3fcf1dd7	1.6180981
21	0xc00987df	-2.148918
22	0xc068c98f	-3.6373022
23	0xc03bd4a1	-2.9348528
24	0xc07aacf8	-3.9168072
25	0xc058dd9a	-3.3885255
26	0x40050c7e	2.0788875
27	0x3fc247f7	1.5178212
28	0xbfcaa08c	-1.5830245
29	0x3fa28f01	1.2699891
30	0xbf7d498e	-0.9894036
31	0x3fb09b2a	1.3797352

static_variable_selection.single_variable_grns.cluster.norm.weight f4 [32]
0	0x3fad5e25	1.3544356
1	0x3eaa4c42	0.33261305
2	0x3f925247	1.1431359
3	0x402d3460	2.7063217
4	0x3f86daa3	1.0535473
5	0x3e0d3ff0	0.13793921
6	0xbf27ac68	-0.65497446
7	0x3e6013cc	0.21882552
8	0xbee87c27	-0.4540722
9	0x408e1ccf	4.4410167
10	0x3ff5792e	1.9177606
11	0x40810e76	4.0330153
12	0x3f351332	0.70732415
13	0x40110902	2.2661748
14	0x400195ff	2.02478
15	0x3e51dd79	0.20494641
16	0x3f0d0d04	0.55097985
17	0xbfb42eb4	-1.4076753
18	0x403630ff	2.8467405
19	0x3f67951d	0.90461904
20	0x406a5d94	3.6619616
21	0x3f872801	1.0559083
22	0xc0208464	-2.5080805
23	0xbf06c3ad	-0.5264233
24	0x3fe8777a	1.8161461
25	0x3ea607d2	0.3242784
26	0x40517187	3.2725542
27	0x4032b7b1	2.7924616
28	0x3f2bfdb1	0.6718398
29	0x40402b33	3.0026367
30	0x3febef49	1.8432399
31	0x407db39d	3.9640877

static_variable_selection.single_variable_grns.cluster.norm.bias f4 [32]
0	0x3d728d37	0.059216704
1	0xbf330934	-0.6993592
2	0xbeaf71ca	-0.34266502
3	0x3f26c3c5	0.6514247
4	0x3ece111d	0.4024743
5	0x3eed76c1	0.46379665
6	0x3f4967bc	0.7867391
7	0x3ef8b551	0.48575833
8	0xbf370353	-0.7148945
9	0xbf2f1f3a	-0.6840702
10	0xbd5babdc	-0.053630695
11	0xbed0c563	-0.40775594
12	0xbd7ffd12	-0.062497206
13	0xbdbf6052	-0.093445435
14	0xbe982a72	-0.29719883
15	0xbc205918	-0.009786867
16	0x3e92216d	0.28541127
17	0xbe06e795	-0.13174279
18	0x3df873fe	0.12131499
19	0xbe7c35d5	-0.2462991
20	0x3eb9ec2b	0.36312994
21	0x3f428e16	0.75998056
22	0x3fb52162	1.4150813
23	0xbd410a0c	-0.047128722
24	0xbf9419cb	-1.1570371
25	0xbf045569	-0.51692826
26	0x3e806f0e	0.25084728
27	0x3daae17d	0.0834379
28	0x3e766407	0.24061595
29	0xbdf8b057	-0.12143009
30	0xbf2e48dc	-0.68079925
31	0xbf0df62e	-0.55453765

encoder_variable_selection.flattened_grn.resample_norm.mask f4 [11]
0	0xc006168a	-2.0951257
1	0x3fcc0334	1.5938478
2	0x3fa20f6c	1.2660956
3	0x408c2bbe	4.3803396
4	0x409a8d98	4.8297844
5	0xbff63a3c	-1.9236522
6	0x3fd4473e	1.6584241
7	0xbf5e0b07	-0.86735576
8	0xc06b38bc	-3.6753378
9	0xbe849c53	-0.25900516
10	0xc0a2b403	-5.084474

encoder_variable_selection.flattened_grn.resample_norm.norm.weight f4 [11]
0	0x3fc95080	1.5727692
1	0x3f399028	0.7248559
2	0x400305be	2.0472255
3	0x4139a4dd	11.60275
4	0x409cdf56	4.9022627
5	0xc044cc47	-3.074968
6	0xc025f220	-2.5929031
7	0x4004347a	2.065703
8	0xc0b02e74	-5.5056705
9	0x3fa4988a	1.2859051
10	0xbfaeed55	-1.3666178

encoder_variable_selection.flattened_grn.resample_norm.norm.bias f4 [11]
0	0x3fdcef2b	1.7260488
1	0xbd34209d	-0.043976415
2	0x3e41880f	0.18899558
3	0x40976788	4.731388
4	0xc1046e5a	-8.276941
5	0x402c5848	2.6928883
6	0x401d8fa9	2.4618933
7	0x3fdc4e5a	1.7211411
8	0xbf86a713	-1.0519737
9	0xbed1145c	-0.40835845
10	0xc09a8ec5	-4.829928
