hnam_experiments/Fit_and_Predict/models/Favorita/TFT/lightning_logs/version_2/checkpoints/model-initial-val_loss=0.84.ckpt (torch, 633158 bytes, 305 tensors)

input_embeddings.embeddings.national_holiday.weight f4 [178, 29]
000000 25 cc 45 be 98 af 73 3e d6 92 4e 3d 82 44 31 3e
       -0.19316156 0.23797452 0.050433002 0.1731129
000010 de ca d4 3e 75 4b 21 3f 93 a0 45 3e 1d c6 75 c0
       0.41561025 0.63005763 0.19299535 -3.8402169
000020 dd 3c ac be e0 c7 6b be 1a d3 9e 3d da 78 80 3e
       -0.33640185 -0.23025465 0.07755108 0.25092202
000030 4e f4 58 3e e3 1c 86 3d dd da 84 3e 59 84 35 be
       0.21186945 0.065484785 0.2594823 -0.17726268
000040 12 76 70 be 4b 4c 17 be 6d e1 89 3f b4 3e f3 3e
       -0.2348254 -0.14775197 1.077192 0.47508776
000050 b6 11 c9 bd 94 5e 0d bf 65 ca fc 3c ee 9f 02 3e
       -0.09817831 -0.5522244 0.030858228 0.12756321
000060 43 3d 63 3d 73 c4 89 3d a9 3e 23 bd 23 3b 8c 3e
       0.055478346 0.06726923 -0.03985468 0.27388868
000070 af 6e 28 3e a9 85 7a be f5 63 2c 3f 6b 51 38 bd
       0.16448472 -0.2446505 0.6734002 -0.04499952
000080 d4 2c ff 3d ce bb 3b 3f b6 a0 63 3f df 00 b0 3e
       0.12459722 0.7333344 0.889171 0.34375665
000090 82 33 4e bd 2d 0a 37 bf a9 d3 a3 bf fb fe 8e bf
       -0.05034209 -0.714999 -1.2798969 -1.1171564
0000a0 94 86 db 3e fc 4e dd bd 64 dc 05 3f c6 4e c4 3f
       0.42876112 -0.10806081 0.52289414 1.533654
0000b0 49 9a c4 bd cb 40 9a be 03 35 8f 3e 52 1c 1a bf
       -0.0959974 -0.30127558 0.27970132 -0.60199463
0000c0 32 ad 9c 3d 6d 85 12 bf 11 bd 37 3f 10 e0 95 bf
       0.07650222 -0.5723484 0.7177287 -1.1709003
0000d0 04 10 77 3f 48 63 ae be 7c e7 43 3f 84 ee a5 3f
       0.9650881 -0.3406012 0.7652509 1.2963414
0000e0 2a 48 6d bf e7 81 b2 bf 9d 3b 82 be 83 9e 57 3f
       -0.9268824 -1.3945893 -0.25436106 0.84226245
0000f0 f6 82 3c 3f ee 7c 95 3f 2f 0e 69 3f e0 de ec 3f
       0.7363733 1.167875 0.9103727 1.8505516
000100 a3 5f 93 bf 4e d4 99 be a6 0c 5c bf b9 c6 70 be
       -1.1513561 -0.30044788 -0.859568 -0.23513307
000110 f2 d9 d0 be 0a da b7 3e 52 57 c1 3e 8d 66 b4 be
       -0.4079128 0.35908538 0.37761933 -0.3523449
000120 ce e4 49 3e 9c 0b bf 3e 7c b1 75 bf 14 a9 e9 3e
       0.19716188 0.37313545 -0.95973945 0.4563681
000130 20 93 84 bb 9c 40 a8 3d be 1a aa bf bd b0 4e 3e
       -0.004045859 0.08215448 -1.3289411 0.20184608
000140 7b 86 42 ba f7 95 2e be 0a 2e 97 be 38 0a 57 3f
       -0.0007420552 -0.17049395 -0.29527313 0.8399997
000150 07 22 2f 3f 54 df 8d 3f 6a e1 c9 3e b6 88 c5 bf
       0.68411297 1.1083779 0.3942979 -1.5432346
000160 77 33 f4 be 54 71 97 3f 9f 52 67 3e c5 21 5d bf
       -0.47695515 1.183146 0.22590111 -0.86379653
000170 95 cd 80 3f ea 58 91 bf ab 9d fb 3d f1 1d 38 3f
       1.0062739 -1.135526 0.12285932 0.71920687
000180 05 65 a2 be ea 78 96 bd c4 56 9a 3e d0 38 e0 be
       -0.31717697 -0.07347281 0.30144322 -0.43793344
000190 6e dc a8 3f 62 3a 9d 3e fe 03 e9 bd 0e dd f1 3e
       1.319227 0.30708605 -0.113777146 0.47238964
0001a0 bc f2 77 3e 11 aa a0 3f 8a db 8d 3f 23 e6 58 bf
       0.2421369 1.25519 1.1082623 -0.8472616
0001b0 70 b4 c1 be 6d 15 22 3e 83 d1 1a 3f 31 65 36 3e
       -0.37832975 0.15828486 0.6047594 0.17812039
0001c0 ab ea a1 3d 78 7c 2b 3d 3b d9 50 3f 6b 5a 3b 3e
       0.079060875 0.04186675 0.8158147 0.1829621
0001d0 f8 0f 4e 3f 5e cb 2f be 9f d5 ce 3e 2a 08 f8 3e
       0.80493116 -0.17167422 0.40397355 0.4844373
0001e0 02 1f 72 3f ac 26 84 3f 6a ce 18 bf e1 b8 4b 3f
       0.94578564 1.0324302 -0.5968996 0.7957898
0001f0 cc f6 44 3f f1 75 59 be 53 be 88 3f 0b ab 53 bf
       0.7693908 -0.21236397 1.0683082 -0.82682866
000200 d1 7b c7 3e 35 0e 43 3f e8 fe bf 3e ac 96 09 bf
       0.38961652 0.76193553 0.37499166 -0.5374553
000210 f2 45 fc be dc 93 26 3f e9 2f 96 3e f0 5b 9f 3b
       -0.49272114 0.65069366 0.29333428 0.0048632547
000220 9d b2 b0 bf 08 dd 32 3d 53 7a bb 3e bf 9b 9d 3f
       -1.3804508 0.043667823 0.36616763 1.2313155
000230 25 a7 4c bd 1f be 3c bf 29 4a b2 3e 46 bd 67 3f
       -0.04996409 -0.737276 0.34822205 0.90523183
000240 28 de 3a 3e 28 b0 27 bf 4e c2 a2 bf 11 8b eb 3e
       0.18248808 -0.6550317 -1.2715547 0.46004537
000250 f3 07 64 3d 66 81 47 bf 62 4d 6c bd a1 7a ba 3e
       0.055671643 -0.7793182 -0.057690986 0.36421683
000260 ec af 0a 3f da 82 bc 3e 51 9a 9a bf e3 8e a6 3e
       0.54174685 0.36818582 -1.2078344 0.3253089
000270 bc ed 33 be 4c d9 f4 3e 53 aa c0 be c2 f8 ca 3e
       -0.17571157 0.47822034 -0.37629947 0.39642912
000280 72 c5 c3 3e c5 6e 99 bd 01 86 2a 3f 4e 23 a0 3f
       0.38236576 -0.07491831 0.66610724 1.2510774
000290 58 24 61 3f e2 75 15 bf 85 e5 d2 3e aa 9c 62 3f
       0.8794608 -0.58383 0.41190735 0.885203
0002a0 31 45 85 3f 97 e7 02 3f 17 33 3d bd fc 9b 75 be
       1.041174 0.5113463 -0.0461913 -0.23985285
0002b0 73 2a c8 3e 9f ed a3 be 3b 58 c9 3e 47 c4 31 3d
       0.39094886 -0.32017228 0.39325127 0.043400075
0002c0 6d 74 cb 3e 5e 05 98 3f 61 43 ca be e4 0e 4a 3f
       0.39737263 1.1876638 -0.3950453 0.7892897
0002d0 61 36 28 bf db b3 3b 3f 11 de bc bf 41 0c e5 bd
       -0.65707976 0.7332131 -1.4755269 -0.11183978
0002e0 ca 88 93 bf 6b ec d5 3d 51 46 82 3f c7 a8 58 be
       -1.152612 0.10445484 1.0177709 -0.21158133
0002f0 dc 02 9a 3e 8a 19 c9 3e 5f 61 1a bf 5d 4c 6e 3f
       0.30080307 0.39277297 -0.60304826 0.9308527
000300 53 3d ca be aa 25 89 3f b7 f6 82 bf 82 2d e3 3d
       -0.39499912 1.0714619 -1.0231541 0.11092664
000310 73 3b 81 3f 4f 21 8e be ee 14 92 be 96 a5 e8 3f
       1.0096267 -0.27759787 -0.28531593 1.8175533
000320 3a 5d 93 3f d5 4f 07 3f 54 ec 67 be 07 71 3c 3f
       1.1512825 0.5285619 -0.22648746 0.73609966
000330 a9 c9 1f bf e1 a7 97 3e 92 b7 13 3f 96 31 b9 be
       -0.62417084 0.2962027 0.5770198 -0.36170644
000340 a5 2e 27 3e 1d fd 1b be c3 7e 01 3f 23 a3 ce 3e
       0.16326387 -0.15233274 0.5058405 0.40358838
000350 66 37 64 3f 4e 82 f1 be 44 7d 4b 3f 47 58 ce 3e
       0.8914703 -0.47169727 0.79488015 0.40301725
000360 ee 92 86 bd 05 5b d3 3e a4 6e 8c bf 12 12 cc be
       -0.06570993 0.4128038 -1.0971265 -0.39857537
000370 85 72 be bf 58 0e e2 3e fc 76 8b 3f ea 73 f6 be
       -1.4878699 0.44151568 1.0895686 -0.4813531
000380 1d fc 83 3f c0 73 ad bf 44 dc 34 bf c3 fb 58 3f
       1.0311314 -1.3550949 -0.706486 0.8475916
000390 1b 7c 41 bf 5b 98 18 be 3d c4 75 3f b0 65 d7 be
       -0.75579995 -0.14901869 0.9600256 -0.4206977
0003a0 4c 2d c0 3e 7a 45 26 3d cd 9e 3a 3f 59 62 cf 3f
       0.3753456 0.0405936 0.7289856 1.6201888
0003b0 2b 24 b8 3e 5e ac a6 bf 53 5b 05 3e 63 a9 d6 be
       0.35965094 -1.3021352 0.13023119 -0.41926107
0003c0 76 d5 70 3e bc fd 24 3f 48 fb 81 be b3 88 0e bf
       0.23518929 0.6444967 -0.25387025 -0.55677336
0003d0 e8 68 36 3f 6f fd f1 be cb ce 88 be 98 97 04 3f
       0.71253824 -0.47263667 -0.2672027 0.51793814
0003e0 d7 5a 26 bf a7 f4 2b bf 79 44 db 3d 21 9e 99 3f
       -0.6498236 -0.67170185 0.107064195 1.2001382
0003f0 c4 c2 76 3f 1e 97 8f be 46 39 58 be ec d7 14 bf
       0.9639094 -0.2804498 -0.21115598 -0.5814197

input_embeddings.embeddings.regional_holiday.weight f4 [19, 8]
000000 19 ff 43 3d 84 b7 c8 be 7d bc 9a 3c 58 a1 29 3d
       0.047850702 -0.3920251 0.018888706 0.041413635
000010 a1 bd de bc b2 63 12 3b 5b fd 8c bb 6b 4b 84 bb
       -0.027190031 0.0022337255 -0.0043026633 -0.004037311
000020 fc 28 6a 3e 6c 25 65 3e 33 57 5f 3e 02 58 d0 3d
       0.22867197 0.22377557 0.21810608 0.10173036
000030 72 8a c8 3d 8a 0e de bf cb dd 64 40 5d d7 d6 be
       0.09792031 -1.7348187 3.5760372 -0.41961184
000040 f7 b3 d6 be a7 1e 1d 3f 00 92 ef 3d 5c 36 27 bf
       -0.41934177 0.61374897 0.11697769 -0.6531732
000050 29 98 30 bf 18 cb 65 3f 37 1a 1f 3e c1 64 14 bd
       -0.6898218 0.8976302 0.15537344 -0.0362289
000060 df bb 70 3d 12 1b 07 be 15 99 b2 ba 49 9c 20 be
       0.058772918 -0.1319392 -0.0013625944 -0.15684618
000070 eb da db bd d8 40 c9 3d 8a 04 59 40 08 68 d6 bf
       -0.10735115 0.09826821 3.390902 -1.6750498
000080 ab e6 6c 3b 14 a5 e6 3d 12 ca e9 3d 25 76 4e 3e
       0.003614823 0.11261955 0.11415495 0.20162256
000090 37 0c 43 3e 8f 6d 87 3f a1 fd 4f c0 c9 65 51 be
       0.19047628 1.058031 -3.2498553 -0.20448984
0000a0 ed 2c 96 3e 5e c2 a9 3e f2 d2 39 3e f1 0a ac bc
       0.2933115 0.33156103 0.18146876 -0.021001311
0000b0 30 31 f6 bc 44 27 e9 be e7 11 19 40 f9 6c a2 bf
       -0.030052751 -0.4553777 2.3917177 -1.2689506
0000c0 7a 7f 03 bf 01 6d c4 bd fd 21 60 be 78 00 4f 3c
       -0.5136639 -0.09591103 -0.21887966 0.012634389
0000d0 28 3c 17 3e ad 24 3b 3f 8f 20 26 c0 87 b2 8d 3f
       0.14769042 0.7310284 -2.5957372 1.1070107
0000e0 d1 8a d4 3c 89 e7 c7 3b 41 81 76 bc 32 44 5e bd
       0.0259451 0.006100599 -0.015045465 -0.054264255
0000f0 85 ee 5c bd 51 c3 6c bf 05 cd 6a 40 f2 71 15 c0
       -0.053938407 -0.9248553 3.6687634 -2.3350797
000100 de a2 bc 3d c4 56 07 3d 54 ed 41 3d 98 ab 0e bd
       0.09210752 0.03304173 0.047345474 -0.034831613
000110 dd a0 86 bb 10 b2 b9 bf 4b 34 72 40 0d 81 13 c0
       -0.004108532 -1.4507465 3.7844417 -2.3047516
000120 50 13 89 3d 44 60 a1 3a ef 4c 61 3d 17 0a 18 3c
       0.06693137 0.0012312015 0.05500501 0.009279749
000130 9a c9 8b 3b 8e e9 31 bf 32 5a 4a 40 d5 ec 18 c0
       0.004265976 -0.69497 3.161755 -2.389455
000140 8f 16 f3 bc 0c 00 89 3b e4 e5 9d bc 37 03 fd bb
       -0.029673843 0.004180914 -0.01927466 -0.0077213305
000150 08 da f3 bc 1b e2 a1 be 09 71 56 40 ce 4c e6 bf
       -0.029767051 -0.31617817 3.350649 -1.7992189
000160 44 fd 92 3d 0d a1 82 bc 83 63 41 3c ef 90 85 bb
       0.07177213 -0.015945936 0.011803511 -0.0040761153
000170 62 b6 37 3c 62 3d 43 bf 71 a1 43 c0 5f 0d be 3f
       0.011212917 -0.7626554 -3.0567286 1.484783
000180 7a 8d 7f bc 1f f4 80 3b 2f dc 37 39 d7 b0 b9 3c
       -0.0155976955 0.0039353515 0.00017534265 0.022667332
000190 1c d2 d3 3c b5 3a 5b bc 26 db 3c 40 85 15 8c bf
       0.025857024 -0.013380696 2.9508758 -1.0944067
0001a0 12 b0 2a 3d e9 eb 1c bc 34 0c 8a bc b9 fd b9 bd
       0.04167182 -0.00957773 -0.016851522 -0.09081597
0001b0 3f 0c d1 bd d3 57 3c 3d c8 47 79 40 3b 89 24 c0
       -0.10207414 0.045982193 3.8950062 -2.570876
0001c0 f2 23 18 bf db 8a 1d c0 6b 28 8b bf cc 9f b8 3d
       -0.5942985 -2.4616 -1.087171 0.09014854
0001d0 3d 22 5d 3e 9d b1 4b bd eb a3 ed 3f 0c b7 94 3e
       0.21595092 -0.049729932 1.8565649 0.29045904
0001e0 90 b9 20 be 38 e2 06 3b 9c 8b 4c bd 88 2f c2 bb
       -0.15695786 0.0020581614 -0.04993783 -0.0059260763
0001f0 d2 bf 7b bd 56 08 7f 3f 7a 97 8d c0 a1 8c 33 40
       -0.06146223 0.99622095 -4.424741 2.8054583
000200 01 d1 c3 3e dc e3 69 3f 53 21 ed bd 16 29 26 bf
       0.38245395 0.9136331 -0.11578622 -0.6490644
000210 2f b4 05 3e 70 11 d3 bd cb bd 96 bf dd 86 05 3f
       0.13057016 -0.1030606 -1.177667 0.5215891
000220 93 03 b3 bf 22 b3 6e 3e 15 b0 94 3f 35 d5 55 3f
       -1.3985466 0.23310521 1.1616236 0.83528453
000230 11 a2 8a 3f 6a 32 5c 3f 0d 63 b7 bf d1 5c 28 40
       1.0830709 0.86014426 -1.4327103 2.630665
000240 7b 6f d2 3e 6f 1a a4 3e 33 d1 c1 3e 78 43 57 3e
       0.41100678 0.32051417 0.3785492 0.21021831
000250 56 9d 62 3e ee 3b da 3f f5 a9 1f 40 f0 0e b9 be
       0.22130331 1.7049539 2.4947484 -0.3614421

input_embeddings.embeddings.local_holiday.weight f4 [115, 23]
000000 fd ce 58 3e 24 54 95 bd e6 06 f0 bd 35 84 a8 3c
       0.2117271 -0.07291439 -0.11720066 0.020570854
000010 39 89 b9 bd ce 97 63 be 4f 19 81 be 64 0e 8c bc
       -0.09059376 -0.22225878 -0.2521462 -0.017096706
000020 a0 24 7c 3c bf 40 7d 40 84 85 2c 3f 3a f3 9e 3d
       0.015389591 3.9570768 0.6739123 0.077612355
000030 6a f8 03 bb 57 e6 2a 3c 5d 71 d6 3d f7 9d 7b 3d
       -0.002013708 0.010430894 0.10470841 0.061429944
000040 10 22 30 be 9b b4 9c bd 09 34 93 3d 62 11 9a bd
       -0.17200494 -0.07651635 0.07187659 -0.07522847
000050 05 36 2a 3a bb fe 46 be a4 c1 4c 3e 62 c7 12 bf
       0.0006493035 -0.1943311 0.19995743 -0.57335484
000060 64 9b 5b bf 5e 7e 0c bf c1 9f 16 3f 46 aa ac be
       -0.8578398 -0.5488032 0.58837515 -0.33723658
000070 f4 9f c3 3f 88 a4 e2 3e 3e 8a 3a 3f 74 1f b0 3e
       1.5283189 0.44266152 0.7286719 0.34398997
000080 70 bb 40 bd f7 e7 21 bd 67 a2 ca 3d 70 22 8d 3f
       -0.047053754 -0.03952786 0.09894257 1.1026134
000090 de 11 ba 3f 8d 47 59 3f 4f 6b 8b be dc f7 8d bf
       1.4536703 0.848748 -0.27230307 -1.1091266
0000a0 bd 1a 6a bf 5e d6 4b 3f 4a a1 a4 3e 60 bd 03 bf
       -0.9144705 0.79623973 0.32154304 -0.5146084
0000b0 f3 25 3a 3f 8a 6b c3 bf eb 9d a7 3e d1 1f 92 3e
       0.72714156 -1.5267193 0.3273767 0.285399
0000c0 20 2b d7 be 7a 1d 06 bf a0 1d 9a bc e9 88 a5 bd
       -0.4202509 -0.5238873 -0.018812954 -0.08082754
0000d0 15 d9 d3 3e 4a d3 60 3f e8 1a e8 3e 18 1b d1 be
       0.41376558 0.878224 0.45333028 -0.40840983
0000e0 ae 9f 08 be 1a 96 49 bf 3f bb 5b be d0 f2 a2 3c
       -0.13342163 -0.7874466 -0.21458147 0.019891173
0000f0 4e d3 5f bf 9f 47 82 3e 02 44 b1 3e 27 76 64 3e
       -0.874318 0.25445268 0.34622198 0.22310697
000100 db ae b7 3f 13 5e c6 3f 5b c0 d8 3d 22 41 40 be
       1.4350237 1.5497459 0.10583564 -0.18774846
000110 d8 e4 00 40 58 b5 ca 3f 86 d4 b8 3d 45 aa 89 bf
       2.0139675 1.5836592 0.09024911 -1.0755087
000120 eb bb 5c bf a0 6b b6 bf c1 9c be 3e df 9f 0c be
       -0.8622424 -1.4251595 0.3722897 -0.13732861
000130 f3 fb 4d 3d df 47 bf 3d 74 1a cc 3e 59 c2 d5 be
       0.050289106 0.0933988 0.39863932 -0.41749838
000140 23 f0 0c bf 9a 87 9e 3f a0 e8 5c 3f 38 fc 32 3e
       -0.5505392 1.2385132 0.8629246 0.17479026
000150 e4 08 57 3f 83 67 8b 3f 98 51 ea be ac 94 72 be
       0.8399794 1.0890964 -0.45765376 -0.23689526
000160 e5 c6 9a 3e 88 40 90 be a2 95 0d 3f c2 95 38 bf
       0.3022987 -0.28174233 0.55306447 -0.7210351
000170 eb 4b e9 3f 32 26 64 3f 3a 65 87 bf 41 78 66 bd
       1.8226293 0.8912078 -1.0577767 -0.056267027
000180 75 8b 05 3d f6 00 fb 3f 88 9f b4 3c 8c 0d 0c 3e
       0.0326037 1.9609668 0.022048727 0.13677043
000190 1b 37 14 3f 2f 53 70 3b 5d e0 98 be 91 e1 50 3e
       0.57896584 0.0036670675 -0.29858676 0.20398547
0001a0 e6 f9 49 3f 85 cc 3a 3f 76 02 6f 3f e6 ee 1d 3e
       0.7889694 0.7296832 0.9336313 0.15423164
0001b0 98 95 ee 3e 40 4c 37 3e 8c 63 08 3f 9f 8e c5 be
       0.46598506 0.17900181 0.53276896 -0.38585374
0001c0 34 49 88 3f 9c d1 7a 3e ad 35 46 bf 2d b4 a2 3f
       1.064734 0.24494022 -0.7742565 1.2711235
0001d0 25 ed e7 be e0 f7 82 3e d3 7c 04 bf 75 4b cb 3e
       -0.45298114 0.2557974 -0.51752967 0.39706007
0001e0 6e d2 f4 3e 66 bf 4e 3f fb 70 e1 bc e5 50 a7 3e
       0.47816795 0.807608 -0.027519694 0.32678905
0001f0 40 14 45 3e 06 fc a0 bd 57 2f 3d ba a6 ac 79 3e
       0.19246006 -0.0786057 -0.0007216832 0.24382266
000200 82 a9 c2 3f 45 bb ba 3f ba 03 3e 3d b8 47 7b 3f
       1.520798 1.45884 0.046390273 0.9815631
000210 0a 2e 64 3f 67 42 e4 3d d3 cd 57 3f 70 f2 74 3f
       0.8913275 0.11145478 0.8429844 0.9568243
000220 e2 9b 87 3f 86 49 c6 be 6b ce 76 3c 0f ea c6 be
       1.0594447 -0.3872797 0.015063862 -0.38850448
000230 5d 46 6f 3f 1e 5f 9e be b1 9b a0 bf b5 0f 20 3e
       0.9346674 -0.30931944 -1.2547513 0.15630992
000240 7d 47 1a 40 5b 12 9c 3f 55 ab cf 3e 1b 7e c5 be
       2.4106133 1.2193102 0.40560403 -0.38572773
000250 7c 01 98 bd 3e e9 98 3e 1c 3c 4b 3e b4 a2 97 3f
       -0.07422158 0.2986545 0.19847149 1.1846528
000260 68 40 7f 3e 13 d0 44 3e f3 ee ae bf f4 d5 5f 3f
       0.24926913 0.19219999 -1.3666672 0.8743584
000270 2c fd 8a 3d cc 98 45 3f 17 b1 17 bf 7c d7 19 3f
       0.0678657 0.77186275 -0.5925459 0.6009443
000280 60 2b ed bf a7 43 57 be 1b 63 1a 3f b9 cf 80 3f
       -1.8528862 -0.21021901 0.6030747 1.0063392
000290 01 6f 65 3e 74 4b 4f 3e 4f e6 8a 3f ab f2 be 3e
       0.22405626 0.20243627 1.0851535 0.37294516
0002a0 93 31 a2 be 62 96 9b bd bf 32 a1 bc 91 3c 8c 3b
       -0.31678447 -0.075970426 -0.019677518 0.004279681
0002b0 11 77 2d 3f 33 0d 69 3f 7a 63 48 3e 0a ca 5a 3e
       0.67759806 0.91035765 0.19569197 0.21366134
0002c0 e4 64 5e bf ad 94 8b 3f f2 02 dc bd 43 71 98 be
       -0.86872697 1.0904747 -0.10742749 -0.29773912
0002d0 39 b9 77 3e 79 59 55 be 49 5d c5 be 10 83 11 3d
       0.2419175 -0.20834912 -0.38547733 0.03552538
0002e0 ca f2 77 3f 3a 86 bf be e3 49 a9 be 0c 1f 2b 3e
       0.9685484 -0.37407094 -0.33064184 0.16711062
0002f0 cf d5 87 3e 66 ae 8d 3e 67 86 2b bf 0e a9 99 be
       0.2653031 0.27672118 -0.67001957 -0.3001179
000300 75 15 57 3e 87 55 b4 3a de 51 05 3f 4a 2c 72 bf
       0.21004279 0.0013758399 0.52078044 -0.9459883
000310 d8 a1 b7 bf 5b 97 7e be 9c cf 42 bc a7 1e ac be
       -1.4346266 -0.24862425 -0.011890318 -0.33617136
000320 f5 bd bc 3e c3 11 26 3f 3e 4b 62 3f 00 46 08 3f
       0.36863676 0.6487085 0.8839606 0.5323181
000330 6a 71 41 bf a2 c2 29 bf 12 47 5b 3e c9 97 ba be
       -0.7556368 -0.6631261 0.2141383 -0.36443928
000340 c8 c0 5a bf 2b 52 d7 3e c7 95 d3 3e 2d e3 b0 3f
       -0.8545041 0.42054877 0.4132521 1.3819329
000350 ab 7f 72 bf 07 bd 9a 3e c9 26 03 3f 32 0e 7f 3f
       -0.94726056 0.3022234 0.51231056 0.99631035
000360 00 32 3d 3e 77 53 40 be 52 4c 79 bf 1d c4 46 3e
       0.18476105 -0.1878184 -0.9738208 0.19410749
000370 0f f4 2d be e7 ae a3 be 98 b2 6b 3f 2e 84 64 3f
       -0.16987632 -0.31969377 0.9206939 0.8926419
000380 b7 09 62 3e 68 d6 08 be 89 01 b4 be f0 9e 64 be
       0.22074018 -0.1336304 -0.3515742 -0.22326255
000390 91 8d 3e bf 1c 26 29 3f 5c 34 9e bc e0 7b 0a 3f
       -0.74434763 0.66073775 -0.019312076 0.5409527
0003a0 8f e8 2f 3f 21 f5 7c 3e 09 cd 5b bf a9 5e 28 bf
       0.6871423 0.24702884 -0.85859734 -0.6576944
0003b0 34 04 ed 3e ef 7b 9c be 3f 35 92 be 35 5f ba be
       0.4629227 -0.30563304 -0.2855625 -0.36400762
0003c0 eb 9f fa bd f4 42 d8 3e ac 48 40 3e a9 be 5f 3e
       -0.12237533 0.4223858 0.18777722 0.21850075
0003d0 15 84 d2 3e e0 b5 c3 3e b0 c9 75 3e d8 1f a1 bf
       0.41116396 0.38224697 0.24002719 -1.2587843
0003e0 0c a7 e5 3d 4d fe 01 3f d7 84 4d ba 13 01 8f 3e
       0.11213502 0.5077866 -0.0007839924 0.27930507
0003f0 3a 11 46 3d 92 96 ad 3d 8c a1 99 3f bb 4f 94 3e
       0.048356272 0.08475985 1.2002425 0.2896708

input_embeddings.embeddings.art.weight f4 [174, 29]
000000 75 cc 8c 3e de 27 da bd 1e 87 3b bf 85 cc 53 bf
       0.27499738 -0.10652135 -0.7325305 -0.8273395
000010 60 b7 74 bf 4c fa 3f bf 01 f7 91 be 93 f9 57 be
       -0.9559231 -0.749913 -0.28508762 -0.21091299
000020 24 20 38 3f ad d6 95 3f 9c b4 af 3d d6 1b 41 3f
       0.7192404 1.1706139 0.085793704 0.754331
000030 f1 59 4f 3e 13 e1 c5 be 88 2a 3b bf 15 d3 1b 3d
       0.20249154 -0.3864828 -0.7311177 0.0380431
000040 65 7c 93 3e e9 f0 0d be 21 23 07 bf b4 44 2f bf
       0.28805843 -0.13861431 -0.5278798 -0.6846421
000050 f4 ab a6 bf b7 44 4e be 9e 94 ee bd b4 a8 7b bd
       -1.3021226 -0.201434 -0.1164944 -0.061440185
000060 bb e2 10 bf 9b ce 33 3f 82 f5 2c 3f a3 02 97 3f
       -0.56595963 0.7023713 0.67562115 1.179768
000070 dc 1b 80 3e 26 f5 77 bc 51 bb 0a bd e7 e9 97 be
       0.25021255 -0.015134132 -0.033870045 -0.2967064
000080 81 64 cf bd 27 d4 3a bf b7 c5 a9 bf 67 6f 85 bf
       -0.101265915 -0.7297997 -1.3263463 -1.0424622
000090 f9 c2 69 bf 9c 37 9a 3f e1 fe 0a bf 84 db 7d bf
       -0.9131313 1.2048221 -0.54295164 -0.9916308
0000a0 2a ae d4 be 92 fa 8e 3f ee 22 0f 3f 69 08 25 3f
       -0.41539127 1.1170218 0.55912673 0.6446596
0000b0 11 28 2b 3f a4 fd 2e 3f 0a 47 5b bf 7e 7d 8b bc
       0.6685801 0.68355775 -0.8565527 -0.017027613
0000c0 f0 eb 33 3f fd ff 82 3e dc 92 16 be 26 14 eb 3c
       0.7028189 0.2558593 -0.1470446 0.028696131
0000d0 2d de 14 3f 85 15 64 3f 33 54 30 3f 67 e7 1b 3f
       0.58151513 0.89095336 0.6887848 0.60899967
0000e0 47 28 8a 3e 8b 73 5c 3f 67 ba bd be a5 bf bd 3b
       0.26983854 0.86113805 -0.37056276 0.005790668
0000f0 f7 21 b9 3e 8a a8 bc be 16 a6 3e bf cc e5 74 bf
       0.36158726 -0.36847335 -0.7447218 -0.9566314
000100 69 cd 76 bf e1 ca 71 bf c7 4d bd 3e d2 36 0f bf
       -0.9640718 -0.94450194 0.36973402 -0.55943024
000110 08 71 9c be 85 d0 d6 bd b5 6e 26 3f bd 23 e0 3f
       -0.30554986 -0.10488991 0.65012676 1.7510906
000120 31 ca 87 3f 8a db b8 bd fb cf 12 be 4b 54 20 3f
       1.0608579 -0.09026249 -0.14337151 0.6262862
000130 52 ec 7a bd 37 45 08 3e 47 56 29 3f ca 0d 6d bf
       -0.06126053 0.13307653 0.66147274 -0.92599165
000140 c0 87 97 bd a0 c8 60 3f 2d 86 b8 3f 3e d5 be 3e
       -0.07398939 0.8780613 1.4415947 0.37272066
000150 5a 1d a5 3e a1 e6 0b 3e 52 ac 0e 3e 48 24 00 3f
       0.32248956 0.13662197 0.13932922 0.5005536
000160 ef df 99 3e 4c cc c9 3e 6c 82 22 bf 88 a9 b9 be
       0.3005366 0.3941368 -0.6348026 -0.36262155
000170 e0 c4 c5 3e 96 05 6a 3f 29 7d 5c 3f 04 61 03 bf
       0.38626766 0.91414773 0.8612848 -0.5131991
000180 19 d7 1b bf c1 15 d8 3e 7c 95 21 3f df 19 54 be
       -0.6087509 0.42204097 0.6311872 -0.20712994
000190 fc 66 c7 3e 3a 91 41 3f b2 55 a4 3f ae ae a6 3f
       0.38945758 0.75612223 1.2838652 1.3022058
0001a0 f4 80 f4 be d3 d6 8d bf 55 c0 94 3b a4 dc b3 be
       -0.47754633 -1.1081184 0.0045395293 -0.35129273
0001b0 27 b8 b9 be f3 96 d5 be 3b fb 0a bf c0 31 15 bf
       -0.3627331 -0.41716728 -0.542896 -0.5827904
0001c0 38 47 aa bd 32 eb f8 3d c2 bb 97 3e 00 4c f5 be
       -0.08314365 0.12154235 0.29635435 -0.47909546
0001d0 5c 25 36 3f 00 b2 15 bd 20 1b ba 3e a7 51 90 be
       0.71150756 -0.036546707 0.3634882 -0.28187296
0001e0 12 31 58 3e 05 ed 46 3f 76 fc 50 3f d1 c7 35 3f
       0.21112469 0.77705413 0.81635225 0.7100802
0001f0 39 fe 08 bf 7e f4 9c 3e ce 1f d6 3e 05 bd ac 3e
       -0.53512913 0.30655283 0.4182114 0.3373796
000200 5a 01 fb be 74 73 a4 bf 92 77 ad bf a8 59 96 bf
       -0.4902447 -1.2847733 -1.3552115 -1.1746111
000210 90 15 84 bf c1 e5 56 3e 13 b9 84 3f 74 e3 9e 3e
       -1.031908 0.20986082 1.036898 0.31032908
000220 b4 2c 31 3e 49 fe b5 3e 1c 7e ed 3d 1a 5f 0d bb
       0.17302209 0.35545567 0.11596319 -0.0021571578
000230 5c 05 fb 3d e5 aa 96 be 71 18 24 be a1 8c 65 bf
       0.122568816 -0.29427257 -0.16024949 -0.8966771
000240 49 48 61 3d 36 0a d8 be 37 77 08 3e 1e f5 41 3e
       0.055000577 -0.4219529 0.13326727 0.18941161
000250 52 0a 88 bb 06 b5 f3 be 39 38 3e bf 68 91 a8 be
       -0.004151621 -0.47599047 -0.7430454 -0.32923436
000260 e1 25 9d be f0 af 9e be a2 76 86 3e 33 4b 53 3e
       -0.30692962 -0.30993605 0.26262385 0.20634155
000270 33 29 0a be 58 ec 1d bf 21 fe 85 3c 07 39 7e bd
       -0.13492279 -0.61688757 0.01635653 -0.062066104
000280 99 c5 81 bc 42 72 1e 3e 31 b5 2d be 12 a6 32 40
       -0.015841292 0.15473273 -0.1696365 2.7913861
000290 41 81 aa 3f 4d db 21 3f 78 29 9e bf c1 17 6f bf
       1.3320695 0.6322525 -1.2356405 -0.9339562
0002a0 57 40 10 3f c2 69 8c 3f c0 8e 0a 3f 71 dc 06 3f
       0.56348175 1.0969775 0.5412407 0.52680117
0002b0 71 16 3f bf bc 7c db 3e d1 05 0f bf e6 7d 16 be
       -0.7464362 0.42868602 -0.5586825 -0.14696464
0002c0 04 8e 71 bf 80 08 00 3f 19 06 81 3c 60 a0 9e be
       -0.94357324 0.5001297 0.015749978 -0.3098173
0002d0 f2 2a c0 be 2d f4 aa be 44 32 04 3f 97 08 a3 bf
       -0.37532765 -0.33389416 0.516392 -1.2736996
0002e0 cf aa 90 be c6 eb 6e 3e 78 2a ce 3f 28 d6 63 3f
       -0.28255317 0.23332128 1.610671 0.8899865
0002f0 30 1a db 3e 67 2e 77 be 59 7d ad be 81 24 80 3f
       0.42793417 -0.24138795 -0.33884695 1.001114
000300 81 a8 52 3e c0 71 92 3e 27 cb 55 3f 7b 6e 14 bf
       0.20572092 0.2860241 0.8351311 -0.5798108
000310 89 bb ab be 1d 3c 6e 3f f5 93 02 bf 9a ee d3 3e
       -0.33541515 0.93060476 -0.51007015 0.41392976
000320 2f 44 e2 3d 74 6f af be 1f 1c ed be ed b4 23 3f
       0.11048161 -0.3426472 -0.46310517 0.63947946
000330 07 93 60 be b0 a1 d4 3e 8f 2b 83 be b8 18 36 bf
       -0.21931086 0.41529608 -0.2561917 -0.7113147
000340 48 35 8f bf 21 0a 8b bf 15 f7 82 bf 7d ae b6 3d
       -1.1188135 -1.0862466 -1.0231653 0.0892
000350 ce 77 f8 bd 0d 77 43 be f2 bd 47 be c5 bf 91 3f
       -0.12132226 -0.19088383 -0.19506052 1.1386648
000360 e3 a2 5c 3f 57 ac 0e 3f 68 ed 8d 3d fa 2d 75 bb
       0.86186045 0.5573172 0.06930047 -0.0037411437
000370 40 de 80 3f 39 78 10 bf bb ca c3 be a2 41 5a 3e
       1.0067825 -0.56433445 -0.3824061 0.213141
000380 fa ff 85 bf b7 2c 8b 3d d1 9b ac 3f a8 fa 03 3f
       -1.0468743 0.06795638 1.3485051 0.51554346
000390 64 b7 68 3f 0d b3 3a 3f 95 aa 53 3e 95 41 be be
       0.9090483 0.7292946 0.2067054 -0.3715941
0003a0 ae 90 b6 be dc 4b 67 be b2 ec 5e be 83 07 0f 3f
       -0.35657257 -0.22587532 -0.2176998 0.55870837
0003b0 b3 fe 02 3f 46 21 25 3e 8b 99 f7 be 61 89 05 bf
       0.5116989 0.16125974 -0.4835933 -0.5216275
0003c0 3f 00 99 3e 39 87 ac 3e 95 96 6c bf a9 fe ac bf
       0.29883 0.33696917 -0.9241727 -1.3515216
0003d0 94 91 a9 bc a8 f2 7d 3e a7 cf 26 3e 7e 35 04 bf
       -0.0206993 0.24799597 0.1629015 -0.5164412
0003e0 6b 62 20 bf 5f 40 2f 3f 9d 6b 1e 3f 61 e8 dc 3e
       -0.62650174 0.684576 0.61882955 0.4314604
0003f0 11 17 80 3f 6b 18 89 3e ef df 8c 3c 7d cb 1f bd
       1.0007039 0.26776442 0.017196624 -0.03901242

input_embeddings.embeddings.pos.weight f4 [45, 13]
000000 0c a8 eb 3b d3 17 84 3e ba cd 24 3f 87 ec 5a be
       0.0071916636 0.25799426 0.64376414 -0.2137929
000010 37 4e e4 bc b9 60 9c 3e 48 e0 6f bf bf 22 1e bf
       -0.027869327 0.30542544 -0.937016 -0.6177177
000020 96 4e 8d bf bd 72 02 3f ed 89 de 3d aa bd 5c bc
       -1.1039608 0.50956327 0.10866151 -0.013472954
000030 ff 64 83 bf 91 39 b1 be 8e 2e b4 be 11 39 1d be
       -1.0265197 -0.34614232 -0.35191768 -0.153538
000040 5f 01 ce 3e de 89 38 3f 68 92 03 bf ae 8e e5 3e
       0.4023542 0.7208537 -0.51395273 0.44835418
000050 c9 20 a8 be 06 c4 8a bd 63 ef 4f bf 72 0e ac be
       -0.32837513 -0.0677567 -0.8122465 -0.3360477
000060 0d a9 9f 3f ad f2 e2 3f 88 2f 75 3d 5b 58 f9 bc
       1.2473465 1.7730309 0.059859782 -0.030437639
000070 0a 59 95 3e 8b 31 39 bf dc 2f 83 3f 16 50 c6 bf
       0.29169494 -0.7234122 1.024898 -1.549319
000080 e9 f0 99 bf 31 cd ca be 86 a1 36 be 08 c8 3a bf
       -1.2026645 -0.39609674 -0.17835054 -0.72961473
000090 ad 2a a3 3e f7 2d aa 3f b2 2d 91 3e 98 91 4a 3f
       0.31868497 1.3295277 0.28355175 0.7912841
0000a0 a6 69 5f bf 3c e1 c0 be 15 62 46 be 12 bf 64 3f
       -0.8727058 -0.3767184 -0.19373353 0.8935405
0000b0 99 18 ec 3d 01 3c 58 bf b6 2e 1c 3e 15 ba b3 bf
       0.11528129 -0.8446656 0.15252194 -1.4041163
0000c0 71 59 0f 3e 4b af 40 3f 0e b9 02 3e 3d 65 db be
       0.13998963 0.75267476 0.12765905 -0.42850676
0000d0 0f 7f 02 bf 7c 9f 98 bf 7d 19 3a be 65 ad 3f bf
       -0.50975126 -1.1923671 -0.18173786 -0.74873954
0000e0 bc 29 02 bf ad eb 8d 3c 62 61 9b 3e 8d 47 2d 3f
       -0.5084493 0.017324293 0.30347735 0.676873
0000f0 ad f2 40 3f 21 9c 7a be 05 5b 4e 3f 0f c9 bf 3f
       0.75370294 -0.24473621 0.80607635 1.4983233
000100 ca 95 22 be 41 ad 9a bf ce a4 e5 bd 30 f6 80 3f
       -0.15877452 -1.2084123 -0.112130746 1.007513
000110 ec bd a0 3f 79 d4 d3 be a5 d2 e9 bd 73 2e 0d bf
       1.255796 -0.4137304 -0.114171304 -0.55149
000120 22 33 d0 bd 29 b6 4a bf 3b 36 59 3e 91 d5 d2 3e
       -0.10166003 -0.79184204 0.21212094 0.41178563
000130 28 de 31 bd f7 4e de bb 53 aa b4 3e 6e 43 3f 3e
       -0.043424755 -0.0067843157 0.35286197 0.18678066
000140 c5 7c 08 3f 2d 9b 91 be 88 19 35 bf 46 5c da bd
       0.53315383 -0.28438702 -0.7074208 -0.10662131
000150 2f ef 92 bf 95 7e 1d 3f bf 3e 65 bf f9 ed 73 bd
       -1.1479243 0.61521274 -0.8954887 -0.05955312
000160 98 c8 62 3d ef 60 b6 bf a6 b6 46 bf 7e ad 5c bf
       0.055367082 -1.4248332 -0.7762245 -0.8620223
000170 11 a0 3c 3e e8 7e aa 3e 47 bc 56 be 64 71 52 bf
       0.18420435 0.33299947 -0.2097026 -0.8220427
000180 be f4 0e bf ed d6 da 3e d8 c4 06 be ee 19 2e c0
       -0.55842197 0.427421 -0.13161027 -2.7203326
000190 fb 38 8c bd a7 53 86 bb 95 4a d3 bf 60 da 98 be
       -0.06846806 -0.0040993276 -1.6507136 -0.29854107
0001a0 2d 98 f5 be 7c fb 90 3e 88 83 64 b8 d6 48 e1 3e
       -0.47967663 0.28316867 -5.4481934e-05 0.44000882
0001b0 f7 c7 45 be 3d 54 2b 3f e2 32 bb 3f 54 3f f0 be
       -0.19314562 0.6692541 1.4624903 -0.46923316
0001c0 12 d0 82 bf b6 0e 2a bf 19 25 ea 3d 1d 40 ae 3f
       -1.0219748 -0.664287 0.11432857 1.3613316
0001d0 8f 2b c4 bd 2b 69 93 3e 59 f8 02 bf 57 6b 9c 3c
       -0.09578621 0.28791174 -0.511602 0.019094152
0001e0 a6 fe d1 3e 43 58 90 3e a5 d2 de 3f 3e ce 0d 3e
       0.41014594 0.28192338 1.7408034 0.13848206
0001f0 bf a6 82 3e d1 99 6c bf aa fd c6 3c 26 25 d2 3e
       0.25517842 -0.92422205 0.024290878 0.41043967
000200 c6 fc 21 3f ee 80 dd be 4f f5 b9 be a4 f2 87 be
       0.63276327 -0.43262428 -0.36319968 -0.26552308
000210 22 d5 8b be 4f 77 cd be ab 57 53 be bc 98 ee be
       -0.27311045 -0.40130088 -0.20638911 -0.46600902
000220 82 74 a1 be ef de ca 3f 27 4e 6d 3f 26 32 c9 bc
       -0.315342 1.5849284 0.92697376 -0.024560045
000230 14 a4 4f 3f ac e6 4f 3f 7a 8d c7 3e 67 ba a7 be
       0.8110974 0.8121135 0.38975126 -0.327594
000240 8c b3 e5 3e a9 af 41 3e 27 16 8c bb 99 bb 4c bf
       0.44863546 0.18914665 -0.0042751017 -0.7997375
000250 af d2 8c bd 04 96 9b 3e c0 35 f1 3e db 30 9b be
       -0.06876122 0.3038789 0.4711132 -0.3031071
000260 02 93 5f be 5f c5 0f c0 74 5c 01 c0 95 f6 6a 3d
       -0.21833423 -2.2464216 -2.021268 0.057364065
000270 b9 75 20 bf c8 c2 36 3f 41 73 04 40 9f 99 1c 3f
       -0.6267963 0.7139096 2.0695345 0.6117191
000280 8e bc a6 bd 0d 6e ca 3e bc f3 92 be 38 d5 a6 bf
       -0.08141433 0.39537087 -0.2870158 -1.3033819
000290 0e d8 ae bd 17 d6 a6 3f a1 61 cf bc 91 bc 4a 3e
       -0.08537303 1.3034085 -0.025315108 0.19798495
0002a0 e4 ae 49 3d 55 76 84 3e 2c c8 8c 3e 28 b5 99 be
       0.049239054 0.2587153 0.2749647 -0.30021024
0002b0 7e cb 40 bf 3c ce fe 3e 61 61 9c be d2 32 ce 3f
       -0.75310504 0.4976672 -0.30543044 1.6109259
0002c0 39 86 55 bf a3 7b 60 3f 55 2d 52 3f 44 8a ae bf
       -0.8340793 0.87688655 0.8210042 -1.3635945
0002d0 1c 00 c8 be 04 94 f8 bd 70 82 71 3f 7e 3f 0e 3f
       -0.39062583 -0.12137607 0.94339657 0.5556563
0002e0 d8 76 5f 3e cd 5d be be ec e7 79 3d 3a 52 f8 bd
       0.21822679 -0.3718094 0.061012194 -0.121250585
0002f0 b5 a5 97 be 31 bf a6 be f1 b1 da 3e 23 f4 66 3f
       -0.29618612 -0.32567742 0.42713884 0.90216273
000300 f5 76 bc bf 37 e7 ad bf 45 a2 11 3f 45 93 37 bf
       -1.4723803 -1.3586186 0.5688823 -0.7170909
000310 7f 7f 13 3f e3 cf f2 3e f8 ef 1e 3d e5 ed 74 bd
       0.5761642 0.4742423 0.03880307 -0.059797186
000320 19 b0 c7 be 34 91 22 3d c3 11 cc 3d 15 05 5b 3f
       -0.3900154 0.039689258 0.09964325 0.8555463
000330 66 ea 15 3e ce 5a 79 bf 97 06 cb be 24 de 2c 3f
       0.14640197 -0.9740418 -0.39653465 0.6752646
000340 28 87 34 3e 13 16 9a be cb 5b c8 bd 52 bc 26 3e
       0.17629683 -0.30094966 -0.09783133 0.16282776
000350 c4 0e 60 3f 82 de e9 3f ec 84 55 be 88 ab 9d be
       0.8752253 1.8271029 -0.20851487 -0.3079493
000360 d5 d5 3e bf 7f 46 66 bf 69 ce 28 bd 1e 0d 45 3f
       -0.7454503 -0.8995132 -0.041212473 0.7697314
000370 4b b8 3f bf a4 99 27 be ae 9b 95 3f ad a4 6f 3e
       -0.74890584 -0.16367203 1.1688135 0.23402663
000380 e5 4e 22 3f 0f 75 b8 be 52 30 dc 3e 53 c2 30 3f
       0.63401634 -0.3602681 0.43005615 0.69046515
000390 c4 25 27 bc e2 d5 a3 3e 58 c8 22 3e 3f 63 a7 bc
       -0.010201875 0.31999117 0.15896738 -0.020433066
0003a0 b7 98 1c be 54 10 e1 3f bc 6c 50 bf 70 bc 33 3f
       -0.15292631 1.7583108 -0.81415915 0.7020941
0003b0 7a 7c a8 3c a5 d4 88 be de 9e 4c bd 5e 93 d2 3e
       0.020567168 -0.26724735 -0.049956195 0.41128057
0003c0 e2 69 58 3f 90 b7 0c bf 1e 23 b1 bf a5 84 31 bf
       0.84536564 -0.54967594 -1.3838842 -0.69343024
0003d0 16 5e 0d 3e b7 4c 81 3f 9a d5 d9 3d e3 44 38 be
       0.13805422 1.0101537 0.106364444 -0.17995028
0003e0 ae 4e 7b 3f 03 61 a3 3e 45 9e 57 3d 3a 72 83 3c
       0.9816693 0.31909952 0.052641172 0.016045678
0003f0 e5 3e 21 3d c4 02 49 3f fa 6b 7d bf 16 e1 93 be
       0.03936662 0.78519845 -0.98992884 -0.28882664

input_embeddings.embeddings.cluster.weight f4 [15, 7]
000000 09 59 e9 3e ed c9 40 3f 06 3d 7b 3e 62 8b 82 be
       0.4557574 0.75308114 0.24534997 -0.25496966
000010 95 91 75 be 87 9d 97 bf e6 b6 c8 be a8 b0 9b 3e
       -0.23981316 -1.1844949 -0.3920204 0.30408216
000020 df ad c4 3e 8e fd 14 be cd 58 70 3d 5d c6 9f 3b
       0.38413903 -0.14549848 0.058678437 0.0048759417
000030 4b d2 ef bf a5 d9 ee 3e 28 d3 52 bf 9b d8 1a bf
       -1.8736051 0.46650425 -0.8235345 -0.60486764
000040 c2 06 8a 3f b8 e0 4e 3d 65 44 e4 be fa 3c 8c 3e
       1.0783312 0.050507277 -0.4458343 0.2739027
000050 be aa 58 3e d1 86 73 3f 12 5f 87 3f 59 26 31 bc
       0.21158883 0.9512759 1.0575888 -0.010812365
000060 01 ac 97 3f 58 fe d4 bf 2d 68 2e 3f 4f 6e e1 3e
       1.1849366 -1.664012 0.6812771 0.4402947
000070 39 60 b4 bf 61 ca 16 c0 ba d0 9b 3d 0b b0 8d bd
       -1.4091865 -2.3561022 0.07608171 -0.06918343
000080 62 9e 3c 3f c2 37 a7 be 3d be d7 bd 07 b2 fe 3d
       0.73679173 -0.32659727 -0.10534332 0.124363
000090 2b 76 d7 bd a3 db ac bf 38 1d eb bd f0 75 04 3f
       -0.105205856 -1.3504528 -0.114801824 0.5174246
0000a0 8a 78 dd 3d 07 5f 31 3f 69 8e 8a 3e ac 2f 13 3f
       0.108140066 0.69285625 0.27061775 0.57494617
0000b0 46 bf c4 3b ba d2 da 3d 97 80 ba 3e 55 94 9a bf
       0.006004247 0.10684724 0.3642623 -1.2076517
0000c0 f5 a6 7d bf 1f 44 30 be 22 05 e9 bd 63 19 c8 3d
       -0.9908288 -0.17213486 -0.11377932 0.09770467
0000d0 90 e5 0b 3f cd c5 a1 3e eb d1 ca 3f bb f1 13 3d
       0.5464716 0.31596223 1.5845312 0.036119204
0000e0 18 b2 16 3f 1e 5b 38 3e 96 c9 e7 bf 1a f9 8c 3e
       0.588655 0.18003508 -1.8108394 0.275338
0000f0 0c 87 56 bf 37 65 e2 3d d4 15 62 bd 9a 3c f8 3d
       -0.83799815 0.110544614 -0.0551966 0.12120934
000100 41 ea 0d 3e 9b 33 b1 bd 18 d9 d6 3e 1e 63 5c 3f
       0.13858892 -0.08652421 0.41962504 0.8608874
000110 6e b2 8d bf b6 ef 30 be 96 b3 f5 be 5e 2a 02 bd
       -1.1070077 -0.17278942 -0.47988576 -0.031778686
000120 a6 90 dd 3f f0 c5 22 bd db 65 00 3f 94 66 de bc
       1.7309768 -0.03973955 0.5015542 -0.027148522
000130 5e a8 14 be a0 fa 0d 3e 0c f7 2d 3d 9f 91 29 bf
       -0.14517352 0.13865137 0.04247193 -0.66237825
000140 1c a6 9f be 08 d9 4a 3e a1 8a 95 3f 4c de b3 3f
       -0.3118142 0.19809353 1.1682931 1.4052215
000150 59 20 45 3f a6 5e d8 3e 13 64 83 bf 6d 14 23 be
       0.77002484 0.4225971 -1.0264915 -0.1592576
000160 ef 0a 1c 3f a9 b5 ad 3d 50 14 34 3e 78 8e 80 3e
       0.60954183 0.084819146 0.17585874 0.25108695
000170 95 66 78 3e eb b8 58 3f f2 d1 89 be 11 49 0b bf
       0.24257882 0.8465716 -0.26917988 -0.54408365
000180 08 e7 7b 3f 0f 2e 29 bf dd 9f b8 bd 32 a0 dd be
       0.983994 -0.66085905 -0.090148665 -0.43286282
000190 a9 e5 9c 3e 1b ad e3 3f 3a 0a 08 3f 5f 30 ae 3e
       0.30643967 1.7787203 0.53140604 0.3402128
0001a0 b2 3c 85 bd
       -0.06505717

input_embeddings.embeddings.weekday.weight f4 [7, 5]
000000 fc 72 39 3f fc 4f 1b be 46 eb c0 3c 59 cb c7 bf
       0.7244108 -0.1516723 0.023549687 -1.5608932
000010 66 e8 27 3f ac b3 0d be 6f a6 c2 be a3 fb ee 3e
       0.65588987 -0.1383807 -0.38017604 0.4667636
000020 ff 31 65 bf 9f b9 b4 bf 2c c7 d1 bb ae 8a 96 be
       -0.89529413 -1.4119147 -0.006401917 -0.2940268
000030 1e f5 0b c0 06 f1 89 be b0 cd 0f bf 6f 8a 1e bf
       -2.1868358 -0.269417 -0.5617323 -0.6192998
000040 01 84 a4 bf 1a 28 29 3f 4f af bc be ca 24 f8 3d
       -1.2852784 0.66076815 -0.368525 0.12116392
000050 94 08 95 be ef b0 79 bf 56 d7 02 bf 10 c2 f9 3e
       -0.29108107 -0.97535604 -0.51109827 0.4878087
000060 fd 1a 54 3f d9 9c 12 3f 72 77 e4 3e 06 61 cb 3d
       0.8285368 0.5727058 0.4462238 0.09930615
000070 93 a9 ba 3f 7a 29 94 be c9 53 e1 be e0 0f f1 3f
       1.4583 -0.28937894 -0.44009236 1.883297
000080 30 27 43 3e b6 36 9a 3d 83 39 c4 3e
       0.19057918 0.075299665 0.38325128

input_embeddings.embeddings.onpromotion.weight f4 [2, 1]
000000 df e3 e6 be 75 bd ce 3e
       -0.45095727 0.4037892

prescalers.time_idx.weight f4 [8, 1]
000000 e8 b0 86 bf 52 c7 28 be 10 c8 5b 3f db 42 3c 3f
       -1.0522738 -0.16482285 0.85852146 0.73539513
000010 2e a3 92 3f d2 88 52 3f dd e8 74 3e de 84 25 3e
       1.1456048 0.8224002 0.23916955 0.16163966

prescalers.time_idx.bias f4 [8]
000000 62 ed 1a bf ed aa a3 bd 9d 04 13 bf 66 8b d1 be
       -0.6051847 -0.07991586 -0.57428914 -0.40926665
000010 8d be 67 bf d5 f2 ec 3c 45 1f ff 3b 60 32 6c 3d
       -0.9052513 0.028924385 0.00778571 0.05766523

prescalers.doy_sine.weight f4 [8, 1]
000000 2b 1c 7b 3d ff bb 02 40 45 19 e8 bd f9 9e 32 3f
       0.06130616 2.0427244 -0.11332945 0.69773823
000010 80 ab 8c bf c3 0c a6 bf 85 17 7c bf 4c 4a 80 bb
       -1.0989838 -1.2972645 -0.9847339 -0.003915107

prescalers.doy_sine.bias f4 [8]
000000 c6 83 d9 3c 83 e2 90 be b0 9c 9d bd c8 b8 81 be
       0.026552092 -0.28297815 -0.076959014 -0.2533629
000010 ba b1 0f bf 51 fd ca 3d 02 f7 e7 be 47 3b 1e bd
       -0.56130564 0.099115975 -0.4530564 -0.03863075

prescalers.doy_cosine.weight f4 [8, 1]
000000 48 41 91 3f 3f 6b e2 3e 93 e0 f2 bc 60 95 ca 3f
       1.1348047 0.44222447 -0.029648101 1.5826836
000010 24 ee 9b 3f 6c dd f3 bd 08 29 c7 3f 9d 60 0f bd
       1.218205 -0.11907467 1.5559397 -0.035004247

prescalers.doy_cosine.bias f4 [8]
000000 d8 6e 16 3f 06 53 d1 be 39 4a da 3d 81 5f 51 3e
       0.58762884 -0.40883654 0.10658688 0.20446588
000010 42 5b 8d 3e 6f ce 6f 3e d6 45 6c 3e 76 6e 5f be
       0.27608687 0.23418592 0.23073515 -0.21819481

prescalers.relative_time_idx.weight f4 [8, 1]
000000 ac a6 af 3f c9 81 ab 3f 68 98 70 bf b1 15 5f bf
       1.3722739 1.3398982 -0.93982553 -0.87142473
000010 c6 c7 43 3d a7 33 0c 3c 20 49 66 3f f5 eb d8 3e
       0.04779794 0.008557237 0.8995533 0.4236752

prescalers.relative_time_idx.bias f4 [8]
000000 91 aa af 3e f6 d0 71 3e 5e d1 ad be e3 3e d4 be
       0.3430982 0.23614869 -0.33948797 -0.4145423
000010 c4 a6 a2 3d 3f fd 92 3c cd 75 78 3f de 2a 8a bf
       0.07941964 0.017943023 0.9705475 -1.0794332

prescalers.sales.weight f4 [8, 1]
000000 ed 99 f2 3e de e0 5d bf 26 66 06 be fc 59 b3 bc
       0.4738306 -0.86671245 -0.13124904 -0.021893494
000010 3d 09 90 3c d7 fb 79 3f 93 b8 ee 3c 03 64 e1 3e
       0.01758253 0.976499 0.029140746 0.44021615

prescalers.sales.bias f4 [8]
000000 58 22 40 c0 e5 4f 98 3c 2a a4 8b 3f 63 c5 9e bc
       -3.0020962 0.018592784 1.0909474 -0.01938123
000010 85 4e 04 3d eb 83 25 be 67 a1 07 3c 39 50 c6 be
       0.032301445 -0.16163604 0.008278227 -0.3873308

prescalers.dcoilwtico.weight f4 [8, 1]
000000 cc 5c 25 3f 0d be 2f 3f f3 df 52 3f f4 d8 24 bf
       0.6459472 0.6864937 0.8237297 -0.64393544
000010 7e ab 33 bf 7d 28 1b 3f c1 8c 48 bf 6a b4 24 bf
       -0.7018355 0.60608655 -0.78339773 -0.6433779

prescalers.dcoilwtico.bias f4 [8]
000000 89 32 d6 3d 9a cc dc 3d 16 5e 13 3e 37 54 0e be
       0.104588576 0.10781212 0.1439136 -0.13899313
000010 8d 10 1b be 69 db 7b 3d 2f 0b 0a be 59 e2 ea bd
       -0.15143032 0.061488543 -0.13480829 -0.11468954

static_variable_selection.flattened_grn.resample_norm.mask f4 [3]
000000 7a 0d 22 40 cb 93 23 40 bb 32 31 c0
       2.5320725 2.5558956 -2.7687213

static_variable_selection.flattened_grn.resample_norm.norm.weight f4 [3]
000000 7c 61 55 40 ae d8 71 40 5d ff df 40
       3.334075 3.77885 6.9999223

static_variable_selection.flattened_grn.resample_norm.norm.bias f4 [3]
000000 d6 2e 51 bf ca 52 92 3f e0 95 22 bf
       -0.8171209 1.1431515 -0.6350994

static_variable_selection.flattened_grn.fc1.weight f4 [3, 49]
000000 c4 6b 46 be 32 37 c6 3c 65 bb 1f bf 8e bd 59 be
       -0.19377047 0.024196241 -0.62395316 -0.21263716
000010 82 06 a7 bd 1c f0 5d bd 9b bf 4b 3f c3 d4 61 3f
       -0.08155538 -0.054184064 0.7958924 0.88215274
000020 c1 76 a1 bd 5b 21 e1 be 98 d8 01 be 8c db 66 bc
       -0.07883979 -0.4397076 -0.1268028 -0.01409043
000030 c8 fd b0 bd ea 43 5c bf ae 56 1c bf e5 7b 88 3e
       -0.08642155 -0.8604113 -0.6106976 0.26657024
000040 79 17 ef 3e 8f 42 92 3e f5 c4 09 be 69 5e b0 bd
       0.46697596 0.28566405 -0.1345404 -0.08611757
000050 74 e0 a3 be 64 15 27 3f 73 a8 41 3f 39 e1 58 3e
       -0.32007182 0.65267015 0.7564766 0.21179666
000060 3e 75 15 bf c4 10 b4 be 5d 2d b6 be 46 97 31 3e
       -0.5838202 -0.3516904 -0.35581484 0.17342862
000070 b6 f4 73 be 66 4c 8a be a6 55 04 3f 87 4c 2e 3f
       -0.23823819 -0.27011412 0.5169319 0.6808552
000080 f5 74 18 3e 44 04 36 3f d6 28 5e bf c0 a1 e6 be
       0.14888366 0.7110026 -0.8678106 -0.4504528
000090 30 6d 08 bf 17 61 07 3f 62 f7 53 3f b5 4d 56 be
       -0.53291607 0.5288252 0.8279935 -0.2092808
0000a0 0a c8 ff 3d c0 18 13 3f 4b c0 7b 3d c9 e7 f5 bc
       0.12489326 0.5745964 0.06146268 -0.03001775
0000b0 23 4e 84 bf cf 29 82 be 22 a6 0c 3f 87 58 ce be
       -1.0336345 -0.25422522 0.54941 -0.40301916
0000c0 6b a2 f6 3e b6 26 02 be 41 2c 2f 3e 6f b5 f3 bd
       0.4817079 -0.1271008 0.17106725 -0.1189984
0000d0 88 59 38 3e c3 ad 14 3f fd cb 66 be 71 eb 16 bf
       0.18002903 0.5807764 -0.22538753 -0.58953005
0000e0 d6 9f 0c bf 39 5f 95 bd 2d 26 9d 3f 0f 87 36 be
       -0.5493139 -0.07293553 1.2277275 -0.17824958
0000f0 9e 7b 86 bf d9 76 08 be 5b bb 96 be 2c 5a c6 be
       -1.0506475 -0.13326587 -0.29439816 -0.3874067
000100 dc 56 c2 be b2 95 fb be a0 5d 0d be f0 5c 86 3e
       -0.37956893 -0.49137646 -0.13805246 0.2624278
000110 39 3b 16 3f 2f e0 43 3f 73 1d 3b 3f 9b 18 a6 3e
       0.58684117 0.7651395 0.7309181 0.32440647
000120 7f f5 1c bf cc b6 07 bf 86 37 4c 3e 60 8c 2d 3d
       -0.613121 -0.530133 0.19943056 0.0423702
000130 85 c7 1a 3f 68 a2 6a 3e 27 6a 07 3f 7c d4 1d 3f
       0.6046069 0.22913516 0.5289635 0.6165235
000140 97 8a 9d 3f 16 14 19 bf 29 8f 2e 3f 19 ca 09 bf
       1.2307919 -0.59796274 0.68187195 -0.53824
000150 2e 3f 75 bf c2 95 7d bf 47 e1 f4 3e 3b 2d 34 3f
       -0.9579953 -0.9905664 0.47828123 0.70381516
000160 95 71 b6 3e af fa 89 3f c9 d0 da be da 55 da 3e
       0.3563353 1.0779628 -0.42737415 0.42643625
000170 60 6b bb 3e ce 0f 9a 3e a6 6b 15 bf f2 10 d9 be
       0.36605358 0.30090183 -0.58367383 -0.4239574
000180 81 98 78 3e 36 33 4b be f5 bb c6 bd bb 73 45 bd
       0.24276926 -0.19843754 -0.09703819 -0.048206072
000190 6e 91 c5 3e bb 8e b4 3e bd 51 8a 3c 06 f2 fe bd
       0.38587517 0.35265145 0.016884679 -0.12448506
0001a0 59 35 f9 be 8a 2f 19 bf b5 e8 cd 3d 6f 35 1e be
       -0.48673514 -0.59838164 0.10054151 -0.15450071
0001b0 6c 41 45 3e 79 72 fc 3e 28 7d 12 3f 16 e0 ff 3d
       0.19263238 0.49306086 0.57222223 0.12493913
0001c0 6e bc 7d 3d 17 85 1e 3f e5 26 26 3f 52 42 55 bf
       0.06194728 0.6192183 0.649031 -0.8330432
0001d0 26 45 11 bf 14 bb 83 3d 9a 30 04 3d c9 c5 7f bf
       -0.5674614 0.06432167 0.032272913 -0.9991117
0001e0 b7 bc 73 bf 6e b4 d1 be 87 e9 4e 3f 1d c8 5c 3f
       -0.9520983 -0.4095797 0.80825084 0.8624285
0001f0 30 1e 4a 3f 14 64 16 be b9 67 1e bf e8 72 21 bf
       0.7895231 -0.14686614 -0.6187702 -0.6306596
000200 ee 98 44 bd 26 e7 0a be 91 b2 d6 be d6 97 66 3d
       -0.047997408 -0.13564739 -0.4193311 0.056297146
000210 77 19 62 be 6f 97 ab bd 16 c5 2b 3f 2e 4a d0 3e
       -0.22080027 -0.08378493 0.67097604 0.40681595
000220 0a bc c4 be 15 36 42 3f 07 1c 22 3f 84 82 19 bd
       -0.38424712 0.7586377 0.63324016 -0.037477985
000230 b1 4b bf bc b6 7c 07 3e d1 3e 30 be 9f 85 4a bf
       -0.023351522 0.13231167 -0.17211463 -0.7911014
000240 bb db a7 3e f6 98 7c 3f 91 06 61 3f
       0.3278483 0.986709 0.87900645

static_variable_selection.flattened_grn.fc1.bias f4 [3]
000000 a3 4f e6 be 6d 55 72 bf 00 c9 73 c0
       -0.44982633 -0.946616 -3.809143

static_variable_selection.flattened_grn.fc2.weight f4 [3, 3]
000000 76 00 72 be 71 4a e4 3e 59 e5 d0 bd 96 12 6b be
       -0.23632988 0.44588044 -0.101999946 -0.22956309
000010 c2 c9 42 3e 52 c1 3c 3e 16 48 da 3e 80 ca 87 bc
       0.19022277 0.18433121 0.42633122 -0.016576052
000020 2d db 86 be
       -0.26339093

static_variable_selection.flattened_grn.fc2.bias f4 [3]
000000 78 0e a8 bf 84 39 6a be 63 73 08 40
       -1.3129416 -0.22873503 2.1320426

static_variable_selection.flattened_grn.gate_norm.glu.fc.weight f4 [6, 3]
000000 fc b7 83 bd 88 ab 10 bf d3 0f 88 bd b6 48 fd bd
       -0.064315766 -0.56511736 -0.06643643 -0.12367384
000010 b2 cc 8a 3e b3 bf 83 3e dc ff 5b be df fb 27 3c
       0.27109295 0.25732192 -0.21484321 0.010252922
000020 10 fc 3c be e6 f5 35 3f 04 94 69 3e e4 c9 02 bf
       -0.18455529 0.71078336 0.2281037 -0.5108931
000030 90 6d bc 3e 37 68 7f 3e a6 6f ff be 88 ce 9a 3e
       0.3680234 0.24942099 -0.49889868 0.30235696
000040 6c eb e7 3d 33 c8 b2 be
       0.113242 -0.34918365

static_variable_selection.flattened_grn.gate_norm.glu.fc.bias f4 [6]
000000 4b 4e 38 3f 3f 3d ba bf 84 ef ed 3e 9c 96 fc c0
       0.71994466 -1.4549941 0.46471798 -7.893385
000010 98 e0 cf bf c7 da 4c c0
       -1.6240416 -3.200853

static_variable_selection.flattened_grn.gate_norm.add_norm.norm.weight f4 [3]
000000 99 76 f1 3e 78 39 86 be 7b 20 8e be
       0.47160795 -0.2621572 -0.27759156

static_variable_selection.flattened_grn.gate_norm.add_norm.norm.bias f4 [3]
000000 6a f9 53 3f 6e db 6d 3e 13 30 ce be
       0.8280245 0.23228237 -0.40271053

static_variable_selection.single_variable_grns.art.mask f4 [32]
000000 3c fe c5 bf 4b bd c7 3f 6f 0a c0 40 8c 63 35 c0
       -1.5468211 1.5604643 6.0012736 -2.8342009
000010 2f a9 4b bf 73 45 84 3f 35 40 71 3f 59 4b 90 40
       -0.7955503 1.0333694 0.942386 4.5091977
000020 47 34 fd c0 a8 bd a7 bd 96 f2 5a 40 b7 29 64 bf
       -7.9126315 -0.08190471 3.4210563 -0.8912615
000030 95 7d 4c 40 12 ca bf bd 3e a9 12 c0 62 54 85 3d
       3.195165 -0.09364714 -2.2915797 0.06510235
000040 38 ca 64 be 28 24 64 40 a8 1f 58 c0 30 2d 83 3f
       -0.22342765 3.5647068 -3.3769321 1.0248165
000050 97 8d 68 40 37 e3 48 bf ba b9 11 40 c8 4f ab 40
       3.633642 -0.784717 2.2769608 5.353489
000060 17 d8 e3 40 29 be 8b 3f 7c 34 85 3e ef 31 b8 c0
       7.120128 1.0917407 0.26016605 -5.7560954
000070 16 88 ad 3f 36 1e c0 bf c5 eb 71 40 d3 0f 80 bd
       1.3557155 -1.500922 3.7800152 -0.06253018

static_variable_selection.single_variable_grns.art.norm.weight f4 [32]
000000 2c 9d 28 c0 16 5a 61 40 03 da c7 40 50 cc fa be
       -2.634593 3.5211234 6.2453628 -0.48984003
000010 46 fc 88 3f c1 54 5a 40 83 ee 5c 40 3e 12 bc 40
       1.0701988 3.411423 3.4520576 5.877227
000020 7b 88 5d 40 ce 35 78 40 2b b7 a8 40 e5 53 1f c0
       3.461455 3.878284 5.2723594 -2.4894955
000030 ad b8 b0 40 51 72 67 40 37 d8 08 40 53 1c 4f 40
       5.5225434 3.6163523 2.1381967 3.2361038
000040 4e 0a 4a 40 61 9d 9e 40 df 7b 6c 40 14 11 78 40
       3.156879 4.9567113 3.6950605 3.8760424
000050 4e 9c 6c 40 c9 b1 2a 40 61 12 9e 40 33 03 57 40
       3.69704 2.6671011 4.9397435 3.3595703
000060 b5 19 8b 40 d0 63 69 40 12 3b 22 40 98 df bd bf
       4.346888 3.646717 2.5348554 -1.483386
000070 96 ab 80 40 89 85 0a 40 9b 43 bc 40 cc 1e 43 40
       4.0209455 2.1644003 5.8832526 3.0487547

static_variable_selection.single_variable_grns.art.norm.bias f4 [32]
000000 1d 38 0c bf 65 be bc bf 1b 9e ac be d3 aa d7 3f
       -0.5477312 -1.4745604 -0.33714375 1.6849006
000010 eb 8e d6 3f 81 cc bd 3f 46 6b 3a be 1b f8 45 bf
       1.6762365 1.4828035 -0.18204984 -0.77331704
000020 fe 95 06 bf b6 7f b8 bf 92 d7 dc bf 1f 44 cb bf
       -0.5257262 -1.4413974 -1.7253287 -1.5880164
000030 d4 16 23 40 93 5d 52 bf 35 5c a6 3e 3e e3 2d be
       2.5482683 -0.8217403 0.32492223 -0.16981217
000040 d9 e4 3e bf ab 87 11 c0 0b 4e 9d 3e 9a 8b d3 3f
       -0.74567944 -2.2739055 0.30723605 1.6526978
000050 ee 78 bb 3e 36 15 01 3f fa bd 55 40 87 c3 19 c0
       0.366157 0.5042299 3.3397202 -2.402559
000060 10 57 66 c0 92 e6 80 3f fe 6f 90 3f 2e 4b 57 3f
       -3.5990639 1.0070364 1.1284177 0.8409909
000070 d3 f5 99 3e 03 90 61 3e 4c af 56 bf 25 60 7b bf
       0.30070361 0.22027592 -0.8386123 -0.9819358

static_variable_selection.single_variable_grns.pos.mask f4 [32]
000000 cb cc ac 3f 22 6b 2e 40 51 89 71 40 1d c4 0a 41
       1.3499998 2.7252889 3.7740061 8.672879
000010 36 56 38 40 78 ee 01 40 f7 de 74 c0 28 27 fc c0
       2.880262 2.03018 -3.8261087 -7.87978
000020 94 4e fb 3f 53 af 04 c0 e1 c2 5d 3e 7b f9 10 3f
       1.9633355 -2.073201 0.21656372 0.56630677
000030 8f 5e 3c 40 18 ee dc 40 86 a7 da c0 0e aa b9 3e
       2.9432714 6.904064 -6.8329496 0.36262554
000040 2d 23 78 3f aa b2 81 c0 d7 22 01 3f 93 dd c7 bf
       0.96928674 -4.0530596 0.50443786 -1.5614494
000050 f2 e9 81 3f 06 9d c8 bf 20 5f 59 c0 e8 74 01 bf
       1.014952 -1.567292 -3.396431 -0.5056901
000060 dd b9 db bf f6 e1 84 c0 36 13 0c 40 17 4e 6a c0
       -1.7166096 -4.152583 2.1886725 -3.6610162
000070 b1 4d d0 3e ab 1d 55 bf 5d 58 f4 bf 09 af b5 3f
       0.40684274 -0.83248395 -1.9089466 1.4194041

static_variable_selection.single_variable_grns.pos.norm.weight f4 [32]
000000 95 69 00 40 4f 38 64 40 2b aa 74 3b f1 26 a5 40
       2.0064442 3.5659368 0.0037332873 5.1610036
000010 e8 fb 6a 40 8d 14 b3 40 bf c2 d2 40 52 0b a6 40
       3.6716251 5.5962586 6.5862727 5.188882
000020 59 c8 a9 40 d7 df cc be 56 db 63 40 08 0a cf 3f
       5.3057065 -0.40014526 3.5602622 1.6174936
000030 f7 14 07 3f 01 cb a5 40 cc 9a 87 bf 43 7a a7 40
       0.52766365 5.1810308 -1.0594115 5.2336745
000040 15 2e b4 40 ff db 83 3f 08 04 d8 40 84 27 57 40
       5.6306252 1.0301512 6.750492 3.3617868
000050 15 e9 84 40 49 db 90 bd 5a 59 8b bf b8 5b df 3f
       4.1534524 -0.07073075 -1.0886643 1.7449865
000060 58 c0 b6 be 74 5b 79 bf 5e 6d 9e 40 70 0d 06 40
       -0.35693622 -0.9740517 4.9508505 2.0945702
000070 b1 71 97 40 74 f9 3d 40 2b 2b 5d 3f ec 95 0c 41
       4.7326283 2.9683504 0.86393994 8.786602

static_variable_selection.single_variable_grns.pos.norm.bias f4 [32]
000000 1d f9 83 bc 32 bd 77 bf 6c 03 73 be 2f c3 1b 40
       -0.016109997 -0.96773064 -0.23731774 2.433788
000010 6c eb e7 3f b4 02 0d 40 0b f2 ba 3f ea e0 dd 3f
       1.811872 2.20329 1.4605116 1.7334263
000020 d7 d2 8e 3f 0d 97 00 c0 97 0a 14 c0 94 05 07 c0
       1.1158093 -2.0092194 -2.3131464 -2.1097155
000030 24 87 87 be b0 cb 82 bf f6 34 96 be 23 87 c6 be
       -0.26470292 -1.021841 -0.2933728 -0.38774976
000040 9f 22 ff 3d e8 bd fe bf 3c 45 0d 3f 4d 44 bd 3f
       0.12457775 -1.9901705 0.5518377 1.4786469
000050 57 40 e9 bd 53 3f 5e bf 5b 7f 3a 40 92 98 ad bc
       -0.11389225 -0.86815375 2.9140232 -0.021190915
000060 93 42 20 c0 a3 34 00 be 04 ad d5 3e d7 a0 bd be
       -2.5040634 -0.1252008 0.41733563 -0.37036774
000070 a2 54 51 bf ba e5 06 bf 10 8a 84 bf 07 7a cd bd
       -0.81769764 -0.52694285 -1.0354633 -0.100330405

static_variable_selection.single_variable_grns.cluster.mask f4 [32]
000000 9f 0e 7c c0 cd 12 11 c0 f8 2f 9f c0 b8 f9 a9 40
       -3.9383924 -2.2667725 -4.9746056 5.3117332
000010 34 36 47 3f 27 f6 81 c0 b5 32 9e c0 24 e6 97 c0
       0.7781708 -4.061298 -4.94369 -4.7468433
000020 ae 39 e0 c0 72 93 d8 40 81 44 ac c0 0d 45 ee 40
       -7.007041 6.7679987 -5.3833623 7.445929
000030 8f 3d 8a c0 a5 24 01 40 31 f9 8c bf 8d dd 5d c0
       -4.3200145 2.0178616 -1.1013547 -3.4666474
000040 f0 3e c3 3e 26 57 a1 bf 9a e6 bb 3f f8 4a 6d c0
       0.38133955 -1.260472 1.4679749 -3.7077007
000050 31 bb b5 bf a9 5c f8 c0 6f 8e 8f c0 ec d4 a2 c0
       -1.4197751 -7.761311 -4.486137 -5.0884914
000060 93 6a df c0 6b 45 92 c0 26 f7 16 bf 6a 21 93 40
       -6.9817595 -4.570974 -0.5897087 4.597829
000070 e1 69 75 c0 02 eb 37 c0 5a d6 87 c0 b3 80 43 bf
       -3.8345873 -2.8737187 -4.244916 -0.76368254

static_variable_selection.single_variable_grns.cluster.norm.weight f4 [32]
000000 f7 5c 9c bf ac 89 54 bf 3e aa 0e 3f 39 bc 56 40
       -1.2215871 -0.8302257 0.5572852 3.3552382
000010 e1 a8 24 40 89 97 9e be 1d 4b 3b c0 40 a4 4e bd
       2.5728076 -0.30974987 -2.9264596 -0.05044961
000020 9c af 54 3f f8 df c8 40 2d 71 61 3f 39 f6 ae 40
       0.8308046 6.27734 0.8806332 5.4675565
000030 32 50 6f 3e 68 40 7e 40 e1 07 48 40 60 34 72 be
       0.23370436 3.972681 3.125481 -0.23652792
000040 1a 75 5a 3f f6 99 bc bf ce 75 d7 3f cd 92 7b 40
       0.8533493 -1.4734485 1.6832826 3.930835
000050 05 ba 15 40 ec ac 93 3f 30 06 99 bf 75 12 58 3f
       2.3394787 1.1537147 -1.1955013 0.84403163
000060 37 d4 0a 40 ea 09 75 3e c3 b5 a3 40 72 5c 01 41
       2.1692026 0.23929563 5.1159377 8.08507
000070 24 2f 19 bf 96 0d b4 3f e3 3d b9 3c f9 b6 80 40
       -0.59837556 1.4066646 0.022612518 4.0223355
