hnam_experiments/Fit_and_Predict/models/Favorita/TFT/lightning_logs/version_4/checkpoints/model-initial-val_loss=0.80.ckpt (torch, 633158 bytes, 305 tensors)

input_embeddings.embeddings.national_holiday.weight f4 [178, 29]
0	0x3d93365d	0.07188103
1	0x3e1ac632	0.15114668
2	0xbda49790	-0.08036721
3	0xbddb7160	-0.10714984
4	0x3e93000a	0.28710967
5	0xbe164a23	-0.14676718
6	0x3ea0d9a9	0.31416062
7	0xc028c779	-2.6371748
8	0xbef245ea	-0.47318965
9	0xbeee55b0	-0.4654975
10	0x3d6edb27	0.05831447
11	0xbe332f9c	-0.1749863
12	0x3d5d3c11	0.054012362
13	0xbe8c4970	-0.27399778
14	0x3e7b8c28	0.24565184
15	0x3b1c2d2d	0.0023830638
16	0xba80e6ac	-0.000983437
17	0xbc8affd1	-0.016967686
18	0x3f78624a	0.9702498
19	0x3edd4bda	0.43221933
20	0x3d662917	0.05619153
21	0xbe984516	-0.29740208
22	0xbd7d910b	-0.061905902
23	0xbc5a84d1	-0.01333733
24	0xbc89afad	-0.016807402
25	0x3d547d74	0.051877454
26	0xbe13ce82	-0.14434245
27	0xbd0db934	-0.03460045
28	0x3e4a868d	0.1977789
29	0x3cbc0ee7	0.022956325
30	0x3c705d13	0.014670628
31	0x3ec8a61c	0.3918923
32	0xbea6bb2e	-0.32564682
33	0x3faf78e8	1.3708773
34	0xbe9c566d	-0.30534688
35	0x3f9d58a1	1.2292672
36	0xbedd7064	-0.4324981
37	0xbf66862d	-0.90048486
38	0x3de98fae	0.11404358
39	0x3d122bf8	0.035686463
40	0xbdf1fc4f	-0.11815702
41	0x3ea1d64c	0.31608808
42	0xbd832ab9	-0.06404633
43	0x3f02daa5	0.51114875
44	0x3e90829d	0.2822465
45	0x3c734fe8	0.014850594
46	0x3d530140	0.051514864
47	0xbe5b6991	-0.21426989
48	0xbe47aff6	-0.19500718
49	0xbf088b74	-0.5333779
50	0x3f9a1bf7	1.2039784
51	0x3f091151	0.5354205
52	0x3e66a6e8	0.22524607
53	0x3f3fb2a2	0.7488195
54	0x3e5030ce	0.20331118
55	0x3e0df800	0.13864136
56	0xbf8fd7cc	-1.1237731
57	0xbf028ec6	-0.50999105
58	0xbeda6350	-0.42653894
59	0x3ee864ea	0.4538949
60	0x3f5c0c8a	0.85956633
61	0x3f483cbd	0.7821768
62	0x3e872e29	0.26402405
63	0x3f8d9547	1.1061181
64	0xbf53b236	-0.82693803
65	0x3e391b45	0.18076809
66	0xbf04124c	-0.5159042
67	0xbf0e18d0	-0.5550661
68	0xbf278ebf	-0.6545219
69	0x3e3b1f84	0.18273741
70	0x3f04fef5	0.51951534
71	0x3db62ee6	0.08895664
72	0x3f877c95	1.0584894
73	0x3f335961	0.70058256
74	0xbd47a31d	-0.04873954
75	0xbf44419c	-0.7666261
76	0x3f5501d2	0.832059
77	0xbe478318	-0.19483602
78	0xbe44012e	-0.19141075
79	0x3f461101	0.77369696
80	0x3ea09142	0.31360823
81	0x3f033fbe	0.5126914
82	0xbd941476	-0.07230465
83	0x3e7b2c7f	0.24528693
84	0x3e892d96	0.26792592
85	0xbddd31fc	-0.108005494
86	0x3ee75864	0.45184624
87	0x3f48f3e9	0.7849718
88	0xbd9738c0	-0.07383871
89	0x3e4ad8ed	0.19809313
90	0x3eeebd6c	0.46628892
91	0x3f0dd4f1	0.5540305
92	0x3f7df35f	0.9919948
93	0xbeff3bb4	-0.49850237
94	0xbc7a4bf0	-0.015276894
95	0xbb071dd6	-0.002061715
96	0x3e0e8b57	0.13920341
97	0x3f2daafe	0.6783904
98	0x3e735ffb	0.23767082
99	0x3f25c9c6	0.64761007
100	0x3ea30f0d	0.3184742
101	0x3f463fd1	0.77441126
102	0x3d359342	0.04432989
103	0x3f62f8a5	0.8866065
104	0xbeecdc2a	-0.46261722
105	0x3ee9f84e	0.45697254
106	0x3f0d9021	0.5529805
107	0x3d27733f	0.04088139
108	0x3d41c229	0.047304306
109	0xbf0e0648	-0.55478334
110	0x3f03b90b	0.5145423
111	0x3eb44d79	0.35215357
112	0xbff45128	-1.9087267
113	0xbf027e50	-0.5097399
114	0x3f54343c	0.82892203
115	0x3f2a6e2f	0.66574377
116	0xbdd84dc7	-0.1056171
117	0x3e966eb1	0.29381326
118	0x3eb6ceb9	0.35704592
119	0x3f424d0e	0.75898826
120	0xbe5d0873	-0.21585254
121	0xbbdb8b93	-0.006699988
122	0x3f0dc901	0.5538483
123	0x3e181b74	0.14854223
124	0xbeff6a22	-0.4988566
125	0xbda2d28a	-0.079503134
126	0x3eb6e98c	0.35725057
127	0xbd1e6d16	-0.03867825
128	0x3e480378	0.19532573
129	0x3f99f03d	1.202644
130	0xbebd93d5	-0.3702685
131	0x3e0e9cb0	0.13926959
132	0x3ebd3cbf	0.36960408
133	0xbf878e63	-1.0590328
134	0xbe8e2529	-0.27762726
135	0xbe044075	-0.12915213
136	0xbe9ad68d	-0.30241814
137	0xbf1d3b1e	-0.6141833
138	0xbed4c7a0	-0.41558552
139	0xbe077012	-0.13226345
140	0xbe59d9f9	-0.21274556
141	0x3e3d32c1	0.18476392
142	0xbf0a9255	-0.54129535
143	0xbd299b7b	-0.041408043
144	0xbd803fdd	-0.06262181
145	0x3d8359dd	0.064136244
146	0x3f09bfbd	0.53808194
147	0xbf4bfffc	-0.79687476
148	0xbd2d6fea	-0.042343058
149	0x3e185ed1	0.1487992
150	0x3f572bb9	0.8405109
151	0xbf96873d	-1.1760021
152	0xbe5c4f62	-0.21514657
153	0x3f50f73f	0.8162727
154	0x3e3bddf3	0.18346386
155	0x3e71932f	0.23591302
156	0x3f65e485	0.8980182
157	0x3f2f57d6	0.684934
158	0xbf33c8bb	-0.70228165
159	0x3e8970c0	0.26843834
160	0xbf79a791	-0.9752131
161	0x3e991bd0	0.29904032
162	0x3e601903	0.21884541
163	0xbe9accab	-0.30234274
164	0x3f2433b7	0.6414141
165	0xbb09a9b9	-0.0021005704
166	0xbf17b2de	-0.59257305
167	0xbcb894b3	-0.022531843
168	0x3f4a5658	0.79038
169	0xbf27af56	-0.65501916
170	0xbeb8e669	-0.3611329
171	0xbeb73c1d	-0.3578805
172	0x3e925a72	0.2858463
173	0x3f5c488c	0.860482
174	0xbfae72d2	-1.362879
175	0xbe94af5d	-0.29040042
176	0x3ed54c68	0.41659856
177	0xbf6de501	-0.9292756
178	0xbdc7611d	-0.0973532
179	0xbce2cc97	-0.027685447
180	0xbe8e480f	-0.2778935
181	0xbe73cc2a	-0.23808351
182	0x3f977f8a	1.1835797
183	0xbf31a32b	-0.693896
184	0x3d33fdc7	0.043943193
185	0x3ec83839	0.39105394
186	0x3d4fa47b	0.05069397
187	0xbf1cc176	-0.612327
188	0x3df89f4d	0.12139759
189	0x3f7a44e0	0.97761345
190	0xbd4bfaeb	-0.04979984
191	0x3efdea6f	0.4959292
192	0x3df616e0	0.12016082
193	0x3ec57a92	0.38570076
194	0xbd88985a	-0.06669684
195	0xbf8b99c8	-1.0906305
196	0x3ee33a5e	0.44380468
197	0xbc3e1ffe	-0.011604307
198	0x3ea42d51	0.32065824
199	0x3e76319b	0.2404236
200	0x3c2fe95b	0.010736789
201	0x3e791538	0.243245
202	0x3cead6d7	0.028666897
203	0x3e559dba	0.20860949
204	0x3e3669d8	0.17813814
205	0xbe98c572	-0.2983814
206	0x3d00e886	0.03147175
207	0x3fb5b150	1.4194736
208	0x3f0f3c94	0.5595181
209	0x3d467d43	0.048459303
210	0x3f21154f	0.6292314
211	0x3f02f380	0.511528
212	0x3f953954	1.165812
213	0x3f03ffd3	0.5156223
214	0x3e638cc6	0.2222167
215	0xbd355e7f	-0.04427957
216	0x3e215176	0.15753731
217	0x3ee02677	0.43779346
218	0xbf1768f6	-0.5914453
219	0xbf7c4fc6	-0.98559225
220	0xbeab2595	-0.3342711
221	0x3f1830f5	0.594497
222	0xbee161fb	-0.44020066
223	0xbee8f03d	-0.45495787
224	0xbe5d91c0	-0.2163763
225	0x3e031bad	0.12803526
226	0x3d7890b6	0.060684882
227	0xbd0874ee	-0.033314638
228	0xbe8b6880	-0.27228165
229	0xbe739b34	-0.23789674
230	0xbf18a6ac	-0.5962932
231	0xbf0802c7	-0.5312924
232	0x3f7d4fab	0.9894969
233	0x3dabc1f7	0.08386605
234	0x3d0dc8d7	0.034615364
235	0xbdeaecc5	-0.114709415
236	0x3f06b651	0.5262194
237	0x3f243ac8	0.64152193
238	0xbea9280b	-0.33038363
239	0xbe471b83	-0.19444089
240	0xbe9af1da	-0.30262643
241	0x3f142744	0.57872415
242	0xbf07948f	-0.5296106
243	0xbf55b918	-0.83485556
244	0xbe36151e	-0.17781493
245	0xbf230697	-0.6368193
246	0xbdedfae3	-0.116201185
247	0x3f190d0f	0.5978555
248	0xbdef4da1	-0.116847284
249	0x3d3f4fc5	0.046706934
250	0x3f0d2d85	0.5514758
251	0x3e8de71e	0.2771539
252	0xbeedc98e	-0.46442837
253	0xbec1386f	-0.37738368
254	0x3f8d577f	1.1042327
255	0x3dda9c9f	0.10674404

input_embeddings.embeddings.regional_holiday.weight f4 [19, 8]
0	0xbc10f83c	-0.008848246
1	0xbed6b357	-0.419337
2	0x3c5020f7	0.012703172
3	0x3cca4ab8	0.024693832
4	0x3cfa76b9	0.03057419
5	0x3cd8895d	0.026432687
6	0xbd12cda4	-0.035840645
7	0xbc357a97	-0.011076591
8	0x3e8a0701	0.2695847
9	0xbdac6dd3	-0.08419385
10	0x3d8c6543	0.06855252
11	0x40407e12	3.0076947
12	0x3fa00730	1.2502193
13	0xbf986603	-1.1906132
14	0x3fdb6900	1.7141418
15	0xc086f88d	-4.2178407
16	0x3d68f8eb	0.05687801
17	0xbd5cd6e5	-0.053915877
18	0xbc443377	-0.011975161
19	0xc021cf67	-2.5282838
20	0xc0943b5f	-4.6322474
21	0xc02bbf55	-2.683553
22	0x401342c0	2.300949
23	0x40869319	4.2054563
24	0xbd4cc88c	-0.049995944
25	0x3cb36c87	0.021902336
26	0xbd428332	-0.0474884
27	0xbd1bc659	-0.038030956
28	0xbf30470f	-0.68858427
29	0xbf84e5ce	-1.0382631
30	0x4089b4d4	4.3033237
31	0x3ff83e6b	1.9394048
32	0x3d54d94c	0.051965043
33	0x3e197ba2	0.14988568
34	0xbdb74c98	-0.08950156
35	0xbf92efe2	-1.1479456
36	0x3e3a80c1	0.18213178
37	0x3fb8d28c	1.4439254
38	0xbffed766	-1.9909484
39	0x3f4479d4	0.76748395
40	0x3db2b6a3	0.087262414
41	0x3df93963	0.12169149
42	0x3d97fcb2	0.07421245
43	0x3fb06ca0	1.378315
44	0xbd4e8af2	-0.050425477
45	0xbfa4900a	-1.2856457
46	0x3ff3d2d1	1.9048711
47	0xbe1d603e	-0.15368745
48	0x3ca08aa1	0.019597353
49	0x3e4f0b98	0.20219266
50	0x3ee80254	0.45314276
51	0xc00c5277	-2.1925333
52	0xbf174588	-0.5909047
53	0x404a3820	3.1596756
54	0xc002fe26	-2.046762
55	0x3faf2e6e	1.3686044
56	0xbca7908e	-0.020454671
57	0x3af86a06	0.0018952496
58	0xbc8f49a8	-0.017491177
59	0x3ebe418a	0.37159377
60	0xbea275f9	-0.3173063
61	0x3e399cec	0.18126267
62	0x406f6400	3.7404785
63	0x403c7999	2.9449217
64	0x3c965ab8	0.018353805
65	0x3d946b0e	0.072469816
66	0x3ca37f1e	0.019958075
67	0x3e2f4377	0.1711558
68	0xbf9ea3d3	-1.2393745
69	0x3e89348e	0.2679791
70	0x4074f69f	3.8275526
71	0x4066710c	3.6006498
72	0x3cce0627	0.025149418
73	0xbc174014	-0.009231586
74	0x3d180d40	0.03712201
75	0x3d2aace8	0.041668802
76	0xc0075195	-2.1143544
77	0x3e8d0649	0.27543858
78	0x40663259	3.596823
79	0x4041db84	3.0290232
80	0xbd3f4607	-0.046697643
81	0xbd7fd6ac	-0.062460586
82	0xbd55c694	-0.052191332
83	0xbe29afbb	-0.16570942
84	0xbfd08140	-1.6289444
85	0x3ecee31a	0.4040764
86	0x40725142	3.7862096
87	0x40673065	3.6123288
88	0xbd3355e7	-0.043783095
89	0xbce291b9	-0.027657377
90	0xbd291e57	-0.0412887
91	0x3d27711d	0.040879358
92	0x3e5f0d18	0.21782339
93	0x3e890be0	0.26766872
94	0xc0552dc4	-3.3309183
95	0xbfa867fa	-1.3156731
96	0x3b813d04	0.003944041
97	0x3aaf041c	0.0013352665
98	0x3b3299df	0.002725236
99	0xbdc8f173	-0.09811678
100	0xbf89d559	-1.0768234
101	0xbe1109f6	-0.14163956
102	0x404d265d	3.2054665
103	0x40158e92	2.3368268
104	0x3dcce6a0	0.10004926
105	0xbc69f28e	-0.014279021
106	0x3ddbe451	0.10736907
107	0xbf804dc1	-1.0023729
108	0xbfc51209	-1.5396129
109	0x3f998ec0	1.1996689
110	0x40685802	3.6303716
111	0x40147bd9	2.320059
112	0x3c32a899	0.010904455
113	0xbcbc4f5a	-0.022987057
114	0xbcae6b78	-0.02129148
115	0xbfb6502c	-1.4243217
116	0x3f8c1631	1.0944272
117	0x3fd39c26	1.6532028
118	0x3ed3260c	0.41239965
119	0x3f5991ff	0.849884
120	0x3db5e924	0.08882359
121	0x3dc38108	0.09546095
122	0x3e198467	0.14991914
123	0xbf5b7d13	-0.85737723
124	0x3f4c00f1	0.79688936
125	0x3fa78dbe	1.3090131
126	0xbf94ee83	-1.1635288
127	0xbfe976db	-1.8239397
128	0xbe0282c7	-0.127452
129	0xbaae17c5	-0.001328223
130	0xbe799c29	-0.24375977
131	0xc0121ce6	-2.2830138
132	0xbff6b3cf	-1.9273623
133	0xbe08144a	-0.1328899
134	0x3eeb1d34	0.45920718
135	0xbc498721	-0.012300284
136	0x3ca8f07e	0.020622488
137	0xbd57d035	-0.052688796
138	0x3c615589	0.013753303
139	0x3f8f3406	1.1187751
140	0xbe600f09	-0.21880735
141	0xbfba8303	-1.4571232
142	0x3f86c81e	1.0529821
143	0xbfaa8422	-1.3321574
144	0x3e2e6abf	0.17032908
145	0xbbcdec8e	-0.006284303
146	0x3e52da4a	0.20591083
147	0xbf816a22	-1.0110514
148	0xbf802809	-1.0012218
149	0xbfa9bf16	-1.326144
150	0x3ffeee85	1.991654
151	0xbc3bebe2	-0.011469813

input_embeddings.embeddings.local_holiday.weight f4 [115, 23]
0	0x3c1f41c6	0.009720271
1	0x3d4f066c	0.050543234
2	0xbf208f66	-0.6271881
3	0xbde2473c	-0.11048743
4	0x3d46c0a5	0.048523564
5	0xbc2a8b9d	-0.010409263
6	0x3d97bb3b	0.07408758
7	0x3ddbef0f	0.10738956
8	0x3bb15b2a	0.005412479
9	0x4054fb7e	3.3278499
10	0x3c9d7ac0	0.01922357
11	0x3c888190	0.016663343
12	0xbce1865c	-0.027529888
13	0x3c5741e8	0.013138272
14	0xbd287807	-0.041130092
15	0xbca82443	-0.020525103
16	0xbdfea55f	-0.12433886
17	0xbd1084a5	-0.03528275
18	0xbd1efd60	-0.038815856
19	0xbdc67590	-0.09690392
20	0x3ccc3191	0.024925979
21	0x3d9ba07c	0.07598969
22	0xbd1ee813	-0.038795542
23	0x3ec6a00e	0.38793987
24	0x3f2d44ae	0.6768292
25	0xbca61abe	-0.020276424
26	0xbdaece89	-0.08535487
27	0xbe955cd5	-0.29172388
28	0xbe7fab35	-0.24967654
29	0xbf1c96a4	-0.6116736
30	0xbf26cd1c	-0.6515672
31	0x3ee025ef	0.4377894
32	0x3bc79da2	0.0060917893
33	0x3d995249	0.07486398
34	0xbe218f1f	-0.15777253
35	0x3f1c9336	0.61162126
36	0xbf70c13e	-0.94044864
37	0x3e84b540	0.25919533
38	0xbea5c9d3	-0.32380542
39	0xbf0ade64	-0.5424559
40	0x3f5c0425	0.85943824
41	0xbe94908c	-0.2901653
42	0x3d6c9bd7	0.057765808
43	0xbec4f0af	-0.38464877
44	0xbe8836b0	-0.26604223
45	0xbf8590db	-1.0434831
46	0x3f411077	0.7541575
47	0x3eb1ac9f	0.34702012
48	0x3d1c107e	0.038101666
49	0x3e9712fe	0.29506677
50	0xbfaa5042	-1.3305743
51	0xbf301e02	-0.6879579
52	0x3eb2d965	0.34931484
53	0xbd59f20e	-0.053209357
54	0x3f306e25	0.6891807
55	0xbe88de54	-0.26732123
56	0xbe72d69a	-0.23714676
57	0xbdf63eee	-0.12023722
58	0xbe9b70cc	-0.30359495
59	0xbde6bb89	-0.11266238
60	0x3e854022	0.26025492
61	0x3e1e9d8a	0.15489784
62	0xbe8801cf	-0.2656388
63	0xbf277dc0	-0.65426254
64	0xbf1b9061	-0.6076718
65	0xb6db938e	-6.5438862e-06
66	0xbdbab0fd	-0.09115789
67	0x3f365759	0.7122703
68	0x3dd904fb	0.10596653
69	0x3f478312	0.7793437
70	0xbf578bd1	-0.8419772
71	0x3e05109b	0.12994616
72	0xbf1c826d	-0.61136514
73	0x3e3e9057	0.18609749
74	0xbf04e525	-0.51912147
75	0x3e7036d2	0.23458412
76	0x3ea87580	0.32902145
77	0x3f136880	0.5758133
78	0x3e6ae40e	0.22938558
79	0xbf2dcbda	-0.6788918
80	0xbfcff0e1	-1.6245385
81	0x3ee1d089	0.44104412
82	0xbea15976	-0.31513566
83	0xbf25cd78	-0.64766645
84	0x3d64b89f	0.05584013
85	0x3e3931b7	0.18085371
86	0xbe6d84f5	-0.2319525
87	0xbee1aeab	-0.44078574
88	0x3e64679d	0.2230515
89	0xbee939f2	-0.4555202
90	0x3ed7c77e	0.42144388
91	0xbd24688e	-0.040138774
92	0x3e48e600	0.19618988
93	0xbf7e39a3	-0.99306697
94	0x3ee3b3f0	0.4447322
95	0xbe258a89	-0.16166128
96	0x3efc54c8	0.49283433
97	0xbd06443a	-0.03277991
98	0x3f4e3a6f	0.8055791
99	0x3d5fdb90	0.05465275
100	0xbe2e0926	-0.16995677
101	0x3e455ae8	0.19272959
102	0x3d9c8dab	0.076442085
103	0xbe943157	-0.28943893
104	0xbea5bc76	-0.32370347
105	0x3e4ab40d	0.19795246
106	0x3f8b953f	1.0904921
107	0xbf85ee61	-1.0463372
108	0xbe64ffce	-0.22363207
109	0x3e3a7b32	0.18211058
110	0x3f7aca9d	0.97965413
111	0xbe92d6ef	-0.28679606
112	0xbe01e584	-0.1268521
113	0x3f152c6a	0.58270895
114	0xbf5cf1a5	-0.8630622
115	0x3ef9936d	0.4874529
116	0xbf36d032	-0.7141143
117	0x3f1b544a	0.6067549
118	0x3e40985a	0.18808118
119	0x3e0955d0	0.13411641
120	0xbeba73c8	-0.3641646
121	0x3f50a745	0.81505233
122	0xbe3cff9d	-0.18456884
123	0xbea24574	-0.31693614
124	0x3cd5ea2d	0.02611264
125	0xbf162476	-0.58649385
126	0xbf3e7925	-0.744036
127	0xbed0be09	-0.40769985
128	0x3dff6db2	0.124720946
129	0x3f78e217	0.97219986
130	0xbf8f21db	-1.1182207
131	0xbe992828	-0.2991345
132	0x3dc88bb1	0.09792269
133	0xbec3ccca	-0.3824218
134	0xbe3e0358	-0.18555963
135	0x3caa1193	0.020760333
136	0xbe9fb63d	-0.31193724
137	0xbf262cc7	-0.64912075
138	0x3f154f39	0.5832401
139	0xbfaa63ab	-1.3311666
140	0x3eb26832	0.3484512
141	0xbf032db2	-0.512416
142	0x3d856169	0.0651272
143	0xbe4266ec	-0.18984574
144	0xbe505c03	-0.203476
145	0xbe904888	-0.28180337
146	0xbebb505c	-0.36584747
147	0x3e8efdc6	0.2792799
148	0x3f5706e8	0.83994913
149	0x3f363851	0.7117968
150	0x3f054ce6	0.5207046
151	0xbf36f6db	-0.7147042
152	0x3f16d512	0.5891887
153	0x3f381a0d	0.7191475
154	0x3e1c294b	0.15250127
155	0xba5140cb	-0.0007982372
156	0xbd9e1210	-0.07718289
157	0x3e1e36b0	0.15450549
158	0x3ee2083b	0.44146904
159	0x3f197a2e	0.59952056
160	0x3db6371b	0.08897229
161	0x3f47beca	0.78025496
162	0xbebed1a8	-0.3726933
163	0x3eb83d01	0.35984042
164	0x3e85c533	0.26127014
165	0xbeeaeef3	-0.4588543
166	0x3f8852ee	1.0650308
167	0x3edc19ec	0.42988527
168	0x3d9ec448	0.077522814
169	0x3e8eb01e	0.27868742
170	0x3ea60810	0.32428026
171	0x3efbf927	0.49213526
172	0x3ed33ccb	0.4125732
173	0x3f6429d6	0.89126337
174	0xbe7a28b1	-0.24429585
175	0xbec77e55	-0.3896357
176	0xbdc1a304	-0.09454921
177	0x3a91d91e	0.0011127328
178	0x3f0ce7e0	0.55041313
179	0xbf195ba9	-0.5990549
180	0xbe8cd7a3	-0.27508268
181	0x3e50d946	0.20395383
182	0x3f37e168	0.7182832
183	0x3f89846e	1.0743539
184	0x3deca3de	0.11554693
185	0xbed93300	-0.42421722
186	0xbdc328b4	-0.09529248
187	0x3e2dc0e3	0.16968112
188	0x3f237ec8	0.6386533
189	0x3e16d669	0.14730228
190	0xbf2464ef	-0.6421651
191	0xbe936391	-0.287869
192	0x3ed1e295	0.4099318
193	0x3e16e76b	0.14736716
194	0xbdf0317e	-0.1172819
195	0xbe8d4825	-0.27594104
196	0xbf7dc800	-0.991333
197	0x3eb8bf35	0.3608338
198	0x3dd6d284	0.104893714
199	0xbeda8bd0	-0.42684793
200	0xbd3e49cf	-0.046457108
201	0xbd8421c7	-0.06451755
202	0x3f702be4	0.9381697
203	0x3e4f46d8	0.20241868
204	0x3eff6832	0.49884182
205	0x3f0271c0	0.5095482
206	0xbf1de07d	-0.61670667
207	0x3eaf77e2	0.3427115
208	0x3e24e7d4	0.1610406
209	0xbde9b18a	-0.11410816
210	0x3f17d316	0.59306467
211	0x3f80ee25	1.0072676
212	0x3ed0363a	0.40666372
213	0xbcf68eca	-0.030097384
214	0xbde02d43	-0.10946133
215	0xbe06271c	-0.13100857
216	0xbe9bccdf	-0.30429742
217	0xbf370599	-0.71492916
218	0xbed890a1	-0.42297843
219	0xbf06a183	-0.525902
220	0x3e2b9e3f	0.16759585
221	0xbe85372c	-0.26018655
222	0xbe7341a0	-0.23755503
223	0x3f802607	1.0011605
224	0xbd91108f	-0.070832364
225	0x3e991f7a	0.29906827
226	0x3e0e6e31	0.13909222
227	0xbe236670	-0.15957046
228	0xbf578ec5	-0.84202224
229	0x3f57be61	0.8427487
230	0x3ecb8b45	0.39754692
231	0x3e9d881c	0.30767906
232	0x3e39736c	0.18110436
233	0x3f2dd6f8	0.6790614
234	0x3e254d73	0.16142826
235	0x3f1978b0	0.5994978
236	0x3dac8108	0.08423048
237	0xbe1d6bbf	-0.15373133
238	0xbed7d34e	-0.421534
239	0xbc140be2	-0.009036036
240	0xbe417837	-0.18893515
241	0x3e1ade03	0.15123753
242	0xbf4f9b87	-0.8109669
243	0x3e98c85e	0.29840368
244	0xbf37fe53	-0.7187244
245	0xbf3b0e4a	-0.7306868
246	0x3f5cc60c	0.86239696
247	0x3eff6e8a	0.49889022
248	0x3e291800	0.16513062
249	0xbf40f188	-0.7536855
250	0xbded30c7	-0.11581569
251	0x3d7fbbb9	0.062434886
252	0x3ee5cd47	0.44883177
253	0xbc8dc51a	-0.0173059
254	0xbed03b87	-0.40670416
255	0xbf0c8553	-0.54890937

input_embeddings.embeddings.art.weight f4 [174, 29]
0	0xbf02f861	-0.51160246
1	0xbf9e0aa8	-1.2347002
2	0x3f1fcc1d	0.6242083
3	0xbf2c81e0	-0.67385674
4	0xbf040390	-0.51567936
5	0xbeaecd8f	-0.34141204
6	0xbe979db5	-0.29612508
7	0xbe9c6f80	-0.30553818
8	0x3f138709	0.5762792
9	0x3ec58f53	0.3858591
10	0x3f00f238	0.50369596
11	0x3edf07b6	0.4356057
12	0xbdc73b9d	-0.09728167
13	0xbe6f9487	-0.23396502
14	0xbe6e42a1	-0.23267604
15	0xbf1a3253	-0.6023304
16	0xbf1af498	-0.6052947
17	0x3f137358	0.57597876
18	0xbda48152	-0.080324784
19	0x3f05812a	0.52150214
20	0x3f1e1f7d	0.617668
21	0xbe691288	-0.22760975
22	0xbe214bde	-0.15751597
23	0xbe21076a	-0.15725484
24	0x3e29ada8	0.16570151
25	0x3e74fb64	0.23924023
26	0x3e5cee5b	0.215753
27	0x3c846dae	0.01616558
28	0xbe1f693f	-0.15567492
29	0x3f5cf041	0.863041
30	0x3f37d8f6	0.7181543
31	0xbe4309b7	-0.19046675
32	0xbe62e27b	-0.22156708
33	0xbee54178	-0.4477651
34	0xbec887c6	-0.39166087
35	0x3d560832	0.05225391
36	0x3d36bb61	0.044612292
37	0x3ed9ebb3	0.42562637
38	0xbf71a129	-0.94386536
39	0xbd257135	-0.040391166
40	0x3d84b50e	0.06479846
41	0x3e2d04f3	0.16896419
42	0x3f8b6502	1.08902
43	0x3f8ad6bf	1.0846785
44	0x3d88b006	0.06674199
45	0x3d732677	0.059362855
46	0xbe8c8bb6	-0.2745034
47	0xbf05788a	-0.52137053
48	0xbefcf5de	-0.49406332
49	0x3dcbdddf	0.09954428
50	0x3f64efb4	0.8942826
51	0xbd96b0c0	-0.07357931
52	0x3dfae57b	0.12250801
53	0x3de50764	0.1118305
54	0xbeedb2be	-0.46425432
55	0xbf595453	-0.84894294
56	0x3e9b4179	0.3032339
57	0x3f0ca179	0.5493389
58	0x3f1484c1	0.58015066
59	0x3f14796e	0.57997787
60	0xbe54e747	-0.2079135
61	0xbe4684da	-0.19386616
62	0xbf09d5bb	-0.5384175
63	0xbf0450cd	-0.5168579
64	0xbeddac90	-0.43295717
65	0xbed227ac	-0.41045892
66	0xbfcf36cf	-1.6188601
67	0xbfa5caed	-1.2952553
68	0xbd80d7a5	-0.06291131
69	0x3d151779	0.03639934
70	0x3edc48dd	0.4302434
71	0x3f065239	0.5246921
72	0x3f04738e	0.5173882
73	0x3d6f2239	0.058382247
74	0x3d8379ca	0.06419714
75	0x3df8b498	0.121438205
76	0xbe423d74	-0.18968755
77	0xbebf1564	-0.37321007
78	0xbe14d6a4	-0.14535004
79	0x3ebb7e4c	0.36619794
80	0x3e547e68	0.20751345
81	0x3ea672c3	0.3250943
82	0xbd93a8de	-0.07209943
83	0xbd3020eb	-0.043000143
84	0xbeb0cb2f	-0.34530017
85	0x3e455b0e	0.19273016
86	0x3d69ca86	0.057077907
87	0x3eaecd55	0.3414103
88	0xbda1feec	-0.079099506
89	0x3f05fbfe	0.52337635
90	0xbe8ffcee	-0.28122658
91	0x3c9e7846	0.01934446
92	0x3cb1ab78	0.021688208
93	0x3cc188d6	0.023624819
94	0x3ba67320	0.005079642
95	0xbd9c7cf4	-0.076410204
96	0xbbd508cf	-0.006501294
97	0x3e87a34f	0.26491782
98	0x3f15c0db	0.584974
99	0x3f36630c	0.71244884
100	0x3ecbfe48	0.3984244
101	0x3ed2fb3c	0.41207302
102	0xbeccd0f8	-0.4000318
103	0xbec76614	-0.38945067
104	0xbf539a7c	-0.826576
105	0x3dbb9509	0.091592856
106	0x3f597d18	0.849565
107	0x3f97fdde	1.1874349
108	0x3f4f7159	0.8103233
109	0x3e810e2e	0.2520613
110	0xbe94f258	-0.29091144
111	0xbf4701e5	-0.77737266
112	0x3e2559c7	0.16147529
113	0xbc63483b	-0.013872202
114	0xbf16305a	-0.5866753
115	0xbef4d869	-0.47821358
116	0x3df7fc3b	0.12108656
117	0x3e979a27	0.29609796
118	0xbe3874b3	-0.18013267
119	0xbecf583e	-0.4049701
120	0x3f86564a	1.0495083
121	0x3f945c60	1.1590691
122	0x3e848c64	0.2588836
123	0x3e8e77ee	0.27825874
124	0xbf1dd656	-0.61655176
125	0x3d88c9ce	0.06679116
126	0xbeb4e31e	-0.35329527
127	0xbeed2a0b	-0.4632114
128	0xbeb1ff56	-0.34765118
129	0x3e16ef01	0.1473961
130	0x3e018d1c	0.12651485
131	0xbf225158	-0.6340537
132	0xbf22aaa6	-0.6354164
133	0x3e21dcbe	0.15806863
134	0xbd4abe1e	-0.049497716
135	0xbe55672b	-0.20840137
136	0xbeeec46f	-0.46634242
137	0xbf09f398	-0.5388732
138	0xbee0f5ed	-0.43937626
139	0xbec97fd0	-0.39355326
140	0x3edc8035	0.43066564
141	0x3ead0663	0.33793935
142	0x3e55db79	0.20884503
143	0xbe79e39b	-0.24403231
144	0xbf19b1df	-0.60037035
145	0xbead8b33	-0.33895263
146	0x3dd3b80e	0.1033784
147	0xbdbfd6df	-0.09367155
148	0xbf85fc61	-1.0467645
149	0xbe100af6	-0.14066681
150	0x3de48e4f	0.11159956
151	0xbd894880	-0.067032814
152	0xbd7e1e73	-0.062040757
153	0xbf89888f	-1.0744799
154	0xbd75f64b	-0.060049336
155	0x3d28167e	0.041037075
156	0xbd4a0a72	-0.049326368
157	0xbf84f050	-1.0385838
158	0xbf555c83	-0.83344287
159	0xbf57ddd0	-0.84322834
160	0xbe9d4024	-0.30712998
161	0xbea19f67	-0.31566927
162	0x3ec2f224	0.38075364
163	0xbefda214	-0.49537718
164	0xbf097fd1	-0.5371066
165	0xbf12ddd3	-0.57369727
166	0xbead00e6	-0.33789748
167	0xbe07f522	-0.13277104
168	0x3ead7801	0.33880618
169	0x3ee40d3c	0.44541347
170	0x3e005b40	0.12534809
171	0x3e51229b	0.20423357
172	0x3f1b30dd	0.60621434
173	0x3d389832	0.04506702
174	0xbe71e1aa	-0.2362124
175	0x3f651cb7	0.8949694
176	0x3e33b0f7	0.17547975
177	0x3f1f0ffa	0.62133753
178	0xbdfb86eb	-0.12281593
179	0xbe5fc086	-0.21850786
180	0xbe31cc73	-0.17363147
181	0xbe322a90	-0.17399049
182	0x3f0bc16b	0.5459201
183	0xbf370a1d	-0.71499807
184	0xbf0ae003	-0.54248065
185	0xbea45ca5	-0.32101932
186	0x3ee960c2	0.45581633
187	0xbf3dc042	-0.7412149
188	0xbf40e29c	-0.7534578
189	0x3e026663	0.1273437
190	0x3e0b5118	0.13605154
191	0x3f09948b	0.53742284
192	0x3e601fe8	0.21887171
193	0x3fa1abb9	1.263053
194	0x3f222b48	0.6334729
195	0xb825b8bc	-3.9511113e-05
196	0x3e8d9ba6	0.27657813
197	0xbe3db6b2	-0.18526724
198	0x3e7f8b61	0.24955513
199	0x3f082cd1	0.53193384
200	0x3e80a620	0.25126743
201	0x3f01b0d3	0.5066044
202	0x3f1efdfd	0.62106305
203	0x3ebdfd6f	0.37107417
204	0x3f13beba	0.577129
205	0xbc8d9ada	-0.017285753
206	0x3f0a4870	0.5401678
207	0xbf15789a	-0.5838715
208	0xbf361909	-0.7113195
209	0xbf2e249c	-0.6802461
210	0xbf2af655	-0.6678212
211	0xbe4e1158	-0.20123804
212	0xbfbce100	-1.4756165
213	0x3d5c0689	0.05371717
214	0x3e938fc4	0.28820622
215	0x3ec55f8b	0.38549456
216	0x3e575db8	0.21031845
217	0x3e5521ad	0.20813628
218	0x3e4025be	0.18764398
219	0x3e46c980	0.19412804
220	0x3f3ab3e1	0.72930723
221	0xbe570e70	-0.21001601
222	0xbec2f413	-0.3807684
223	0x3e27f57f	0.16402243
224	0x3f134503	0.5752718
225	0x3e036ed4	0.12835246
226	0xbe101e93	-0.14074163
227	0x3ec20af5	0.37898985
228	0x3e57193a	0.21005717
229	0x3d0bce1b	0.034132104
230	0x3f0ce140	0.55031204
231	0x3f349284	0.70536065
232	0xbe6bd111	-0.23028971
233	0xbf35991d	-0.7093676
234	0xbf4d6453	-0.8023121
235	0x3e0d5ed5	0.13805707
236	0xbdfd62f3	-0.12372389
237	0xbe1b094c	-0.15140265
238	0x3ed24555	0.4106852
239	0x3ed0f1c7	0.4080946
240	0x3ec74032	0.38916165
241	0xbc807c4d	-0.015684271
242	0xbe347125	-0.17621286
243	0xbf00ed50	-0.5036211
244	0xbf88a519	-1.0675384
245	0xbd6291c8	-0.05531481
246	0xbd4e7e5e	-0.050413482
247	0xbd25fa61	-0.040521983
248	0xbd326b82	-0.04355956
249	0x3f62f8ef	0.8866109
250	0x3f058c55	0.52167255
251	0x3e1ceacc	0.15323943
252	0x3bb7ca62	0.0056088427
253	0xbd8a2a01	-0.06746293
254	0xbdfb1fc8	-0.12261921
255	0x3ecd84bf	0.4014034

input_embeddings.embeddings.pos.weight f4 [45, 13]
0	0x3d79e558	0.061009735
1	0x3d8bd998	0.06828612
2	0xbeade492	-0.33963448
3	0x3e8685fc	0.26274097
4	0xbed6693b	-0.4187716
5	0xbed24577	-0.41068622
6	0xbf93378f	-1.150133
7	0xbf4d5cf0	-0.80219936
8	0x3f2780ed	0.654311
9	0xbe2ade61	-0.16686393
10	0xbedc5f6e	-0.43041557
11	0xbe9f56f4	-0.31121027
12	0x3e061e18	0.13097417
13	0x3eb48672	0.35258824
14	0x3e384ec9	0.17998804
15	0xbe383dbf	-0.17992304
16	0x3d00f22d	0.031480957
17	0xbf8480d7	-1.0351819
18	0x3eb38e10	0.35069323
19	0xbe7123bd	-0.2354879
20	0x3f2bb3fe	0.6707152
21	0x3f0dada7	0.553431
22	0x3d041d0b	0.03225426
23	0xbe9f680f	-0.31134078
24	0xbf081cf7	-0.53169197
25	0xbec45b5c	-0.38350952
26	0xbec2d337	-0.3805177
27	0xbe2c2af4	-0.1681326
28	0x3d2063f1	0.03915781
29	0x3d70e6af	0.058813747
30	0x3e2604dc	0.16212791
31	0xbf4d74d9	-0.8025642
32	0xbf223931	-0.6336852
33	0x3f4b1fbb	0.7934529
34	0x3f0b0868	0.543097
35	0xbd4a82de	-0.04944121
36	0x3d066cb9	0.03281853
37	0x3e948f06	0.29015368
38	0xbe3b4e1e	-0.18291518
39	0xbf0b5825	-0.5443137
40	0xbf561330	-0.8362303
41	0x3ed2ca6c	0.4117006
42	0xbea24841	-0.3169575
43	0x3f315c9b	0.6928193
44	0xbef1df24	-0.47240555
45	0xbe7fe5a6	-0.24989948
46	0xbc344bcc	-0.0110043995
47	0xbebd0f8e	-0.3692593
48	0x3f6fcea5	0.9367469
49	0xbe57532f	-0.21027826
50	0xbedd17b9	-0.4318216
51	0xbe8809f5	-0.26570097
52	0xbf7a5c6a	-0.9779726
53	0x3c707e33	0.014678526
54	0xbf7f209a	-0.9965912
55	0x3f034f5c	0.5129297
56	0xbe9e2605	-0.30888382
57	0x3cb7f167	0.022453977
58	0xbf0df808	-0.5545659
59	0x3c57f025	0.0131798135
60	0xbf2335d8	-0.63754034
61	0x3dd30ed3	0.10305562
62	0xbd1f3175	-0.038865525
63	0xbf6c3c89	-0.9227987
64	0xbe36da04	-0.17856604
65	0xbf5617b8	-0.8362994
66	0x3d864a8d	0.06557188
67	0x3ccec3ef	0.025239913
68	0x3e2b9f0c	0.1675989
69	0x3e139ff6	0.14416489
70	0xbf17add8	-0.5924964
71	0xbecda35f	-0.40163705
72	0xbd88e790	-0.06684792
73	0xbf070ab0	-0.5275068
74	0x3f057243	0.52127475
75	0xbf321a47	-0.69571346
76	0xbf48c884	-0.7843096
77	0x3e50d2d4	0.20392925
78	0xbf814b77	-1.0101155
79	0x3eb54fc6	0.35412425
80	0xbe985591	-0.29752782
81	0xbf1a4d0b	-0.6027381
82	0xbeed6e36	-0.46373147
83	0xbf0fa2ef	-0.5610799
84	0xbf1485dc	-0.58016753
85	0xbee30df5	-0.44346586
86	0xbeb376af	-0.35051486
87	0x3efc1258	0.49232745
88	0x3ddb6373	0.10712328
89	0xbdb9573e	-0.09049843
90	0xbea85d92	-0.32883888
91	0xbea7af9b	-0.32751164
92	0x3e0b5247	0.13605605
93	0xbd5de378	-0.05417201
94	0x3ec11ad2	0.37715775
95	0xbf335239	-0.70047337
96	0x3f0e8c97	0.55683273
97	0xbf1c30d8	-0.6101203
98	0xbe970af3	-0.2950054
99	0xbc2626c2	-0.0101410765
100	0x3e95da58	0.29268146
101	0xbf5833cc	-0.84454036
102	0xbd46ce7d	-0.048536766
103	0xbf468663	-0.7754881
104	0xbf103672	-0.56333077
105	0x3ec56fd9	0.38561895
106	0xbd27a1fe	-0.040925972
107	0x3f1775cc	0.5916412
108	0xbd64af49	-0.055831227
109	0x3e60d211	0.21955134
110	0x3ea5db38	0.32393813
111	0xbf23e6ad	-0.6402386
112	0x3e807094	0.2508589
113	0xbf5e6ebd	-0.86887723
114	0xbf855558	-1.041667
115	0x3e7fe59e	0.24989936
116	0x3d0e2d49	0.034711156
117	0x3e8bbe01	0.272934
118	0x3df751e2	0.12076165
119	0xbf99bac8	-1.2010126
120	0xbf831837	-1.0241765
121	0x3e8ed978	0.2790029
122	0xbd195683	-0.03743602
123	0x3ef6521b	0.48109517
124	0xbe3c6e1c	-0.18401378
125	0x3d607a67	0.054804232
126	0x3ecba8bc	0.39777172
127	0xbf6ecb7f	-0.9327926
128	0xbf19ab13	-0.60026664
129	0xbd84a8c3	-0.06477501
130	0x3f16c11c	0.5888841
131	0xbdec55fd	-0.115398385
132	0xbdb2b125	-0.08725194
133	0x3ef476b0	0.477468
134	0xbed28a8b	-0.41121325
135	0x3e97a8fd	0.29621115
136	0x3e9007fd	0.28131095
137	0x3f66c7b2	0.9014846
138	0x3e8bd34c	0.27309644
139	0x3ebe8c55	0.3721644
140	0x3dec9006	0.11550908
141	0x3f222fe3	0.6335432
142	0xbe92d9f1	-0.286819
143	0xbdc9a8ab	-0.09846624
144	0xbc28433e	-0.010269938
145	0x3f0cba7f	0.5497207
146	0xbe46da87	-0.19419299
147	0xbf635fe9	-0.8881822
148	0x3c66a8aa	0.014078299
149	0x3f48e210	0.78469944
150	0xbdae244a	-0.08503015
151	0xbdd2d6ac	-0.10294852
152	0x3f2bef9a	0.6716248
153	0x3dd85cc1	0.105645664
154	0x3e156eec	0.14593095
155	0xbcf3adee	-0.029746022
156	0x3dec0f2d	0.11526332
157	0x3df40cc8	0.119165
158	0x3eb6b8c3	0.35687837
159	0xbf212e23	-0.62961024
160	0xbe858380	-0.2607689
161	0x3e635f84	0.22204405
162	0xbf84ada9	-1.0365497
163	0xbee6dead	-0.45091763
164	0x3f4cb29e	0.7996005
165	0xbec892ce	-0.39174503
166	0xbe2a719b	-0.166449
167	0xbe579f17	-0.21056782
168	0x3f12c5a6	0.5733284
169	0x3e34c089	0.17651571
170	0x3f07f731	0.5311156
171	0x3e135873	0.1438921
172	0x3ea81916	0.3283164
173	0x3f1ae5bf	0.60506815
174	0xbdf6b9bf	-0.12047147
175	0x3f66f3f7	0.9021601
176	0xbf0a131c	-0.5393541
177	0xbe077a24	-0.13230187
178	0x3ee3a41a	0.44461137
179	0x3c1124cf	0.0088588735
180	0x3ec806d8	0.3906772
181	0xbea7f6e2	-0.32805544
182	0x3ec21e52	0.37913758
183	0x3f5c1c6b	0.8598086
184	0x3f3d6a5a	0.73990405
185	0x3e4d9774	0.20077306
186	0xbe2fb85c	-0.17160171
187	0x3e9260f2	0.28589588
188	0x3dccd72f	0.100019805
189	0xbdcb72f2	-0.099340335
190	0x3ebcaa95	0.36848894
191	0x3eba6886	0.3640787
192	0x3ea1c3bc	0.31594646
193	0x3f8cd6b5	1.1003023
194	0xbe9631f2	-0.2933498
195	0xbcee1251	-0.029061468
196	0x3f007b4c	0.50188136
197	0x3efbf8f8	0.49213386
198	0x3f1332eb	0.5749957
199	0x3f00fd3e	0.50386417
200	0x3ea3b2c6	0.3197233
201	0x3d521fa1	0.051299695
202	0xbf175205	-0.59109527
203	0xbde9ed80	-0.11422253
204	0x3f010107	0.5039219
205	0x3e72f00e	0.23724386
206	0x3eee4a24	0.4654094
207	0xbf46316c	-0.7741916
208	0xbed222eb	-0.41042265
209	0xbce3319f	-0.027733622
210	0xbf00638c	-0.50151896
211	0xbee94b95	-0.45565477
212	0x3e973644	0.2953359
213	0x3f01a131	0.50636584
214	0x3e161d99	0.14659728
215	0xbde0e91a	-0.109819606
216	0x3f434bc4	0.76287484
217	0x3fad2c18	1.3529081
218	0xbefcb755	-0.4935862
219	0xbf461952	-0.77382386
220	0x3d8695cd	0.06571541
221	0x3d6262b9	0.05526993
222	0x3b977f08	0.0046232976
223	0x3f270fc7	0.6525845
224	0x3fbc34dd	1.4703633
225	0x3ef00dfc	0.4688567
226	0x3e18ec40	0.14933872
227	0xbe379601	-0.17928316
228	0x3e9dfacb	0.30855402
229	0x3e8cc579	0.2749441
230	0x3e9b55c7	0.3033888
231	0x3e3708a6	0.17874393
232	0xbeb922b9	-0.36159304
233	0x3e35e02b	0.17761295
234	0x3f0456f0	0.51695156
235	0x3cbbb980	0.022915602
236	0xbdd715f6	-0.105022356
237	0x3fdf4045	1.7441489
238	0xbf59b13b	-0.8503606
239	0x3e60597d	0.21909137
240	0x3e72be08	0.23705304
241	0xbea65d28	-0.32492948
242	0xbe58c311	-0.21168162
243	0xbd24ee5b	-0.040266376
244	0xbec7abbe	-0.38998216
245	0xbe239731	-0.15975644
246	0x3f17ee13	0.5934765
247	0x3f47de1a	0.78073275
248	0x3eda3a34	0.4262253
249	0x3ecdb100	0.40174103
250	0xbe70d51b	-0.23518793
251	0xbeafe1dc	-0.34352005
252	0xbf19e4da	-0.60114825
253	0xbe9bd335	-0.30434576
254	0xbb845a66	-0.0040390966
255	0x3f37a195	0.7173093

input_embeddings.embeddings.cluster.weight f4 [15, 7]
0	0xbe808731	-0.25103143
1	0x3ea3eef5	0.32018247
2	0x3e210280	0.1572361
3	0xbe9316e5	-0.28728405
4	0xbf214a51	-0.6300402
5	0xbfcee7e2	-1.6164515
6	0xbf066696	-0.52500284
7	0xbe6b4e9a	-0.22979203
8	0xbd55611a	-0.052094556
9	0xbf17de08	-0.5932317
10	0xbf01f290	-0.50760746
11	0xbef1c16d	-0.47217885
12	0xbee08fff	-0.4385986
13	0xbdf05a12	-0.117359295
14	0xbf3551b3	-0.7082779
15	0xbf1433ca	-0.57891524
16	0x3f1204e5	0.5703872
17	0x3f363319	0.7117172
18	0xbde1da00	-0.11027908
19	0xbd57443b	-0.052555304
20	0x3e737d1f	0.23778199
21	0x3f675d81	0.9037705
22	0x3f25b078	0.64722395
23	0x3e983b01	0.29732516
24	0xbebbc1e4	-0.36671364
25	0x3e654cba	0.2239255
26	0xbf347916	-0.7049726
27	0x3f827290	1.0191212
28	0xbf2209a2	-0.6329595
29	0xbfb4cace	-1.4124391
30	0x3d2a701a	0.041610815
31	0xbe292902	-0.1651955
32	0xbc900cdf	-0.017584262
33	0x3f120638	0.5704074
34	0x3d9cd29a	0.076573566
35	0x3f0cd9da	0.55019915
36	0x3ebd1ce9	0.3693612
37	0xbf5bc2ce	-0.85844123
38	0xbdad7207	-0.084690146
39	0x3ea4b164	0.32166588
40	0xbee9396e	-0.45551628
41	0x3d00cdab	0.03144614
42	0x3ef3a044	0.4758321
43	0x3f43789d	0.76355916
44	0x3ed86db0	0.42271185
45	0x3f3155c2	0.6927148
46	0x3dc0f78a	0.09422214
47	0xbed27bda	-0.41110116
48	0xbdb23f3b	-0.087034665
49	0x3d64efd9	0.0558928
50	0x3e4d7661	0.20064689
51	0x3e9fb02e	0.31189102
52	0xbed8c1f8	-0.42335486
53	0xbf08f8c0	-0.5350456
54	0x3f86503a	1.0493233
55	0x3edd15f4	0.4318081
56	0x3f6aeb5e	0.9176539
57	0x3ef4e559	0.47831228
58	0xbf1151a3	-0.5676519
59	0x3dd4b049	0.10385186
60	0x3f1d409f	0.6142673
61	0x3e40149f	0.18757866
62	0x3eee532f	0.4654784
63	0x3e208520	0.15675783
64	0xbe831878	-0.25604606
65	0xbeebfa41	-0.46089366
66	0x3f9999e8	1.2000093
67	0x3fae5880	1.3620758
68	0xbdf7f1fb	-0.12106701
69	0x3f6bf08e	0.9216393
70	0xbe1bee4e	-0.15227625
71	0x3e88f19c	0.26746833
72	0x3ec188f8	0.3779981
73	0xbe7247e7	-0.23660241
74	0x3e8a1121	0.26966193
75	0x3f65d67e	0.89780414
76	0xbbdba821	-0.006703392
77	0x3ec40af0	0.38289595
78	0x3e400486	0.18751726
79	0xbf43bf67	-0.7646393
80	0x3e842ea1	0.25816825
81	0x3ef8a5ed	0.4856409
82	0x3eb071d3	0.3446184
83	0x3f0cc462	0.54987156
84	0x3e623f8c	0.22094554
85	0x3edc47ae	0.43023437
86	0xbf3c63d9	-0.73589855
87	0xbe8e18a1	-0.27753165
88	0x3f0b1c97	0.543405
89	0xbf003de3	-0.5009443
90	0x3ed89561	0.42301467
91	0x3e85c101	0.26123813
92	0x3ea48ddb	0.32139477
93	0x3f940d07	1.1566476
94	0xbea0227d	-0.31276312
95	0xbe470e9c	-0.19439167
96	0x3ed51fc5	0.416258
97	0xbec53c3f	-0.38522527
98	0xbf280e39	-0.656467
99	0x3dff4e00	0.12466049
100	0xbdcd0c75	-0.100121416
101	0xbe5d0413	-0.21583585
102	0x3f94bd58	1.1620283
103	0x3f0e02ac	0.55472827
104	0x3f9b7b6e	1.2147043

input_embeddings.embeddings.weekday.weight f4 [7, 5]
0	0x3f1bf3e4	0.6091902
1	0x3e82f2fb	0.25576004
2	0x3dc4e9c0	0.09614897
3	0xbf7cb2db	-0.9871041
4	0x3eecb7fb	0.46234116
5	0x3d9e2341	0.07721568
6	0xbf023885	-0.5086749
7	0x3eab9d03	0.33518228
8	0xbf197181	-0.5993882
9	0xbf44d730	-0.7689085
10	0xbe11830c	-0.14210147
11	0x3db85cdf	0.09002089
12	0xbfcfa86e	-1.6223276
13	0xbe8d3c43	-0.2758504
14	0xbef83f00	-0.48485565
15	0xbf2e28d2	-0.68031037
16	0xbf81c8a5	-1.0139357
17	0x3e0e347e	0.13887212
18	0xbebbdce1	-0.36691955
19	0xbdcd5755	-0.10026423
20	0xbe7157d9	-0.23568667
21	0xbf122302	-0.5708467
22	0xbe837a62	-0.25679308
23	0xbd572353	-0.052523922
24	0x3f91a2ee	1.1377847
25	0x3f2ff7d3	0.68737525
26	0xbdead6d4	-0.114667565
27	0x3eb3b58b	0.35099444
28	0x3f6f9d56	0.9359945
29	0xbc915383	-0.017740017
30	0xbecbe660	-0.398242
31	0x3f7e0f23	0.99241847
32	0x3ebb42c1	0.36574367
33	0x3ea6274c	0.32451856
34	0xbe28eb7a	-0.16496077

input_embeddings.embeddings.onpromotion.weight f4 [2, 1]
0	0xbf4e0b83	-0.80486315
1	0x3fe5faea	1.7967198

prescalers.time_idx.weight f4 [8, 1]
0	0xbf680100	-0.90626526
1	0xbf407fd6	-0.7519506
2	0x3f11026a	0.5664431
3	0x3f29393d	0.66102964
4	0x3f6e72ed	0.9314411
5	0xbc66f68c	-0.014096867
6	0x3d32e7bf	0.04367804
7	0xbc4844d2	-0.012223439

prescalers.time_idx.bias f4 [8]
0	0x3e3ed300	0.18635178
1	0xbe4d3c84	-0.20042616
2	0xbf383273	-0.7195198
3	0xbea1633d	-0.31521025
4	0xbecaf2d9	-0.39638403
5	0xbc705fa6	-0.014671242
6	0x3c5b679b	0.013391401
7	0x3cfbf55a	0.030756641

prescalers.doy_sine.weight f4 [8, 1]
0	0xbd315a3d	-0.04329895
1	0x3fc78cf8	1.5589895
2	0xbb4e909e	-0.0031519304
3	0x3b8ad365	0.004236626
4	0xbf8ed4ce	-1.1158693
5	0xbf85082f	-1.0393122
6	0xbf8d39ae	-1.1033227
7	0xbd12fd33	-0.035886

prescalers.doy_sine.bias f4 [8]
0	0xbd101485	-0.03517582
1	0xbe8d6240	-0.2761402
2	0xbc34bed7	-0.011031828
3	0x3d4efe2e	0.050535373
4	0xbec6c4a0	-0.38821888
5	0x3daa6daa	0.08321698
6	0xbecc3356	-0.39882916
7	0xbcaeb830	-0.021328062

prescalers.doy_cosine.weight f4 [8, 1]
0	0x3f6ef7c0	0.93346786
1	0x3f9b6c9e	1.2142522
2	0xbc67f71b	-0.014158036
3	0x3fab9000	1.340332
4	0x3f6d3be8	0.92669535
5	0xbd4890f6	-0.04896637
6	0x3f8a96d7	1.0827283
7	0x3c3be484	0.011468057

prescalers.doy_cosine.bias f4 [8]
0	0x3ef3fb92	0.4765287
1	0xbdf9ecf5	-0.12203399
2	0xbc8a117a	-0.016854037
3	0x3e1da8a3	0.15396361
4	0x3e96613d	0.29371062
5	0x3cad0e86	0.02112509
6	0x3e42d708	0.1902734
7	0xbc8dfd72	-0.017332766

prescalers.relative_time_idx.weight f4 [8, 1]
0	0x3f81120f	1.0083636
1	0x3f7a2d37	0.9772524
2	0xb8c4dfdf	-9.3877075e-05
3	0xbd13ee7d	-0.036116112
4	0xbcf51b59	-0.029920267
5	0x3d9422b7	0.07233184
6	0xbcb94932	-0.02261791
7	0xbd9822f5	-0.074285425

prescalers.relative_time_idx.bias f4 [8]
0	0x3e99fd56	0.30076092
1	0x3ea235c4	0.31681645
2	0x3ba3f7a0	0.0050038844
3	0x3c97e0e1	0.018539848
4	0x3c051893	0.008123535
5	0xbb7ffb50	-0.0039059706
6	0x3f7e7cb4	0.9940903
7	0xbf4b578a	-0.7943045

prescalers.sales.weight f4 [8, 1]
0	0xbe56f259	-0.20990886
1	0xbf4a4b4b	-0.7902114
2	0xbf80437e	-1.0020597
3	0xbe9ee273	-0.31032142
4	0xbf14b722	-0.5809194
5	0x3cb6c6c7	0.022311581
6	0x3d6096d0	0.054831326
7	0x3d9629be	0.073321804

prescalers.sales.bias f4 [8]
0	0xc0ac59a7	-5.385944
1	0x3e1d3955	0.15353902
2	0x3f96638d	1.174913
3	0x3e322f27	0.174008
4	0x3ee83c1c	0.4535836
5	0xbd0a6b04	-0.033793464
6	0xbd9b7c39	-0.07592053
7	0xbde8285c	-0.11335823

prescalers.dcoilwtico.weight f4 [8, 1]
0	0x3e28e7b9	0.16494645
1	0x3f9ca516	1.223788
2	0x3fa092ee	1.2544839
3	0x3eec690a	0.46173888
4	0x3d3fa03f	0.046783682
5	0xbd14e43e	-0.03635048
6	0x3dccf327	0.10007315
7	0xbd749b95	-0.059718687

prescalers.dcoilwtico.bias f4 [8]
0	0xbe26f2e3	-0.16303591
1	0x3e59aa1a	0.21256295
2	0x3eacd45d	0.3375577
3	0xbe12d0e0	-0.14337492
4	0x3cfcd82c	0.030864798
5	0xbd205f16	-0.03915318
6	0x3c57c5de	0.013169734
7	0x3d4904d6	0.049076878

static_variable_selection.flattened_grn.resample_norm.mask f4 [3]
0	0x40ab1b86	5.34711
1	0x40f0e1b1	7.52755
2	0xbe869c04	-0.26290905

static_variable_selection.flattened_grn.resample_norm.norm.weight f4 [3]
0	0x40c3b3dc	6.1157055
1	0x40f44aa4	7.6341114
2	0x4128e694	10.5562935

static_variable_selection.flattened_grn.resample_norm.norm.bias f4 [3]
0	0xbf5e2133	-0.8676941
1	0xbf1e1756	-0.6175436
2	0x3f0bed58	0.5465903

static_variable_selection.flattened_grn.fc1.weight f4 [3, 49]
0	0x3ac8b681	0.001531318
1	0x3a599bad	0.00083010906
2	0xba7700a6	-0.0009422399
3	0xb9af8ed1	-0.00033485008
4	0xbad5bccd	-0.0016306877
5	0xba39b586	-0.0007084239
6	0xbac5d8e1	-0.0015094542
7	0xbaca5e10	-0.001543941
8	0x3a33442c	0.00068384665
9	0xb91e452e	-0.00015093826
10	0x3b00e590	0.001966808
11	0x3b22df53	0.002485235
12	0x3b602c8c	0.003420624
13	0x3a99beca	0.0011729833
14	0x3a8d160b	0.0010764016
15	0xbadf38a8	-0.0017030435
16	0xbad660e7	-0.0016355783
17	0xbab26bc7	-0.0013612442
18	0xba232a85	-0.00062242924
19	0x3b556d52	0.003256638
20	0x3b5bbc79	0.0033529087
21	0xb95627c9	-0.00020423451
22	0x3a2b75cc	0.00065406854
23	0x3ac5c18e	0.0015087591
24	0xb98fe979	-0.00027449036
25	0x3b773df6	0.003772614
26	0x3b51622e	0.0031949389
27	0xbacc941b	-0.0015608104
28	0xb8e245d3	-0.000107895255
29	0x39586e4c	0.00020640454
30	0x3a7ee3e3	0.0009723289
31	0x3a4a8494	0.0007725444
32	0xbb1d0b12	-0.0023962897
33	0xb9ca91f0	-0.00038637174
34	0x3b2c9e9f	0.0026339663
35	0xb94db703	-0.000196185
36	0xba95acb7	-0.0011419271
37	0xbaa13f70	-0.0012302231
38	0x3a8a79fb	0.0010564917
39	0xbb0e449d	-0.0021708377
40	0xbb8dbf45	-0.0043257796
41	0x3a1dcd2d	0.0006019648
42	0xba68be14	-0.00088784215
43	0xbb0671ad	-0.0020514533
44	0x3afecafb	0.0019439155
45	0x39903010	0.0002750163
46	0x39d8a0eb	0.00041318624
47	0x3a6a3eb8	0.00089357374
48	0xbab06551	-0.0013457929
49	0x3a2b23bc	0.0006528457
50	0x39aa50cb	0.00032485122
51	0xb970f976	-0.00022981115
52	0xb98816a8	-0.00025956822
53	0xba031ec1	-0.0005001836
54	0xb7f05cb8	-2.8653405e-05
55	0xba7e8c06	-0.0009710196
56	0xba80e92d	-0.0009835117
57	0xb8f8d208	-0.00011864683
58	0xb880ffb5	-6.151145e-05
59	0x39eebdc1	0.00045536275
60	0x3a42489f	0.0007411334
61	0x3ae649fe	0.0017569659
62	0x39f864c8	0.00047377334
63	0x39e1f0d2	0.0004309477
64	0xba030a34	-0.0004998774
65	0xb9fb3cf5	-0.00047919867
66	0xba67708c	-0.00088287215
67	0xb9c770a7	-0.0003804017
68	0x3b076066	0.0020656823
69	0x3ad933ec	0.001657126
70	0xb91babb6	-0.00014845919
71	0xb8a5440f	-7.88049e-05
72	0x39cc5882	0.00038975856
73	0xba5edce5	-0.0008501544
74	0x3afd514f	0.00193266
75	0x3acc0df2	0.0015568121
76	0xb9e0e900	-0.00042898208
77	0x380b4106	3.320074e-05
78	0xb896b39e	-7.186014e-05
79	0x3a245004	0.0006268027
80	0x3a4e7605	0.00078758626
81	0xbb011913	-0.0019698783
82	0xb9c47cd1	-0.0003747703
83	0x3b0901dc	0.002090565
84	0xb98a98db	-0.00026435297
85	0xba7c39e2	-0.00096216623
86	0xba3fbc72	-0.00073141523
87	0x397ce532	0.00024117975
88	0xbaa946fd	-0.0012914833
89	0xbb3b31cb	-0.0028563614
90	0xb7c16821	-2.3055882e-05
91	0xba1018fa	-0.0005496886
92	0xba87fe06	-0.0010375388
93	0x3ad06102	0.0015898051
94	0x3a2944d6	0.0006457096
95	0x3913f458	0.00014110038
96	0x3a7a332f	0.000954437
97	0x383ae27b	4.4556782e-05
98	0x3a68aa32	0.0008875459
99	0x39eab6bd	0.0004476811
100	0xb9b06951	-0.00033647803
101	0xb997d578	-0.0002896001
102	0xba38cd67	-0.00070496503
103	0xb8ece6b8	-0.00011296332
104	0xba8cbd3c	-0.0010737549
105	0xba8d5c7d	-0.001078501
106	0x37e00ea3	2.6709697e-05
107	0xb796ccf4	-1.7976832e-05
108	0x3a436bff	0.00074547523
109	0x3a8edbc7	0.0010899239
110	0x3b10e1c9	0.0022107235
111	0x3a201a9f	0.00061074825
112	0x3a1189b9	0.00055518333
113	0xba315893	-0.0006765213
114	0xba29cfa8	-0.00064777816
115	0xba913604	-0.001107872
116	0xba0132d2	-0.0004928532
117	0x3b23ed70	0.002501335
118	0x3b0712b9	0.0020610525
119	0xb8819668	-6.179215e-05
120	0x38a77668	7.9852354e-05
121	0x3a03d2d9	0.0005028672
122	0xba712dc1	-0.0009200238
123	0x3b150b47	0.0022742318
124	0x3aedc965	0.0018141685
125	0xba1dbb8c	-0.00060170214
126	0x380cc03d	3.3557637e-05
127	0xb8ab4616	-8.16697e-05
128	0x3a54bb20	0.0008115042
129	0x3a5f9e85	0.0008530396
130	0xbb1a28a0	-0.002352275
131	0xba1b2b1e	-0.0005919206
132	0x3b191675	0.0023359333
133	0xb994cc99	-0.00028381197
134	0xba979d53	-0.0011567272
135	0xba7fb32e	-0.0009754178
136	0x39ee7fb1	0.00045490035
137	0xbace1670	-0.001572324
138	0xbb60b994	-0.00342903
139	0x388bbd83	6.663336e-05
140	0xba03911e	-0.00050188776
141	0xba966054	-0.00114728
142	0x3aeba309	0.0017977665
143	0x3a2cc756	0.00065909827
144	0x39403f94	0.00018334232
145	0x3a7b0e81	0.00095770514
146	0xb8188188	-3.636026e-05

static_variable_selection.flattened_grn.fc1.bias f4 [3]
0	0xbfc5c4c4	-1.5450673
1	0xc00f64e1	-2.2405322
2	0xbfff873c	-1.9963145

static_variable_selection.flattened_grn.fc2.weight f4 [3, 3]
0	0x3d126c03	0.03574754
1	0x3d2900e8	0.04126063
2	0x3d237959	0.039910648
3	0xbd20c1b2	-0.039247222
4	0xbd2eebac	-0.042705223
5	0xbd2ade7a	-0.041716076
6	0x3daa231e	0.08307479
7	0x3dbae81e	0.09126304
8	0x3db68d53	0.08913674

static_variable_selection.flattened_grn.fc2.bias f4 [3]
0	0xc0b1d5f7	-5.5573688
1	0xbf428db1	-0.75997454
2	0x3fc829d8	1.563777

static_variable_selection.flattened_grn.gate_norm.glu.fc.weight f4 [6, 3]
0	0x3e293c61	0.16526939
1	0xbc991dfe	-0.01869106
2	0xbb1d4626	-0.002399811
3	0x3dd56477	0.10419553
4	0x3d75b04c	0.059982583
5	0x3d749a20	0.059717298
6	0xbe00f87d	-0.12594791
7	0x3d8a6ecd	0.06759415
8	0xbdfefaac	-0.124501556
9	0x3e048c09	0.12944044
10	0x3c58347b	0.013196106
11	0xbd1c107e	-0.038101666
12	0x3ef1ed04	0.4725114
13	0x3e171e3d	0.14757629
14	0xbdb29779	-0.08720297
15	0x3e80def4	0.251701
16	0x3d24f393	0.040271353
17	0xbd4526f1	-0.04813284

static_variable_selection.flattened_grn.gate_norm.glu.fc.bias f4 [6]
0	0x3e43ce64	0.191217
1	0x3f82b833	1.0212463
2	0xbd8c9ef2	-0.06866254
3	0xc13357fc	-11.208981
4	0xc10b87d5	-8.720662
5	0xc125b473	-10.356555

static_variable_selection.flattened_grn.gate_norm.add_norm.norm.weight f4 [3]
0	0x3ecdd9ce	0.40205234
1	0xbe8d5860	-0.27606487
2	0xbea7843e	-0.3271808

static_variable_selection.flattened_grn.gate_norm.add_norm.norm.bias f4 [3]
0	0x3fb4c0d2	1.4121344
1	0x3f5b4430	0.8565092
2	0x3e836bbe	0.25668138

static_variable_selection.single_variable_grns.art.mask f4 [32]
0	0x3e0e1ba2	0.13877729
1	0x410406c2	8.25165
2	0x41309d6d	11.038434
3	0x4095bcda	4.679303
4	0x40c27fe8	6.0781136
5	0x40f05f0d	7.511603
6	0xbf5e3d79	-0.8681255
7	0x413b4132	11.703417
8	0xc14fa852	-12.978594
9	0x408916c8	4.284031
10	0x40acb7bb	5.397428
11	0xc0905899	-4.510815
12	0x40883e13	4.2575774
13	0x40b642c4	5.69565
14	0xc0980917	-4.7511096
15	0x40a9746b	5.295461
16	0xc0bc28ed	-5.879996
17	0x3fb7d924	1.4363141
18	0xc10c110a	-8.75416
19	0x412a758e	10.6537
20	0x40ef9349	7.486729
21	0xc005fc25	-2.0935147
22	0x401b62ea	2.4279122
23	0x40f70a58	7.7200127
24	0x4138f4f3	11.559802
25	0x40214c97	2.5202997
26	0x407a133c	3.907424
27	0xc12322bb	-10.195979
28	0x40e35065	7.103564
29	0xbfaf52fe	-1.3697202
30	0x4155aef7	13.355216
31	0x4053e1a5	3.3106472

static_variable_selection.single_variable_grns.art.norm.weight f4 [32]
0	0xc0fbd45d	-7.8696733
1	0x410de170	8.867538
2	0x4125b323	10.356235
3	0x40acc874	5.3994694
4	0x403984f4	2.8987398
5	0x4117ac3c	9.479549
6	0x3e95e1ef	0.29273936
7	0x40b28be7	5.579578
8	0x413f8894	11.970844
9	0x40c7f13d	6.248198
10	0x40a29722	5.080949
11	0x3f29b9ac	0.6629894
12	0x40fb10cc	7.8458004
13	0x40f9d2ae	7.8069677
14	0x41032ecd	8.198926
15	0x40baa348	5.832432
16	0x40f50a16	7.657481
17	0x40ba961f	5.8308253
18	0x40ed9e25	7.4255548
19	0x4109f48e	8.622206
20	0x40ed7589	7.4205976
21	0x408a84ac	4.3286953
22	0x40d3a0b6	6.613368
23	0x4076ea9e	3.85807
24	0x409d8c4e	4.923377
25	0x40735a62	3.8023915
26	0x4099f612	4.811288
27	0xc0b48371	-5.641045
28	0x40ec7ff6	7.39062
29	0x40bf19a6	5.971881
30	0x413155cc	11.0834465
31	0x40d0ccbc	6.524992

static_variable_selection.single_variable_grns.art.norm.bias f4 [32]
0	0xc05a1c86	-3.407991
1	0xbf703d9c	-0.9384401
2	0x3f4702f5	0.7773889
3	0x3f7660b2	0.96241295
4	0x3db51dbd	0.08843563
5	0xc017ffae	-2.3749804
6	0x3f05c91d	0.5226
7	0xc0b41f54	-5.628824
8	0x3f38a23a	0.7212254
9	0xc0095a45	-2.1461346
10	0xc05a3899	-3.4097044
11	0xc09823de	-4.7543783
12	0x400cabf8	2.1979961
13	0xbfea82d6	-1.8321178
14	0x3ef1e793	0.4724699
15	0x3f1733e7	0.5906357
16	0xc009540e	-2.1457553
17	0xc0405d98	-3.0057125
18	0x3f895a9d	1.0730778
19	0xbf685679	-0.90756947
20	0x3ee1ed12	0.44126183
21	0x3f7f3632	0.9969207
22	0x4037e32d	2.8732407
23	0xbfcea916	-1.6145351
24	0xc0233ef7	-2.550718
25	0x3f9eb4c1	1.2398912
26	0x3f9805ae	1.1876733
27	0x3d9a9c05	0.075492896
28	0x40978481	4.734925
29	0x3fef63e1	1.8702356
30	0x4094633d	4.637114
31	0x3ed02af9	0.40657786

static_variable_selection.single_variable_grns.pos.mask f4 [32]
0	0xc0508861	-3.258324
1	0x408f2417	4.4731555
2	0x40e6ebc0	7.216278
3	0x4124ce33	10.300342
4	0x3fc0336b	1.5015692
5	0x40138319	2.3048766
6	0xc1438218	-12.219261
7	0xc11b441c	-9.704128
8	0x40a6ba05	5.2102075
9	0xbf9fd74d	-1.248758
10	0x40d5f057	6.6855884
11	0x413c865e	11.7828045
12	0x4136e22e	11.43022
13	0x415f0df7	13.940909
14	0xc14c3399	-12.762597
15	0xbe03a364	-0.12855297
16	0x400602aa	2.0939126
17	0xbf8adc79	-1.0848533
18	0x40854497	4.164623
19	0xc080e521	-4.02797
20	0x407259c3	3.7867286
21	0xc0f4ed9d	-7.6540055
22	0xc0ac6f2c	-5.388571
23	0x4107c118	8.484642
24	0xc109c351	-8.610185
25	0xc0a08277	-5.015926
26	0x40e0d789	7.0263104
27	0xc05fd128	-3.497141
28	0x40be6786	5.950137
29	0x414d1bb7	12.819266
30	0xc06d464f	-3.7074163
31	0x3f95496a	1.1663029

static_variable_selection.single_variable_grns.pos.norm.weight f4 [32]
0	0x3faf5fba	1.3701088
1	0x40dc1eb9	6.8787503
2	0xbf8b3ff6	-1.0878894
3	0x40958479	4.672421
4	0x4004700b	2.0693386
5	0x408dd225	4.4319024
6	0x419e04cb	19.75234
7	0x40058d0d	2.086734
8	0x40eb8843	7.3603835
9	0xbf25bc12	-0.647401
10	0x40e575b8	7.17062
11	0x40f3d56c	7.6198025
12	0xc0a93327	-5.287494
13	0x41154e50	9.331619
14	0xc15d99d9	-13.85006
15	0x40f1b87b	7.5537696
16	0x412d7d82	10.843142
17	0xbf583e93	-0.8447048
18	0x41766052	15.398516
19	0x41258261	10.344331
20	0x40ebe8b5	7.3721566
21	0xc098f934	-4.7804203
22	0x4035f591	2.8431132
23	0x409873db	4.7641425
24	0xc10b4a57	-8.705649
25	0x3f3816c0	0.71909714
26	0x409bdf20	4.870987
27	0x40ffcb42	7.9935617
28	0x4088ad1f	4.271133
29	0x40c75a36	6.229762
30	0x400d8c94	2.2117052
31	0x415303cc	13.188427

static_variable_selection.single_variable_grns.pos.norm.bias f4 [32]
0	0xbfb51928	-1.4148302
1	0x3f881c7d	1.0633694
2	0xc00223ee	-2.033443
3	0x404b2ea1	3.174721
4	0x3ffbb86a	1.9665654
5	0xbca568dd	-0.020191604
6	0x3e693ce4	0.22777134
7	0x3e468648	0.19387162
8	0xc0224317	-2.5353448
9	0xc01e2383	-2.4709175
10	0xc04d2813	-3.205571
11	0xc0a0c88c	-5.024481
12	0xbf751e7f	-0.9574966
13	0xbdbe9928	-0.09306556
14	0xbefa88d3	-0.48932514
15	0x3e89dffc	0.269287
16	0x3f9ec2ef	1.2403239
17	0xbf0ed6f4	-0.5579674
18	0xbd8b4f82	-0.06802274
19	0x3fa80ef4	1.3129563
20	0xc002e243	-2.04506
21	0xbfb5173a	-1.4147713
22	0x3e8d5496	0.27603596
23	0x40167768	2.351038
24	0x3f083771	0.53209597
25	0x3e615df4	0.22008497
26	0xbef9515a	-0.4869488
27	0xbfbd80e6	-1.4804962
28	0x3eabf41f	0.33584687
29	0xbfd5676b	-1.6672186
30	0x3fdadd08	1.7098703
31	0x3fd1918a	1.637254

static_variable_selection.single_variable_grns.cluster.mask f4 [32]
0	0xbf63c702	-0.88975537
1	0xbe1426cc	-0.14467925
2	0xc0463d50	-3.0974922
3	0x4138788e	11.529432
4	0x407dfb29	3.9684546
5	0xc0cc6db4	-6.3883915
6	0xc11f591a	-9.959253
7	0xc1125b87	-9.147346
8	0xc140a6fe	-12.04077
9	0x412490cb	10.28535
10	0xc14d3e28	-12.827675
11	0x4165eee3	14.370822
12	0xc139ab87	-11.604377
13	0xc0661b7a	-3.595427
14	0xbfcf6641	-1.620308
15	0xc0a08c8b	-5.017156
16	0x3ed4b750	0.41546106
17	0xbf02c910	-0.5108805
18	0xbf3eda87	-0.74552196
19	0xbfa1082a	-1.2580616
20	0xbfc6a4b6	-1.5519016
21	0xc1364f6c	-11.39439
22	0xc0bfc540	-5.9928284
23	0x3e7efffe	0.24902341
24	0xc143d9c6	-12.240667
25	0xc10cf6db	-8.810267
26	0xbf380a6f	-0.7189092
27	0x40b6d45a	5.713422
28	0xc14ecb7f	-12.924682
29	0xc001b157	-2.026449
30	0xbf85575c	-1.0417285
31	0xbe51a93b	-0.20474713

static_variable_selection.single_variable_grns.cluster.norm.weight f4 [32]
0	0xbf9fd433	-1.2486633
1	0xc0166907	-2.3501604
2	0x3ffc0da9	1.9691669
3	0x40bc3e0d	5.8825746
4	0x406d8123	3.7110069
5	0x40a3e19b	5.1212897
6	0xc0979f47	-4.738193
7	0x409be129	4.8712354
8	0x414635f7	12.388175
9	0x40ddfaed	6.9368806
10	0x411d1c7e	9.819456
11	0x414814cf	12.50508
12	0xc10a3349	-8.637521
13	0x404be19a	3.1856446
14	0x405b0bae	3.4225879
15	0xc08b9043	-4.36136
16	0x4085c080	4.1797485
17	0xbfc00a36	-1.5003116
18	0x3fe1249c	1.7589297
19	0x3fd531f4	1.665587
20	0xbfaeabd4	-1.3646188
21	0x408e990c	4.4561825
22	0xc0d4658b	-6.6373954
23	0x4036d3f8	2.8566875
24	0x40cfc6c6	6.4930143
25	0xc0fbd0ca	-7.869237
26	0x4030b8a3	2.7612693
27	0x414bcd3f	12.737609
28	0xc11fa42d	-9.977582
29	0xc09e6dd9	-4.950909
30	0x406e2856	3.721212
31	0x405f91db	3.4932773

static_variable_selection.single_variable_grns.cluster.norm.bias f4 [32]
0	0xbf23d550	-0.63997364
1	0x3f4393a9	0.76397187
2	0xc0901927	-4.5030704
3	0x3feb9bc4	1.8406911
4	0xbdce2412	-0.100654736
5	0xc09d2f46	-4.9120207
6	0xbec95eb2	-0.3933006
7	0xbe1bcbe5	-0.15214498
8	0xbef95855	-0.48700204
9	0xbf6f2407	-0.9341435
10	0xbfe88c9c	-1.816791
11	0xc09879f7	-4.7648883
12	0xbf1f70aa	-0.62281287
13	0xc02085bc	-2.5081625
14	0xbfe82e5d	-1.8139149
15	0x3fa4f9d0	1.2888737
16	0xbe9b0556	-0.30277508
17	0x3fe8a65b	1.8175768
18	0x3f9c1517	1.2193936
19	0x3e8fecb1	0.2811027
20	0x3efee78a	0.49786025
21	0xbf46f6da	-0.77720416
22	0xbf557934	-0.83388066
23	0x40350b74	2.828824
24	0x3fd7f87b	1.6872705
25	0x3f383a31	0.71963793
26	0xbdcef34e	-0.101050004
27	0xc04917ec	-3.142085
28	0x3d084d5f	0.03327691
29	0xc02b5546	-2.6770797
30	0x40850a0b	4.157476
31	0x4036e80b	2.8579128

encoder_variable_selection.flattened_grn.resample_norm.mask f4 [11]
0	0xc11d1f47	-9.820136
1	0x410802d6	8.500692
2	0x411a4e2d	9.644086
3	0x40bba3ba	5.863736
4	0x41559836	13.349661
5	0xbf36c206	-0.71389806
6	0x3d1b194d	0.037865926
7	0x40629a3a	3.5406632
8	0xc0a7868a	-5.235173
9	0xc046b7f0	-3.1049767
10	0xc0f8fbaa	-7.7807207

encoder_variable_selection.flattened_grn.resample_norm.norm.weight f4 [11]
0	0xc009905f	-2.1494367
1	0xc105287d	-8.322385
2	0x40ce4707	6.4461703
3	0x413fdb6f	11.991073
4	0x4156a0fc	13.414303
5	0xc06d2ca9	-3.7058508
6	0x4017fc99	2.3747923
7	0x411d9bc9	9.8505335
8	0xc1160a2e	-9.377485
9	0xc106ba1a	-8.420435
10	0x41d58dd2	26.694248

encoder_variable_selection.flattened_grn.resample_norm.norm.bias f4 [11]
0	0x3fddeb96	1.733752
1	0x3e6332e9	0.2218739
2	0xc063b119	-3.5576842
3	0x41b47ed6	22.561932
4	0xc15cabd5	-13.791951
5	0x41bd2479	23.642809
6	0x404676ef	3.1010091
7	0xc0b45c0d	-5.6362367
8	0xbf3b52aa	-0.7317301
9	0x3ecab400	0.39590454
10	0xc17dc307	-15.860114
