hnam_experiments/Fit_and_Predict/models/Favorita/TFT/lightning_logs/version_3/checkpoints/model-initial-val_loss=0.76.ckpt (torch, 633158 bytes, 305 tensors)

input_embeddings.embeddings.national_holiday.weight f4 [178, 29]
0	0x3d95ae4e	0.073086366
1	0x3e930b23	0.28719434
2	0xbd10a267	-0.03531113
3	0xbe34cfc3	-0.1765738
4	0x3d5b2ed3	0.053511452
5	0x3eb4c4bd	0.3530635
6	0x3e7bcaf0	0.24589133
7	0xc05f8e5c	-3.493064
8	0xbf069a4f	-0.52579206
9	0xbefd1fb2	-0.49438244
10	0x3ec19e31	0.37816003
11	0x3e872f5e	0.26403326
12	0x3e54e6da	0.20791188
13	0xbea5c685	-0.3237802
14	0x3e213390	0.15742326
15	0x3e54ad0d	0.20769139
16	0x3bd21db2	0.0064122314
17	0x3d9fb17c	0.07797524
18	0x3f92db7b	1.147323
19	0x3ec8d787	0.39226934
20	0x3e8be9e9	0.27326897
21	0xbf214c68	-0.6300721
22	0x3d8aaa95	0.06770817
23	0xbdc688e8	-0.096940815
24	0xbe14f52c	-0.1454665
25	0x3dc2415b	0.09485122
26	0x3e6caa48	0.23111832
27	0x3e977086	0.29578036
28	0x3e6b5d04	0.22984701
29	0xbe2c4b2f	-0.16825555
30	0xbf07cc00	-0.53045654
31	0xbcbb640f	-0.02287486
32	0xbe3dbfef	-0.18530248
33	0x3dc1e18f	0.0946685
34	0x3f2c5637	0.67319053
35	0x3fa5cff5	1.2954088
36	0x3e44d438	0.1922158
37	0xbf355e8a	-0.7084738
38	0xbf042f63	-0.51634806
39	0xbd7ed033	-0.062210273
40	0x3ef909bf	0.48640248
41	0x3e95eada	0.2928074
42	0x3df35c78	0.118828714
43	0x3f91fbe3	1.1404995
44	0xbef60250	-0.4804864
45	0x3edd7ff9	0.43261698
46	0xbec9608e	-0.39331478
47	0xbef490a2	-0.47766596
48	0x3e88393b	0.26606163
49	0xbf5e2566	-0.86775815
50	0x3fe945cb	1.8224424
51	0x3f4242e9	0.75883347
52	0x3ee95c27	0.4557812
53	0xbeb6c5fe	-0.3569793
54	0x3f9a1efb	1.2040704
55	0x3e430bca	0.19047466
56	0xbfa2a631	-1.2706968
57	0x3e0c4969	0.13699879
58	0xbf7897bf	-0.97106546
59	0x3eb0fc07	0.34567282
60	0xbc84fde1	-0.01623434
61	0x3f647d0a	0.89253294
62	0x3ef6fce2	0.4823981
63	0x3fc495bc	1.5358195
64	0xbf6165f1	-0.88046175
65	0x3e131497	0.14363323
66	0x3f2e2c3e	0.6803626
67	0xbf656c5e	-0.8961848
68	0x3e18d24f	0.14923976
69	0x3eae7b98	0.3407867
70	0xbecae8eb	-0.39630827
71	0xbda61dc1	-0.08111144
72	0xbf248a61	-0.6427365
73	0xbecf17b8	-0.40447783
74	0x3f880591	1.0626699
75	0xbe8741d8	-0.26417422
76	0x3f2e9676	0.68198335
77	0xbc8ac58d	-0.016939903
78	0xbe810c47	-0.2520468
79	0x3e4e49f8	0.20145404
80	0x3e9da1e7	0.30787584
81	0x3f4430e6	0.76637113
82	0xbfde678e	-1.7375352
83	0x3f9f8ca3	1.2464794
84	0x3e936b5a	0.2879284
85	0xbed8a022	-0.42309672
86	0x3f9a3d93	1.2050041
87	0xbd399fec	-0.04531853
88	0x3f258eab	0.6467082
89	0x3ee42831	0.44561914
90	0xbeca4897	-0.39508507
91	0x3f15d2f0	0.5852499
92	0x3eb1ff34	0.34765017
93	0xbf71b561	-0.9441739
94	0xbeab26fd	-0.33428183
95	0x3f25ecd3	0.6481449
96	0xbe7bfc81	-0.24608041
97	0xbe487dc4	-0.19579226
98	0x3f8de42e	1.108526
99	0x3e767190	0.24066758
100	0x3feb899a	1.8401368
101	0x3fedafe3	1.8569301
102	0x3e8f3c8d	0.27975884
103	0x3f2aed80	0.66768646
104	0xbf179c1e	-0.5922259
105	0x3f4ab2ef	0.7917928
106	0xbe91f05a	-0.28503686
107	0x3d7700cb	0.06030349
108	0x3e42025d	0.18946214
109	0x3f0dcd86	0.5539173
110	0xbe2ec63b	-0.17067806
111	0xbf69cbad	-0.9132641
112	0xbf9198c6	-1.1374748
113	0xbf901c75	-1.1258684
114	0x3f4aa937	0.7916445
115	0x3f428ffe	0.76000965
116	0x3f1e30a3	0.61792964
117	0xbffece3c	-1.9906688
118	0x3e5a3959	0.21310939
119	0x3f3871c8	0.72048616
120	0x3f54939a	0.8303772
121	0x400ea82a	2.229014
122	0x3eaee698	0.34160304
123	0xbeeb57a6	-0.45965308
124	0x3f8fd3a9	1.1236469
125	0xbec51158	-0.38489795
126	0x3f86e26c	1.0537848
127	0x3f2128b9	0.6295276
128	0x3f0f2ac1	0.5592461
129	0x3f37de2e	0.71823394
130	0x3f19d722	0.6009389
131	0x3f47e272	0.78079903
132	0x3eec8a18	0.46199107
133	0x3d93f2ea	0.072240666
134	0xbd57a5c8	-0.052648336
135	0xbe0e4f86	-0.13897523
136	0xbf471657	-0.7776846
137	0xbf8f7c4b	-1.1209806
138	0xbe0e8c10	-0.13920617
139	0xbe59300f	-0.21209739
140	0xbf412248	-0.75442934
141	0xbe77c00c	-0.24194354
142	0xbe919b55	-0.2843882
143	0x3d059f5e	0.032622688
144	0x3f095fda	0.5366188
145	0x3ecc7662	0.3993407
146	0x3eb46800	0.35235596
147	0x3e2207c1	0.1582327
148	0xbf405338	-0.7512698
149	0x3e98f507	0.2987444
150	0x3f7c00fa	0.9843899
151	0xbf1590e8	-0.58424234
152	0xbf0011ef	-0.50027364
153	0x3fbe7654	1.4879861
154	0xbf814730	-1.009985
155	0x3fd4119f	1.6567878
156	0xbc2f5259	-0.010700786
157	0xbfd685c2	-1.675957
158	0xbf21bf56	-0.6318258
159	0x40003484	2.0032053
160	0xbe08592f	-0.13315271
161	0x3fa7dd47	1.3114403
162	0x3f74c4f4	0.95613027
163	0xbd07c2aa	-0.03314463
164	0x3de5e018	0.11224383
165	0xbf5f315f	-0.8718471
166	0xbf063137	-0.52418846
167	0xbf2a637d	-0.6655806
168	0x3f966b11	1.1751424
169	0x3e7f4985	0.24930389
170	0xbf8cbf3e	-1.0995862
171	0xbf15dd46	-0.5854076
172	0x3e97f599	0.29679564
173	0xbe5ad21d	-0.21369214
174	0xbed378bf	-0.4130306
175	0xbfb411d9	-1.4067947
176	0xbe5598ce	-0.20859072
177	0x3f64fde7	0.89449924
178	0xbe7c391f	-0.24631165
179	0x400daa1c	2.2135077
180	0xbeb347ca	-0.35015708
181	0xbf038b3e	-0.5138434
182	0x3f1d25f2	0.61386025
183	0xbf6a1faf	-0.91454595
184	0x3f1c4829	0.6104761
185	0x3ecdd97c	0.4020499
186	0x3f54c194	0.83107877
187	0xbf6eaea0	-0.93235207
188	0xbcdf61b6	-0.027268272
189	0x3ed4b33c	0.41542995
190	0xbeda4799	-0.4263275
191	0x3fc01ba9	1.5008441
192	0x3e94fbc0	0.2909832
193	0x3f0632e4	0.524214
194	0xbf52bbb9	-0.8231769
195	0xbdac0e65	-0.08401183
196	0x3f3a25b2	0.7271377
197	0x3ea1fc15	0.31637636
198	0xbdfd926f	-0.123814456
199	0x3f804b09	1.0022899
200	0x3ef1edc7	0.47251722
201	0x3e2ea617	0.17055546
202	0x3e7b3679	0.24532498
203	0x3f0cad47	0.549519
204	0x3f3b4c1b	0.73163
205	0xbf554620	-0.8331013
206	0xbf19392c	-0.5985286
207	0x3fa7e902	1.3117983
208	0x3f94e0e3	1.163113
209	0xbed89884	-0.4230386
210	0x3eb6fc48	0.3573935
211	0x3e3412b9	0.17585267
212	0x3f7dfb71	0.99211794
213	0x3e765e79	0.24059476
214	0x3f1a6db8	0.6032367
215	0xbffa1708	-1.9538279
216	0xbf9ea6e4	-1.2394681
217	0xbdbff243	-0.0937238
218	0xbf3a16ba	-0.7269093
219	0xbf294791	-0.66124827
220	0xbea59319	-0.3233879
221	0x3f009832	0.5023223
222	0x3f14d1ab	0.5813243
223	0x3df6561d	0.120281436
224	0x3f68111a	0.90651095
225	0x3efce86d	0.49396077
226	0x3f1c4e6a	0.6105715
227	0xbf0cf033	-0.55054015
228	0x3f083802	0.5321046
229	0xbf1b1079	-0.6057201
230	0x3e8f76d5	0.2802035
231	0xbefa4221	-0.48878577
232	0x3f5d95de	0.86556804
233	0xbbc9b8b6	-0.0061560525
234	0xbe6bb83a	-0.23019496
235	0xbbcd63b1	-0.0062679877
236	0x3f451147	0.7697949
237	0x3eea5885	0.4577066
238	0xbf07b8db	-0.5301644
239	0xbf987e85	-1.1913611
240	0x3d7ffe73	0.06249852
241	0x3e9c9c6e	0.30588096
242	0x3e4400e7	0.19140969
243	0xbf9466d0	-1.1593876
244	0xbdb300f9	-0.0874042
245	0x3f81947a	1.0123436
246	0xbfd1a86f	-1.6379527
247	0xbe2ca196	-0.16858515
248	0xbe76cbae	-0.24101135
249	0x3e9e3121	0.30896857
250	0x3ec74921	0.3892298
251	0x3f4ea7d8	0.8072486
252	0xbe1ca3a1	-0.15296794
253	0xbf882ffb	-1.0639642
254	0x3fa6bf2d	1.3027092
255	0x3edfc426	0.43704337

input_embeddings.embeddings.regional_holiday.weight f4 [19, 8]
0	0x3dc14ce4	0.09438494
1	0xbea5857d	-0.32328406
2	0xbd02c6d8	-0.031927913
3	0xbd2b9efe	-0.041899674
4	0xbd1c19a7	-0.0381104
5	0xba2c5a71	-0.0006574756
6	0x3c0b9e99	0.008521699
7	0xbbd19da0	-0.006396964
8	0x3e932656	0.28740185
9	0xbd2dfbf9	-0.042476628
10	0xbe9872f2	-0.29775196
11	0x3f116ed3	0.5680973
12	0xbc86ac6e	-0.016439643
13	0x3ed9dc93	0.42551097
14	0x40215976	2.5210853
15	0x3e9adc7a	0.30246335
16	0x3edbf40b	0.42959628
17	0xbe83d167	-0.257457
18	0x3ed89907	0.4230425
19	0xbe2ecbca	-0.17069927
20	0xc02bd55d	-2.6848977
21	0xbe8589cb	-0.2608169
22	0x400472e7	2.069513
23	0x3f9d0770	1.2267895
24	0x3d6e7976	0.058221303
25	0xbc9c6285	-0.019089947
26	0x3dd424f7	0.10358613
27	0x3d2c717e	0.042100422
28	0xc065272a	-3.5805154
29	0xc00956c5	-2.145921
30	0x4054a668	3.3226566
31	0x3f3a38f1	0.72743136
32	0x3d7122e7	0.058871176
33	0x3eac2050	0.33618402
34	0x3ef43372	0.476955
35	0xbebf8b31	-0.37410882
36	0xc011b4d0	-2.276661
37	0xbf879ca0	-1.0594673
38	0xbf91679a	-1.1359742
39	0x3f8684ec	1.0509315
40	0x3e864751	0.26226285
41	0x3e97adef	0.29624888
42	0x3e93331a	0.28749925
43	0xbee4564e	-0.44597095
44	0xbff54ae1	-1.9163476
45	0xbf5d012b	-0.8632991
46	0x4027db4b	2.6227596
47	0x401b16ae	2.4232593
48	0xbd88804a	-0.06665094
49	0xbe5982d2	-0.2124131
50	0xbec23c1f	-0.37936494
51	0x3f6bd458	0.92120886
52	0x40102224	2.2520838
53	0x400b6442	2.1779943
54	0xc0220491	-2.5315287
55	0xbfb9e79a	-1.4523804
56	0x3c288a70	0.010286912
57	0xbcfc4fa4	-0.030799694
58	0x3bf1a138	0.007373955
59	0x3e45b84b	0.19308583
60	0xbfb7980d	-1.4343277
61	0x3d496645	0.049169797
62	0x407b884e	3.9301944
63	0x3f6a9cc4	0.91645455
64	0x3e188e11	0.14897944
65	0x3d559ec4	0.052153364
66	0x3dbd71b9	0.092502065
67	0x3f2e8b28	0.68181086
68	0xbfb21fca	-1.3915951
69	0xbe97e949	-0.2967017
70	0x40568e44	3.3524332
71	0x400e011a	2.2188172
72	0x3efbee60	0.49205303
73	0x3da673ac	0.081275314
74	0x3ed0bd50	0.40769434
75	0x3f5ccda2	0.8625127
76	0xbfa10169	-1.2578555
77	0xbfdd0608	-1.7267466
78	0x3ffd82d7	1.9805554
79	0x406a65c2	3.6624608
80	0xbcb0f4a4	-0.021601029
81	0xbd7ddebc	-0.061979994
82	0xbc910bf4	-0.017705895
83	0xbe929825	-0.28631702
84	0xbfd9db76	-1.7020099
85	0xbda9be55	-0.08288256
86	0x405d70c6	3.4600081
87	0x3f982585	1.188645
88	0xbd4e8be2	-0.05042637
89	0x3c999ef4	0.018752553
90	0xbcc6a6a6	-0.024249386
91	0xbf52b3be	-0.82305515
92	0x3f76a680	0.9634781
93	0x3eb8d0c3	0.36096773
94	0xc084e031	-4.152367
95	0xbf72a6d6	-0.9478582
96	0xbdc8f53f	-0.09812402
97	0xbdd3f0e0	-0.10348678
98	0xbda8ce1d	-0.08242438
99	0xbde1fcb1	-0.11034525
100	0xbfb70bcc	-1.4300475
101	0xbe583c6e	-0.21116802
102	0x4075d74a	3.8412652
103	0xbf530735	-0.8243287
104	0xbec2a8ba	-0.38019353
105	0xbc8b759a	-0.01702385
106	0x3ed42121	0.41431525
107	0x3f0f6849	0.560185
108	0xc00a0c1b	-2.1569889
109	0xc02ca1e1	-2.6973803
110	0x4047ddfa	3.1229234
111	0x40466ab5	3.1002629
112	0xc010f60b	-2.2650173
113	0xbecfca5f	-0.40584084
114	0xbef0aac2	-0.47005278
115	0x3f3d3e14	0.7392285
116	0xbf811fbc	-1.008781
117	0xbf1f3cf3	-0.62202376
118	0xbe2bb7ee	-0.16769382
119	0xbdf8e6da	-0.121534064
120	0x3df6d3dc	0.12052128
121	0x3db847ec	0.08998093
122	0x3dab7808	0.083725035
123	0x3f811806	1.0085456
124	0x3ef34011	0.47509816
125	0x3fc86c0b	1.5657972
126	0xc0a0009b	-5.000074
127	0xc02133a4	-2.518777
128	0xbe6175e3	-0.22017626
129	0xbf257024	-0.6462424
130	0x3ea8d40e	0.32974285
131	0x3d98112d	0.07425151
132	0x3dd6b66f	0.10484015
133	0x3d230f87	0.03980973
134	0xbf0bd6d3	-0.5462467
135	0x3f7015b7	0.93783134
136	0x3ed7d8b6	0.42157525
137	0x3e83b49a	0.25723726
138	0xbc111488	-0.008854993
139	0xbfd92a6b	-1.696607
140	0xbfac143f	-1.3443679
141	0x3f432dde	0.7624186
142	0x4020c5ad	2.5120652
143	0xbf196030	-0.59912395
144	0xbd13666f	-0.03598636
145	0x3b8f2b6c	0.00436919
146	0xbcc0f575	-0.023554543
147	0xbf565444	-0.8372233
148	0xbff5d371	-1.9205152
149	0xbfb74cae	-1.4320276
150	0x40a5d96d	5.182791
151	0x3fc38616	1.5275295

input_embeddings.embeddings.local_holiday.weight f4 [115, 23]
0	0x3d044db9	0.032300685
1	0x3db1ff6d	0.08691297
2	0xbdcccdbf	-0.100001805
3	0x3c384e2e	0.011249108
4	0xbd6ae1f8	-0.057344407
5	0x3cae1e84	0.021254785
6	0x3d6927bd	0.056922663
7	0x3e1186ea	0.14211622
8	0xbcbb5b96	-0.02287082
9	0x408c6a08	4.3879433
10	0x3e288754	0.16457874
11	0x3e963a6d	0.2934145
12	0xbd3a6938	-0.0455105
13	0xbdb10c46	-0.08644919
14	0x3d5e155e	0.054219596
15	0x3c463d3b	0.012099559
16	0xbd606ecf	-0.054793175
17	0x3e0414da	0.12898579
18	0xbd4790a3	-0.04872192
19	0xbdbc4afd	-0.091939904
20	0x3e0ac9a1	0.13553478
21	0xbd7a0350	-0.061038315
22	0xbcd6670b	-0.026172182
23	0x3e9638a1	0.2934008
24	0x3e92f58f	0.2870297
25	0x3ee8ac93	0.45444164
26	0xbf6ff2f9	-0.9373012
27	0x3eaffb6c	0.34371507
28	0xbf8425d3	-1.0324043
29	0x3e9d197c	0.30683506
30	0xbeb143ae	-0.34621948
31	0xbd604d8d	-0.05476146
32	0xbe5cc996	-0.21561274
33	0x3eb9a0c4	0.36255467
34	0x3f22b108	0.6355138
35	0xbeae185a	-0.34002954
36	0xbe137f64	-0.14404064
37	0x3feb48b3	1.8381561
38	0x3f0f92aa	0.56083167
39	0xbfff272d	-1.993383
40	0x3f3cd9f5	0.73770076
41	0x3e35d362	0.17756417
42	0x3f4f5ab2	0.80997765
43	0xbe372334	-0.17884523
44	0x3d0fc9af	0.03510445
45	0xbfb74f20	-1.4321022
46	0x3e31f4f8	0.17378604
47	0x3f9d4902	1.2287905
48	0x3e1d1f07	0.15343867
49	0x3f8247b6	1.0178134
50	0xbf09c70b	-0.5381934
51	0xbfaf105c	-1.3676867
52	0x3f0a38e5	0.53993064
53	0xbeb39d7c	-0.3508109
54	0xbf1b1c78	-0.60590315
55	0xbd028a05	-0.031869907
56	0x3e72e2bd	0.23719306
57	0x3ebf388c	0.3734783
58	0xbf0a51e9	-0.54031235
59	0xbef4a48f	-0.47781798
60	0x3fb3d47b	1.4049219
61	0x3e4e86b1	0.20168568
62	0xbf3f95d6	-0.74838006
63	0xbf291c09	-0.66058403
64	0xbf2c2c3c	-0.67254996
65	0xbdfb3b40	-0.122671604
66	0x3dbda199	0.09259338
67	0x3f52c439	0.8233066
68	0xbd518cd9	-0.051159713
69	0xbccff8ae	-0.025387134
70	0xbf091cc2	-0.53559506
71	0xbf596cca	-0.84931624
72	0xbf54742a	-0.8298975
73	0xbf3134b4	-0.69221044
74	0xbf57bfb7	-0.8427691
75	0x3ef0eac6	0.47054118
76	0x3ec9fb4b	0.39449534
77	0x3f237553	0.638509
78	0xbe873557	-0.26407883
79	0xbf24ae05	-0.6432803
80	0xbf872e82	-1.0561068
81	0xbf52bdcc	-0.8232086
82	0x3f1cf965	0.61318046
83	0x3f75c739	0.96007115
84	0x3e14c9c9	0.145301
85	0xbf9d3604	-1.2282109
86	0x3c8eba31	0.017422767
87	0xbfa482ba	-1.2852395
88	0x3eb27b60	0.34859753
89	0x3f26afaa	0.6511179
90	0x3f24b646	0.6434063
91	0xbf1d5d8d	-0.6147087
92	0x3f67b20b	0.90506047
93	0xbed474c3	-0.41495332
94	0xbe88533a	-0.26625997
95	0xbec7a124	-0.38990128
96	0x3e34fc56	0.17674384
97	0xbfa694bd	-1.3014141
98	0x3fde346f	1.7359751
99	0x3c8fcceb	0.017553767
100	0xbebe6540	-0.37186623
101	0x3e81e7ea	0.2537225
102	0x3ef12604	0.47099316
103	0x3ee54d17	0.44785377
104	0xbf83b4a5	-1.0289503
105	0x3dbb0db0	0.0913347
106	0x3e0f6016	0.14001498
107	0x3dbac875	0.091202654
108	0xbf0ab798	-0.5418639
109	0xbf3b90ff	-0.7326812
110	0x3efd31bf	0.49452016
111	0xbe597834	-0.2123726
112	0x3ec64f78	0.38732505
113	0xbdd47387	-0.103735976
114	0xbfe4aa25	-1.7864424
115	0x3f328cfd	0.6974638
116	0xbf2a83d0	-0.6660738
117	0x3e7bf0f1	0.2460363
118	0xbea8c1f5	-0.32960477
119	0xbf65de13	-0.89791983
120	0x3e1440ff	0.14477919
121	0x3e47c5e2	0.1950908
122	0xbe835f0d	-0.25658455
123	0xbf56c808	-0.83898973
124	0x3eb3c61a	0.35112077
125	0xbe9d77b5	-0.30755392
126	0xbf70043b	-0.93756455
127	0xbfbb3d8c	-1.4628158
128	0x3eea1019	0.45715407
129	0x3fc4beb4	1.5370698
130	0x3d667e19	0.0562726
131	0xbf4b26ab	-0.7935588
132	0xbe35246f	-0.1768968
133	0x3ef9ea84	0.48811734
134	0x3f713ee8	0.9423661
135	0xbd93f49c	-0.0722439
136	0x3fabf55a	1.343425
137	0xc031380e	-2.7690463
138	0x3f77bc93	0.96772116
139	0xbfaa5c68	-1.330945
140	0x3e987cc4	0.2978269
141	0xbf108282	-0.5644914
142	0xbbdc6be4	-0.0067267288
143	0x3f579705	0.8421481
144	0x3e76c1f0	0.24097419
145	0x3f797427	0.9744286
146	0x3e25416d	0.16138239
147	0xbd5e2713	-0.054236483
148	0xbf06e213	-0.5268871
149	0xbf4a5e8d	-0.79050523
150	0x3ef25a2f	0.4733443
151	0x3e3a5fd9	0.18200625
152	0x3f85254d	1.0402008
153	0x3f84a5f7	1.0363148
154	0xbd565040	-0.052322626
155	0xbf81a4b4	-1.0128388
156	0xbe4afbec	-0.19822663
157	0x3e3afa91	0.18259646
158	0x3f0d2218	0.5513015
159	0x3e28984a	0.16464344
160	0x3f2a6919	0.66566616
161	0xbdecc994	-0.115618855
162	0xbebc129e	-0.36732954
163	0x3f8a80d1	1.0820562
164	0x3f8d4565	1.1036803
165	0xbf2d258c	-0.67635417
166	0x3f162ee1	0.5866528
167	0x3f1b1964	0.6058562
168	0xbf2a0221	-0.664095
169	0x3e890890	0.26764345
170	0x3e8c78a0	0.2743578
171	0x3f3ce647	0.73788875
172	0x3fbe854f	1.4884433
173	0xbf82a511	-1.0206624
174	0x3f0047fd	0.50109845
175	0xbf080de3	-0.5314619
176	0xbe12ff0b	-0.14355104
177	0x3ea168bd	0.3152522
178	0x3ebf14b5	0.37320486
179	0x3d22c718	0.03974065
180	0x3f2aa0dc	0.666517
181	0xbe583934	-0.21115571
182	0xbe03890b	-0.12845246
183	0xbf4d42b0	-0.8017988
184	0x3e350f17	0.17681538
185	0xbfc1f601	-1.51532
186	0x3e79d0e6	0.24396095
187	0x3f5a3a20	0.8524494
188	0x3f49c485	0.7881549
189	0xbe779fb2	-0.24182013
190	0xbd92d1af	-0.071689
191	0xbe6cd756	-0.23129019
192	0xbf141a64	-0.5785277
193	0x3e810fdd	0.25207415
194	0x3c8a4404	0.016878136
195	0xbc1bbf2f	-0.009506031
196	0x3da05bd1	0.078300126
197	0xbf4928d5	-0.7857793
198	0xbf4dc994	-0.8038571
199	0x3e58957d	0.21150775
200	0xbec9d37b	-0.3941916
201	0x3f6b1348	0.91826296
202	0x3fa830a2	1.3139842
203	0xbf78633b	-0.97026414
204	0xbeb489fb	-0.3526152
205	0x3eb1463c	0.34623897
206	0x3ed7ec91	0.42172673
207	0x3fb0bb46	1.3807151
208	0xbf77f228	-0.96853876
209	0xbf2d5ef1	-0.67722994
210	0x3f232fda	0.6374489
211	0x3f0bc33c	0.5459478
212	0x3f0ec5d0	0.5577059
213	0xbee6a2bc	-0.4504603
214	0xbf002bcf	-0.50066847
215	0xbf2ab96c	-0.6668918
216	0x3e612959	0.21988429
217	0xbe357686	-0.17720994
218	0xbe35f170	-0.17767882
219	0xbe8584c3	-0.26077852
220	0x3f374945	0.71596175
221	0xbe84dc9c	-0.25949562
222	0xbe8bdd90	-0.27317476
223	0x3fad6016	1.3544948
224	0x3e6d659a	0.23183289
225	0x3e2bd883	0.16781811
226	0xbfc355c7	-1.5260552
227	0xbf90c4ff	-1.1310118
228	0xbf8a45df	-1.0802573
229	0x3f302877	0.68811744
230	0xbefb33af	-0.4906287
231	0xbee5ea45	-0.44905296
232	0xbd94f92e	-0.0727409
233	0x3ee35633	0.44401702
234	0xbe8fd1ba	-0.28089696
235	0xbeee236d	-0.46511403
236	0xbc6ee4f4	-0.014580954
237	0xbf1e6aca	-0.618817
238	0xbf6587d4	-0.8966038
239	0x3e76f01b	0.2411503
240	0x3e4a8cef	0.19780324
241	0xbe057a25	-0.13034876
242	0xbdc7925d	-0.097447135
243	0x3d37c00b	0.04486088
244	0x3dee163a	0.11625333
245	0xbfbd4d87	-1.4789284
246	0x3fe0a320	1.7549782
247	0x3f02d8ef	0.51112264
248	0x3e8aa118	0.2707603
249	0xbdbb23a8	-0.0913766
250	0xbe4ae9e0	-0.19815779
251	0xbfca61d8	-1.581111
252	0x3e53b80f	0.20675682
253	0xbf629fb8	-0.8852496
254	0x3f092cfa	0.53584254
255	0x3f8abaf6	1.0838306

input_embeddings.embeddings.art.weight f4 [174, 29]
0	0x3da8e8c5	0.08247522
1	0xbed62af7	-0.41829655
2	0x3f17b655	0.5926259
3	0xbe40f05e	-0.18841693
4	0x3e6f7532	0.2338455
5	0x3ef2d757	0.47429916
6	0xbf6c9bc4	-0.9242518
7	0xbf83870f	-1.0275592
8	0x3f3ce85b	0.73792046
9	0x3f7d2a5f	0.9889278
10	0xbebd8a5f	-0.3701963
11	0xbf0c7752	-0.5486957
12	0xbf127305	-0.57206756
13	0xbf94000a	-1.1562512
14	0xbf9477bf	-1.1599044
15	0xbe647e39	-0.22313775
16	0xbe58c64a	-0.21169391
17	0xbee724a1	-0.45145133
18	0x3f0db501	0.55354315
19	0x3f28092d	0.65639
20	0x3ecb785d	0.39740267
21	0x3bb7a4fb	0.005604384
22	0xbe3a2426	-0.18177852
23	0x3e2d5083	0.16925244
24	0xbf48f4f8	-0.7849879
25	0x3d3bee3b	0.04588149
26	0x3e46d706	0.19417962
27	0x3e5b2584	0.2140103
28	0xbf3c2940	-0.7350044
29	0x3ed37027	0.41296503
30	0x3e8d7b63	0.276332
31	0x3e59aa11	0.21256281
32	0xbec0c712	-0.3765188
33	0xbf78400f	-0.96972746
34	0xbf758eaa	-0.95920813
35	0xbf395c7b	-0.7240674
36	0xbf30bf21	-0.6904164
37	0xbfb148fe	-1.38504
38	0xbf7d1619	-0.98861843
39	0xbee70349	-0.45119694
40	0xbe96e04c	-0.29468
41	0xbdb68e59	-0.089138694
42	0x3f10f429	0.5662256
43	0x3f0f8f4f	0.56078047
44	0xbeedecc2	-0.46469694
45	0xbef3c773	-0.47613105
46	0xbe3d1bf9	-0.18467702
47	0xbfb11514	-1.3834558
48	0x3cdb698d	0.026783729
49	0x3f282904	0.65687585
50	0x3ee20bce	0.4414963
51	0x3f7432f6	0.9539026
52	0x3f27e41a	0.6558243
53	0x3f29b067	0.66284794
54	0xbdf67be2	-0.120353475
55	0xbe9e8c2c	-0.30966318
56	0x3eb62e81	0.35582355
57	0x3f26b764	0.6512358
58	0x3f86befb	1.0527033
59	0x3ea93a2c	0.33052194
60	0x3c0f23cd	0.008736563
61	0xbef7f283	-0.4842721
62	0xbf81726e	-1.0113046
63	0xbf2b4541	-0.6690255
64	0x3cc9feb0	0.024657577
65	0x3d3b9bac	0.045802757
66	0xbfa75e17	-1.3075589
67	0xbf842e7b	-1.0326685
68	0xbc9d314f	-0.019188551
69	0x3e93ea99	0.2888992
70	0x3f17dae1	0.5931836
71	0x3ed3713d	0.4129733
72	0x3ed225c1	0.4104443
73	0xbda11aee	-0.078664646
74	0xbdd26f22	-0.10275103
75	0xbe7765e3	-0.2415996
76	0xbfa30e84	-1.2738805
77	0xbeb96173	-0.3620716
78	0x3e85cce6	0.26132888
79	0x3dc5ea69	0.09663851
80	0x3f00d9c3	0.5033228
81	0x3f25f4d9	0.6482673
82	0x3f31bf6c	0.6943271
83	0x3e21bc3f	0.15794466
84	0xbe042011	-0.12902857
85	0x3cff412c	0.031159006
86	0xbe920059	-0.2851589
87	0x3eeb0278	0.4590032
88	0xbf317bab	-0.6932933
89	0xbcc5287d	-0.024067158
90	0xbe686f17	-0.22698627
91	0xbf9bc7ba	-1.2170327
92	0xbfb27935	-1.394324
93	0x3d39c381	0.045352463
94	0x3d254f8e	0.040359072
95	0x3f0fdc0e	0.5619515
96	0xbfafb204	-1.3726201
97	0x3ee6222d	0.4494795
98	0x3f51fe00	0.820282
99	0x3f0c004c	0.54687953
100	0x3e8448ab	0.2583669
101	0x3e81db7c	0.25362766
102	0x3dd9f36c	0.10642132
103	0x3de1a9e3	0.110187314
104	0xbe794a9a	-0.24344864
105	0x3ee7a320	0.45241642
106	0xbe12b876	-0.14328179
107	0xbcb9d255	-0.022683302
108	0x3e8db57c	0.27677524
109	0x3f0f02bf	0.55863565
110	0x3f1a38bd	0.60242826
111	0xbed58e97	-0.4171035
112	0x3e6fd420	0.23420763
113	0x3e8f7aab	0.28023276
114	0x3e821f85	0.25414672
115	0x3db93d3b	0.09044882
116	0xbeea0db9	-0.45713595
117	0xbe7344fe	-0.23756787
118	0x3f08f6e0	0.535017
119	0xbe67bdde	-0.22631022
120	0x3f59c22f	0.85061926
121	0x3f85bafe	1.044769
122	0xbba5f3f6	-0.005064483
123	0x3cbb8eb4	0.022895195
124	0xbf7bd4dd	-0.9837168
125	0x3e477ad0	0.19480443
126	0x3f6afede	0.91795146
127	0x3e8f3251	0.27968076
128	0xbf8b5bfd	-1.0887448
129	0x3d11d798	0.035605997
130	0x3d3d9b16	0.04629048
131	0xbeb29553	-0.3487955
132	0xbeb1eb97	-0.34750053
133	0xbef64fa7	-0.48107645
134	0xbf811782	-1.0085299
135	0xbeeb82ed	-0.45998326
136	0xbd9866cb	-0.07441481
137	0xbf8cef32	-1.1010497
138	0xbfc93d30	-1.5721798
139	0xbed40a73	-0.41414222
140	0x3f557a04	0.83389306
141	0xbd8f9de3	-0.070125364
142	0xbe0d2e4e	-0.13787195
143	0xbf30a8da	-0.6900765
144	0x3e0e6a4e	0.1390774
145	0x3c13e9f8	0.0090279505
146	0x3f3a679a	0.72814333
147	0x3f219e92	0.63132584
148	0xbe50e39e	-0.20399329
149	0x3e86f9c0	0.2636242
150	0x3eeda264	0.46412957
151	0xbd34e268	-0.04416123
152	0xbd85988e	-0.06523238
153	0xbed9abc6	-0.42513865
154	0xbdc1646e	-0.094429836
155	0xbd460621	-0.04834569
156	0xbea1dca0	-0.31613636
157	0xbf81bd0c	-1.0135818
158	0x3e0f6013	0.14001493
159	0x3e12ac93	0.14323644
160	0xbebc7dd0	-0.36814737
161	0xbeaec252	-0.3413263
162	0xbf1fc9e5	-0.6241744
163	0xbe90ed34	-0.28305972
164	0x3f384df5	0.71993953
165	0x3f01fece	0.50779426
166	0xbe7cd36f	-0.2469003
167	0xbf4ec156	-0.8076376
168	0xbf997b57	-1.1990765
169	0xbf89781a	-1.0739777
170	0x3e169b49	0.14707674
171	0x3e8f2ae6	0.27962416
172	0xbf29af90	-0.6628351
173	0x3d155449	0.036457334
174	0x3f25b4fa	0.64729273
175	0x3fa95b90	1.3231068
176	0x3e3938c4	0.1808806
177	0x3f365a4f	0.7123155
178	0xbf8b3844	-1.0876546
179	0xbfb4324c	-1.4077849
180	0xbf254e60	-0.64572716
181	0xbf320552	-0.6953937
182	0x3f12c78d	0.5733574
183	0xbf819531	-1.0123655
184	0xbf628eb2	-0.88498986
185	0xbe9a8000	-0.3017578
186	0x3f6970b0	0.9118757
187	0x3f2974b1	0.6619368
188	0x3f1fa9e2	0.62368596
189	0xbe882965	-0.26594082
190	0xbe6dcb40	-0.23222065
191	0xbc251704	-0.010076288
192	0x3f052ed2	0.5202457
193	0x3e3731d9	0.17890109
194	0xbe78f4c5	-0.24312122
195	0x3ee84f91	0.45373204
196	0x3f90fa62	1.1326411
197	0x3f9b6541	1.2140275
198	0x3f16ce64	0.5890868
199	0x3f3769fe	0.71646106
200	0x3f1fa65a	0.6236321
201	0x3de8d9f7	0.113696985
202	0x3d8e9a6d	0.06963048
203	0x3f8603cb	1.0469908
204	0x3fc5e2ef	1.545988
205	0x3ea46216	0.32106084
206	0x3e53bd4e	0.20677683
207	0xbf2fed31	-0.687213
208	0xbf5305cd	-0.82430726
209	0xbf827e81	-1.0194856
210	0xbf839180	-1.0278778
211	0xbe0ece96	-0.13945994
212	0xbe063eae	-0.13109848
213	0xbf735ff7	-0.95068306
214	0xbeeea462	-0.4660979
215	0x3f292ce2	0.6608411
216	0xba00e9bf	-0.00049176434
217	0xbca0ff91	-0.019653114
218	0xbf317ae1	-0.69328123
219	0xbf2bcb4d	-0.6710709
220	0xbe01816b	-0.12647025
221	0xbe8f1c25	-0.2795116
222	0x3e07545a	0.13215771
223	0x3e211518	0.15730703
224	0x3eea2777	0.45733234
225	0x3f97130e	1.180269
226	0x3fd40a88	1.6565714
227	0x3f0ee11e	0.5581225
228	0x3ed37bff	0.4130554
229	0x3e87a89c	0.26495826
230	0x3f0e8631	0.5567351
231	0xbe16a369	-0.14710774
232	0x3f4b44ca	0.7940184
233	0x3ddb9042	0.10720874
234	0xbf4811f6	-0.78152406
235	0x3d070ca3	0.032971036
236	0xbe5668dd	-0.2093844
237	0xbe1afcc3	-0.15135483
238	0xbe81a21c	-0.25318992
239	0xbe9cd3cf	-0.30630347
240	0xbf0eb5df	-0.55746263
241	0x3eff2812	0.4983526
242	0xbfc96498	-1.5733824
243	0xc005c6ea	-2.0902658
244	0xbf559b98	-0.8344054
245	0x3c940913	0.018070733
246	0x3d04b95a	0.032403328
247	0xbe96e77a	-0.29473478
248	0xbe98cc50	-0.29843378
249	0x3f8726c6	1.0558708
250	0xbe10b183	-0.14130215
251	0xbe4fa575	-0.2027796
252	0xbd7a74e2	-0.061146624
253	0xbc3161b1	-0.010826514
254	0xbd8383c4	-0.06421617
255	0x3dca44c0	0.09876394

input_embeddings.embeddings.pos.weight f4 [45, 13]
0	0xbe0c3c40	-0.13694859
1	0x3d5e7e82	0.054319866
2	0x3ec5a20d	0.38600197
3	0xbecf7b93	-0.40523967
4	0x3e1935ea	0.14961973
5	0x3eca0a23	0.3946086
6	0xbd9b4f2b	-0.075834595
7	0xc0026517	-2.03742
8	0x3f90fa7f	1.1326445
9	0x3b514f27	0.0031938048
10	0xbf159ca6	-0.5844215
11	0x3e1d5c47	0.15367232
12	0xbe9ff163	-0.3123885
13	0xbecd61b6	-0.4011361
14	0x3e0b0712	0.13576916
15	0x3f2a7523	0.66584986
16	0x3f3e6c82	0.7438432
17	0xbee623d6	-0.44949216
18	0xbf75da47	-0.9603619
19	0x3f8934f7	1.0719289
20	0xbeb58536	-0.35453194
21	0xbe48c7fd	-0.1960754
22	0x3e2acf14	0.16680557
23	0xbf75daf2	-0.9603721
24	0x3e09d567	0.13460313
25	0xbd8ffb82	-0.07030393
26	0xbe119ef7	-0.14220797
27	0xbeccd82c	-0.40008676
28	0xbe1b85f5	-0.1518782
29	0x3e853c97	0.2602279
30	0xbd57749a	-0.052601434
31	0xbfef85b1	-1.8712674
32	0xbf223a09	-0.63369805
33	0x3edf31fb	0.4359282
34	0x3dbd8d7f	0.09255504
35	0xbeb74b45	-0.35799614
36	0xbecf503a	-0.40490896
37	0xbeba478f	-0.3638272
38	0xbf10116f	-0.562766
39	0xbcacbc85	-0.021085987
40	0xbe6f2c19	-0.23356666
41	0x3eaef845	0.3417379
42	0xbf71a50a	-0.94392455
43	0xbf10560a	-0.56381285
44	0x3f35cb6a	0.7101351
45	0x3ec6e191	0.3884397
46	0x3f2a2c94	0.6647427
47	0xbf41c05f	-0.7568416
48	0x3f3f54a7	0.74738544
49	0x3db7f0b3	0.089814566
50	0xbf2fea85	-0.68717223
51	0x3d0d5a48	0.034509927
52	0xbfdae448	-1.7100916
53	0xbf4761e8	-0.7788377
54	0xbede1879	-0.43378046
55	0xbf02c018	-0.5107436
56	0xbf9fc9bb	-1.2483438
57	0xbee4b603	-0.44670114
58	0x3d9c225d	0.07623742
59	0xbe577421	-0.21040393
60	0xbe7e1f70	-0.2481668
61	0xbe4401de	-0.19141337
62	0xbf0c1976	-0.5472635
63	0xbe58cded	-0.21172304
64	0xbf3949ca	-0.7237822
65	0xbf77b619	-0.96762234
66	0xbf355eea	-0.7084795
67	0xbe55534a	-0.20832554
68	0xbe8f7310	-0.28017473
69	0xbf3c08e8	-0.7345109
70	0xbf227a5e	-0.6346797
71	0x3e1d2f2e	0.15350029
72	0xbf52f5a0	-0.82406044
73	0x3e877d9d	0.26463023
74	0xbf1e9a3a	-0.6195408
75	0xbf55d5f6	-0.83529603
76	0xbf5e9ec8	-0.8696103
77	0xbec948d5	-0.3931338
78	0xbf369539	-0.71321446
79	0xbef4949f	-0.4776964
80	0x3b935dbc	0.004497258
81	0xbe196768	-0.14980853
82	0xbf1548e9	-0.5831438
83	0xbef1cc86	-0.47226351
84	0xbea0cf62	-0.3140822
85	0x3be91fad	0.0071143718
86	0xbe880aae	-0.26570648
87	0xbee7740e	-0.4520573
88	0xbcf4d4ee	-0.029886689
89	0x3ddd09eb	0.10792907
90	0xbfd1224d	-1.6338593
91	0xbf140a7d	-0.57828504
92	0xbea7702e	-0.32702774
93	0xbf564d0b	-0.8371131
94	0xbe4898a8	-0.19589484
95	0xbf940daa	-1.156667
96	0xbc9daf7f	-0.019248722
97	0xbf940ac5	-1.1565787
98	0x3ee99bb2	0.456266
99	0x3ce8cecb	0.02841892
100	0xbe549552	-0.20760086
101	0x3d018704	0.0316229
102	0x3e4cacdc	0.19987816
103	0xbf3d4efb	-0.7394864
104	0x3f81b7a7	1.0134171
105	0xbdd80ca9	-0.1054929
106	0x3e93d863	0.28876027
107	0x3f13c838	0.57727385
108	0x3e6b6953	0.22989397
109	0x3f1b6963	0.6070768
110	0x400508cd	2.0786622
111	0x3e04bfcd	0.12963791
112	0xbf17100d	-0.59008867
113	0x3c3f2c28	0.0116682425
114	0xbf4b86e0	-0.7950268
115	0xbec0d880	-0.37665176
116	0x3df0ae6c	0.11752018
117	0x3f47ac84	0.7799761
118	0x3f0ff1f0	0.5622854
119	0xbef3aedc	-0.47594345
120	0xbf70b2f6	-0.9402307
121	0x3dfed728	0.124433815
122	0x3f3ddedc	0.7416818
123	0x3f6abf20	0.91697884
124	0x3f155d66	0.5834564
125	0xbf8a7d67	-1.081952
126	0x3f02623c	0.50931144
127	0x3eabad15	0.3353049
128	0xbf8dc1d2	-1.1074774
129	0xbf3e1624	-0.74252534
130	0xbf129fab	-0.57274884
131	0xbf103ed9	-0.563459
132	0xbeeb8093	-0.45996532
133	0xbe4c1f3e	-0.19933793
134	0xbf8c28f6	-1.095
135	0xbefdef7c	-0.49596775
136	0xbe71fd90	-0.23631883
137	0x3f466493	0.77497214
138	0xbe94b836	-0.29046792
139	0xbebbc6b1	-0.36675027
140	0x3ddfb08e	0.10922347
141	0x3e828a84	0.25496304
142	0x3eb1e207	0.34742758
143	0xbf2b30ae	-0.66871154
144	0xbe723132	-0.23651579
145	0x3efd95df	0.49528405
146	0x3d89e693	0.06733432
147	0xbf8b9f24	-1.0907941
148	0xbef76543	-0.48319444
149	0x3ec9d571	0.39420655
150	0x3e85870f	0.26079604
151	0xbf8c5923	-1.0964702
152	0x3ebabc2d	0.36471692
153	0xbf3f1fa8	-0.7465768
154	0x3e5a472e	0.21316215
155	0xbf3860e1	-0.72022825
156	0x3eb80681	0.35942462
157	0x3e91f30b	0.2850574
158	0xbe2f800f	-0.17138694
159	0xbf17ea60	-0.59342
160	0xbf00ab84	-0.5026171
161	0x3ed46e50	0.41490412
162	0xbef93ec8	-0.4868071
163	0xbf60cc09	-0.8781133
164	0x3fc2a39d	1.5206181
165	0xbe5a8c3d	-0.21342559
166	0xbefbeaef	-0.49202678
167	0xbead147b	-0.33804688
168	0x3f0d1105	0.55104095
169	0x3e2e4f59	0.17022456
170	0x3eb25b67	0.3483536
171	0x3f37b284	0.7175677
172	0x3f5efc84	0.8710406
173	0x3f75e981	0.96059424
174	0x3eb95bca	0.36202842
175	0x3ea8c139	0.32959917
176	0xbee2b51c	-0.442788
177	0x3e742b38	0.23844612
178	0x3f54fc32	0.8319732
179	0xbe4c3517	-0.19942127
180	0x3f5e3cd0	0.8681154
181	0xbe883aaf	-0.26607272
182	0x3ecafbe3	0.396453
183	0xbd3bf423	-0.045887124
184	0x3fb44c1b	1.4085726
185	0x3f5411aa	0.82839453
186	0xbed20568	-0.4101975
187	0xbe971d49	-0.2951453
188	0x3e7eab90	0.24870133
189	0xbf232a04	-0.63735986
190	0x3f18b6f9	0.59654194
191	0xbf1ccd63	-0.61250895
192	0xbfa8ec95	-1.3197199
193	0x3e632d1e	0.2218518
194	0x3b82e005	0.0039939904
195	0xbf92eff0	-1.1479473
196	0x3eb747c3	0.35796937
197	0x3f22118b	0.6330802
198	0x3c69da61	0.014273257
199	0x3cdcd23b	0.026955714
200	0xbcfa1dd5	-0.030531803
201	0x3ed75db0	0.42063665
202	0xbf760377	-0.96099037
203	0x3f4f0361	0.8086453
204	0x3d00eb21	0.031474236
205	0xbf351b78	-0.7074504
206	0x3f430644	0.76181436
207	0xbed02483	-0.40652856
208	0x3e37aa77	0.17936121
209	0xbe4ce7d4	-0.2001031
210	0xbeef4fce	-0.46740574
211	0xbf2104df	-0.6289806
212	0x3e9aa85b	0.3020657
213	0x3f6dc9aa	0.9288584
214	0xbe85772e	-0.2606749
215	0x3eb7eb10	0.35921526
216	0x3f23e789	0.6402517
217	0x3f831838	1.0241766
218	0xbed94805	-0.4243776
219	0xbfc5d8d2	-1.5456793
220	0xbf286773	-0.6578285
221	0x3f9df2f6	1.2339771
222	0x3ec5a07f	0.3859901
223	0x3ef94c53	0.48691043
224	0x3fc34ff9	1.5258781
225	0x3f1facd4	0.6237309
226	0xbe49d693	-0.1971076
227	0x3f5ff0cd	0.8747681
228	0x3da91040	0.082550526
229	0xbf0a6dee	-0.5407399
230	0x3f46d5b2	0.77669823
231	0xbf37e081	-0.7182694
232	0xbe9acfa2	-0.30236536
233	0x3f12e77d	0.57384473
234	0xbf52e9a9	-0.8238779
235	0xbebf1344	-0.37319386
236	0x3e46dc11	0.19419886
237	0x3e7f66cc	0.24941558
238	0xbf8d5a1f	-1.1043128
239	0xbea6fdc9	-0.32615498
240	0x3e9e0c1a	0.30868608
241	0xbe64e2dd	-0.22352166
242	0x3f19fd9e	0.60152614
243	0xbeda292b	-0.42609534
244	0xbfc06b36	-1.5032718
245	0xbf0c87c8	-0.54894686
246	0x3dd44484	0.10364631
247	0x3d3b0b00	0.045664787
248	0x3f2f2925	0.68422157
249	0x3f437dfc	0.7636411
250	0x3f3a7e4e	0.72848976
251	0x3e499e77	0.19689356
252	0xbf395293	-0.72391623
253	0x3facd23f	1.3501662
254	0xbefa8a8b	-0.48933825
255	0xbe858e5e	-0.2608518

input_embeddings.embeddings.cluster.weight f4 [15, 7]
0	0xbe59373c	-0.21212476
1	0xbd8705b4	-0.06592885
2	0xbea6df8c	-0.32592428
3	0xbea5354e	-0.3226723
4	0xbf510b9c	-0.8165834
5	0xbfe5a50e	-1.7940996
6	0xbf42eb11	-0.7613993
7	0xbdfa3680	-0.12217426
8	0x3c6cbc64	0.014449213
9	0xbf17139e	-0.5901431
10	0xbdeb2303	-0.11481287
11	0xbe5aa22a	-0.21350923
12	0xbf8aba5b	-1.0838121
13	0xbf8059b4	-1.0027375
14	0xbe8d80f7	-0.27637455
15	0xbecf4ab5	-0.40486684
16	0x3f26d4f5	0.65168697
17	0x3f62ec28	0.88641596
18	0x3e96159c	0.29313362
19	0x3f0cc409	0.54986626
20	0xbdfcbb1f	-0.12340378
21	0x3f55b3c4	0.83477426
22	0x3f307874	0.68933797
23	0x3e585d1b	0.21129267
24	0x3f406bca	0.75164473
25	0x3e660f86	0.22466859
26	0xbf5bb4ff	-0.85823053
27	0x3e6c9241	0.23102666
28	0xbf64e2c7	-0.89408535
29	0xbf947206	-1.1597297
30	0xbeacb52b	-0.3373197
31	0x3e60112b	0.21881549
32	0x3e19be3c	0.15013975
33	0x3f4abf1e	0.7919787
34	0xbf43f2b9	-0.7654224
35	0xbea30445	-0.31839195
36	0xbf148de9	-0.5802904
37	0xbf88978a	-1.0671246
38	0x3f1e717e	0.61891925
39	0x3f2cafa2	0.67455494
40	0xbe81416c	-0.25245225
41	0xbc493fb7	-0.012283257
42	0xbcb52905	-0.022114286
43	0xbea8455b	-0.32865414
44	0x3da11cbf	0.07866811
45	0x3d0c1b1f	0.034205552
46	0x3cf13088	0.029442087
47	0xbfbc15b9	-1.4694129
48	0x3f5b9746	0.857777
49	0x3eafe56d	0.34354725
50	0x3ea18ac3	0.3155118
51	0xbe881d08	-0.2658465
52	0xbfdd9fcd	-1.7314392
53	0xbf5a85b2	-0.8536025
54	0x3e5cf966	0.21579513
55	0x3f6b19f8	0.918365
56	0x3fe00cad	1.7503868
57	0x3fc82a3d	1.563789
58	0xbd36c96d	-0.04462569
59	0x3eafff99	0.34374693
60	0x3ec000d2	0.37500626
61	0xbe91ea49	-0.28499058
62	0x3f1a1785	0.6019214
63	0x3f715070	0.9426336
64	0x3e8bdc38	0.2731645
65	0xbf2cdf64	-0.6752837
66	0x3f47a22c	0.7798183
67	0x3fe71075	1.8051897
68	0xbec8458d	-0.39115563
69	0x3f994d85	1.1976782
70	0x3f1a2407	0.60211223
71	0x3edd3523	0.43204603
72	0x3f5fb3e6	0.8738388
73	0x3eb862c5	0.36012855
74	0x3f8b412f	1.0879267
75	0x3e4de9d9	0.20108737
76	0x3f737026	0.95093
77	0x3ec0e5df	0.37675378
78	0x3f47c0dc	0.78028655
79	0xbf85714f	-1.0425204
80	0xbf017a2f	-0.5057706
81	0x3ee72124	0.45142472
82	0xbdf7d553	-0.12101235
83	0x3f1f32b6	0.62186754
84	0xbf036bad	-0.51336175
85	0xbf4584a2	-0.77155507
86	0xbf3a5d5b	-0.727987
87	0x3e23c421	0.15992786
88	0x3f2de3cd	0.6792572
89	0x3eeda5c2	0.46415526
90	0x3ce77b53	0.028257048
91	0x3f0e6694	0.5562527
92	0x3f148230	0.5801115
93	0x3fd71d7c	1.6805873
94	0xbe8ff5ea	-0.28117305
95	0x3de9d630	0.11417806
96	0xbe28ef6a	-0.16497579
97	0x3e4ac900	0.19803238
98	0x3e69d7ce	0.22836229
99	0x3e3d2539	0.1847123
100	0x3ea67f7f	0.32519147
101	0x3fb01750	1.3757114
102	0xbf0bda6e	-0.5463017
103	0xbf2417b7	-0.64098686
104	0xbf8aba5e	-1.0838125

input_embeddings.embeddings.weekday.weight f4 [7, 5]
0	0x3f6c5309	0.923142
1	0x3e302e77	0.17205225
2	0x3cdd9cfd	0.027052397
3	0xbf86d62a	-1.0534108
4	0x3f11cff2	0.56957924
5	0x3ddfbdd6	0.1092488
6	0xbeddfb3e	-0.43355745
7	0x3ebfa7d1	0.3743272
8	0xbf70c776	-0.94054353
9	0xbfa26cc9	-1.2689449
10	0xbe8aeab9	-0.27132204
11	0x3e920f21	0.28527167
12	0xc03a1cec	-2.9080153
13	0xbe92e506	-0.28690356
14	0xbed26123	-0.41089734
15	0xbf6bb3b4	-0.9207108
16	0xbfa6c57a	-1.3029015
17	0x3e8d4231	0.27589563
18	0xbf26d8dd	-0.6517466
19	0xbf083aa8	-0.532145
20	0xbed48579	-0.41508082
21	0xbf8f4ae1	-1.1194726
22	0xbeb41b5b	-0.3517712
23	0x3da4460b	0.08021172
24	0x3f979c56	1.1844585
25	0x3f7c8484	0.986397
26	0xbe3bfc9c	-0.18358082
27	0x3f06ac1d	0.52606374
28	0x3fa798a8	1.3093462
29	0xbede002f	-0.43359515
30	0xbf0b481e	-0.5440692
31	0x3fb3e1a7	1.4053239
32	0x3ef1ca2d	0.4722456
33	0x3f08405d	0.5322321
34	0xbe13c0aa	-0.14428964

input_embeddings.embeddings.onpromotion.weight f4 [2, 1]
0	0xbf38fe35	-0.7226289
1	0x3fe348cf	1.7756594

prescalers.time_idx.weight f4 [8, 1]
0	0xbfd4da90	-1.66292
1	0xbda628fc	-0.08113286
2	0x3f03ad65	0.51436454
3	0x3f2ebecc	0.6825988
4	0x3f912c87	1.1341714
5	0xbe08c758	-0.13357294
6	0xbe938d42	-0.2881871
7	0x3e49b37a	0.19697371

prescalers.time_idx.bias f4 [8]
0	0xbdc7c7ac	-0.09754881
1	0xbde51699	-0.11185951
2	0xbf56478c	-0.8370292
3	0xbed6ccbe	-0.4195308
4	0xbeb7dda4	-0.35911286
5	0x3e224f51	0.1585057
6	0x3eabd21e	0.33558744
7	0xbe6d03df	-0.23146008

prescalers.doy_sine.weight f4 [8, 1]
0	0x3d5ab253	0.05339272
1	0x3fe7ffe6	1.8124969
2	0x3d29e2bc	0.041475996
3	0x3e05bb27	0.13059674
4	0xbf903d8f	-1.1268786
5	0xbfa69b4e	-1.3016145
6	0xbf94652d	-1.1593376
7	0x3c29bf66	0.010360574

prescalers.doy_sine.bias f4 [8]
0	0xbcff120f	-0.03113654
1	0xbe47807c	-0.19482607
2	0xbcef1a05	-0.029187212
3	0xbdcda1fb	-0.10040661
4	0xbef0a1d5	-0.46998468
5	0x3dd37604	0.10325244
6	0xbee3441e	-0.44387907
7	0xbcb81976	-0.022473078

prescalers.doy_cosine.weight f4 [8, 1]
0	0x3f8befa3	1.0932506
1	0x3fbc0729	1.4689685
2	0x3bf03971	0.0073310663
3	0x3fcc278f	1.5949572
4	0x3f945f4e	1.1591585
5	0xbd6dca1f	-0.058054086
6	0x3f886af9	1.0657645
7	0xbd946c49	-0.07247216

prescalers.doy_cosine.bias f4 [8]
0	0x3f07a410	0.52984715
1	0xbe3f2192	-0.1866515
2	0x3d3842b0	0.044985473
3	0x3e0f8b34	0.14017946
4	0x3ec26a2b	0.37971625
5	0xbd017f4c	-0.03161554
6	0x3de5bb46	0.1121736
7	0xbbe5a3c0	-0.007008046

prescalers.relative_time_idx.weight f4 [8, 1]
0	0x3fbbf972	1.46855
1	0x3faf50d5	1.3696543
2	0x3e17e82c	0.1483466
3	0xbe9eec61	-0.31039718
4	0x3e3bc47a	0.18336669
5	0xbe625570	-0.22102904
6	0x3cee6f71	0.029105874
7	0xbe9d1ff5	-0.30688444

prescalers.relative_time_idx.bias f4 [8]
0	0x3f07c50b	0.5303504
1	0x3efde7fc	0.49591053
2	0xbd87d49f	-0.06632351
3	0x3dd7707d	0.10519502
4	0xbd344575	-0.044011552
5	0x3dadecb4	0.08492413
6	0x3f8c4330	1.0958004
7	0xbfb1de5d	-1.3895985

prescalers.sales.weight f4 [8, 1]
0	0xbd4e90d6	-0.050431095
1	0xbf74f960	-0.95693016
2	0xbf66a142	-0.9008981
3	0xbe5fbf71	-0.21850373
4	0xbedc860b	-0.43071017
5	0x3e7713c1	0.2412863
6	0x3c146f5b	0.009059752
7	0x3e3982c4	0.1811629

prescalers.sales.bias f4 [8]
0	0xc0aed1a2	-5.46309
1	0x3d885431	0.06656683
2	0x3fbc225a	1.4697983
3	0x3f4b2330	0.79350567
4	0x3f99cfc8	1.2016535
5	0xbceb2927	-0.028706146
6	0x3f09b1b0	0.53786755
7	0x3ed43e9a	0.4145401

prescalers.dcoilwtico.weight f4 [8, 1]
0	0xbdb3e9d9	-0.08784837
1	0x3f7a3c50	0.9774828
2	0x3d382aa8	0.044962555
3	0xbc497647	-0.012296266
4	0x3c168f4e	0.00918944
5	0xbce36131	-0.027756305
6	0xbe1d3985	-0.15353973
7	0x3ec0de60	0.3766966

prescalers.dcoilwtico.bias f4 [8]
0	0xbe116dd6	-0.14202055
1	0xbe272ec7	-0.16326438
2	0x3e61e169	0.22058643
3	0x3cb3621c	0.021897368
4	0xbd4b81fe	-0.049684517
5	0xbd0fc048	-0.035095483
6	0x3e52e429	0.20594849
7	0x3e81a81b	0.25323567

static_variable_selection.flattened_grn.resample_norm.mask f4 [3]
0	0x409b56b1	4.8543324
1	0x409a602a	4.824239
2	0xbf18a807	-0.5963139

static_variable_selection.flattened_grn.resample_norm.norm.weight f4 [3]
0	0x40aec69b	5.461744
1	0x40996fd4	4.794901
2	0x4126e19c	10.43008

static_variable_selection.flattened_grn.resample_norm.norm.bias f4 [3]
0	0xbfb40ac9	-1.4065791
1	0x3dc83dd5	0.097774185
2	0x3f8eb5da	1.1149247

static_variable_selection.flattened_grn.fc1.weight f4 [3, 49]
0	0x3c80631c	0.015672259
1	0xbcf0afbf	-0.029380677
2	0x3ccabca0	0.024748147
3	0xbcba29e3	-0.022725051
4	0xbb95265e	-0.004551693
5	0x3ba5db05	0.0050615096
6	0xbb98e95b	-0.00466649
7	0xbb92d022	-0.004480378
8	0xbc59668d	-0.013269079
9	0xb9b4995e	-0.00034446543
10	0xbb4e8c07	-0.0031516568
11	0x3bdc3846	0.0067205755
12	0x3cbff4fc	0.023432247
13	0xbb77911e	-0.0037775706
14	0xbaee3945	-0.0018175027
15	0xba3ab3ea	-0.0007122146
16	0xbaa0bd4d	-0.0012263447
17	0x3c031eb8	0.008002929
18	0xbc8355e1	-0.016032161
19	0x3bf961fd	0.007610558
20	0x3bda57f9	0.006663319
21	0x3bce6af7	0.0062993723
22	0x3b33faf1	0.0027462805
23	0xbb13cd68	-0.0022552852
24	0x3bc1b9ad	0.005912027
25	0xbc17e8f7	-0.009271852
26	0xbc6107eb	-0.013734798
27	0x3c30cd01	0.010791064
28	0xbbc605a0	-0.006043151
29	0x3c535336	0.012898257
30	0xbcec2cdc	-0.028829984
31	0xbc0871ea	-0.0083279405
32	0x3ba56e35	0.005048538
33	0x3bb1ee54	0.0054300223
34	0xbc8d288e	-0.017231252
35	0x3c9e1144	0.019295342
36	0x3d0fdb74	0.035121396
37	0xbc94c6de	-0.018161234
38	0xbc44b99f	-0.012007146
39	0xbc2edf81	-0.010673405
40	0xbcc24cc5	-0.023718247
41	0xbcb1cfb7	-0.021705491
42	0x3b1722d1	0.0023061524
43	0xbbbcdfc7	-0.005763981
44	0xbcf920d7	-0.030411167
45	0x3c84245d	0.01613062
46	0xba893c63	-0.0010470267
47	0x3c2d885e	0.0105915945
48	0xbc98c85e	-0.01865023
49	0x3c09bdd5	0.008407076
50	0x3b81aca7	0.0039573493
51	0x3c1fce58	0.009753786
52	0xbb9d7bce	-0.0048060184
53	0xbab73847	-0.0013978564
54	0xb9ff4231	-0.00048686707
55	0xbb2e6d77	-0.002661554
56	0xbb0ca069	-0.0021457917
57	0xbc1e59a4	-0.009664927
58	0x3bf46091	0.0074578007
59	0x3a42fafc	0.0007437912
60	0x3b85952c	0.0040766206
61	0x3b98acb4	0.0046592597
62	0x3c000d86	0.007815724
63	0x3bf2c8a9	0.0074091745
64	0x3bca94ed	0.006182304
65	0x3be5032b	0.006988903
66	0xbc8ed527	-0.017435623
67	0xbc870c66	-0.016485404
68	0x3a3165bf	0.00067671755
69	0x3a8cc58c	0.0010740026
70	0x3ba97d08	0.0051723756
71	0x3bdee870	0.006802611
72	0x3a914630	0.001108354
73	0xba56f8cb	-0.0008200525
74	0xbb9686b8	-0.0045936964
75	0xbb8fe4a6	-0.0043912707
76	0xbc2bb73e	-0.0104807
77	0xbbda8292	-0.006668397
78	0xba0d0cba	-0.00053806196
79	0xbcb0c624	-0.021578856
80	0xbc1dc00c	-0.009628307
81	0x3c80bd26	0.015715193
82	0x3bb029d1	0.0053760787
83	0xbc525155	-0.012836774
84	0x3b4749ce	0.0030408981
85	0x3cbcb4ef	0.023035495
86	0xbced65c9	-0.028979199
87	0x3b18e453	0.0023329451
88	0x3c301d13	0.010749119
89	0x3c09616f	0.008385046
90	0x3bfe799f	0.007765963
91	0xbc609be4	-0.013709042
92	0xbca65f4b	-0.020309111
93	0xbc258759	-0.01010307
94	0x3c8cf9c7	0.017208947
95	0x3b47302a	0.0030393698
96	0x3c501aa2	0.012701662
97	0xbb84bac1	-0.004050583
98	0x3b9f6296	0.0048640473
99	0x3b38dd09	0.002820792
100	0x3c52cbc9	0.012865969
101	0xbbba6224	-0.005687969
102	0x3b5ed7fc	0.0034003248
103	0xbac1265f	-0.0014736167
104	0xbc25ed61	-0.010127396
105	0xbc1a223c	-0.009407576
106	0xbb676fb8	-0.0035314392
107	0x3b938e0d	0.0045030178
108	0xbc5a0773	-0.01330744
109	0xbbda385a	-0.0066595497
110	0x3b826ecd	0.0039804936
111	0x3bd21409	0.00641108
112	0x3bb14cfd	0.005410789
113	0x3c559081	0.013034941
114	0x3c566cb5	0.013087441
115	0xbca63318	-0.020288035
116	0xbc899802	-0.016796116
117	0x3be1a242	0.0068857977
118	0xb9bd8a9b	-0.00036152158
119	0x3af910f6	0.0019002247
120	0x3b94b648	0.004538331
121	0xbbb0bfc8	-0.005393956
122	0xbbaad894	-0.0052138064
123	0xbc0a44cb	-0.008439253
124	0xbc194650	-0.009355143
125	0xbc96d73a	-0.018413175
126	0xbc1381f2	-0.009003149
127	0xbb81630a	-0.003948574
128	0xbcd335ab	-0.025782427
129	0xbc15f34e	-0.009152247
130	0x3c96808e	0.018371847
131	0x3c4dd424	0.012562785
132	0xbc627ca7	-0.013823665
133	0xba227bbe	-0.00061982486
134	0x3c7fa387	0.015602953
135	0xbc10030f	-0.008789792
136	0xbc8394e4	-0.016062208
137	0x3c572cc7	0.013133234
138	0x3afe29c1	0.0019391106
139	0xbbeb4087	-0.007179323
140	0x3a949dc4	0.0011338522
141	0xbaf13032	-0.0018401204
142	0xbc31e748	-0.010858364
143	0x3bc6cefc	0.006067155
144	0x3c03b18d	0.008037937
145	0x3c5cf53e	0.013486205
146	0x3b1b0ac1	0.0023657533

static_variable_selection.flattened_grn.fc1.bias f4 [3]
0	0xbfc224d9	-1.5167495
1	0xc0231903	-2.5484016
2	0xc016f217	-2.358526

static_variable_selection.flattened_grn.fc2.weight f4 [3, 3]
0	0x3de19316	0.110143825
1	0x3e026292	0.12732914
2	0x3dfd77d3	0.1237637
3	0x3d7afbbc	0.06127523
4	0x3d929343	0.07156994
5	0x3d860339	0.065435834
6	0xbd446550	-0.04794818
7	0xbd169c8f	-0.0367704
8	0xbd1d5637	-0.0384123

static_variable_selection.flattened_grn.fc2.bias f4 [3]
0	0xc08f4302	-4.4769297
1	0xbfbc675c	-1.4719043
2	0x401f01db	2.4844882

static_variable_selection.flattened_grn.gate_norm.glu.fc.weight f4 [6, 3]
0	0xbd954b79	-0.07289786
1	0xbca3b6e2	-0.019984666
2	0x3d2b4b0a	0.04181961
3	0xbe8f14ec	-0.2794565
4	0x3e9960df	0.2995672
5	0xbe7ec261	-0.24878837
6	0x3e24d4aa	0.1609675
7	0xbe064392	-0.13111714
8	0x3e28c934	0.16483003
9	0x3e7dc31f	0.24781464
10	0x3e8398fc	0.25702655
11	0xbe84b940	-0.25922585
12	0x3f29804d	0.66211396
13	0x3e573ebf	0.2102003
14	0xbe89807b	-0.26855835
15	0x3ec6f41f	0.38858125
16	0x3ef4205d	0.4768094
17	0xbf00083d	-0.5001257

static_variable_selection.flattened_grn.gate_norm.glu.fc.bias f4 [6]
0	0x3f087f5e	0.53319347
1	0xbde5119a	-0.11184998
2	0xbe7cd429	-0.24690308
3	0xc127c28f	-10.485
4	0xc1026100	-8.148682
5	0xc113f5a7	-9.247474

static_variable_selection.flattened_grn.gate_norm.add_norm.norm.weight f4 [3]
0	0x3f057f77	0.5214762
1	0xbeb9815e	-0.36231512
2	0xbec8b4e3	-0.39200506

static_variable_selection.flattened_grn.gate_norm.add_norm.norm.bias f4 [3]
0	0x3fbd3748	1.4782495
1	0x3f0b6b7b	0.5446088
2	0x3db60b47	0.0888887

static_variable_selection.single_variable_grns.art.mask f4 [32]
0	0xbf04fe78	-0.5195079
1	0x40924abe	4.571624
2	0x41297c09	10.592782
3	0x404ddc4a	3.2165704
4	0x3fd9df62	1.7021296
5	0x403a5082	2.9111638
6	0xbf92d052	-1.1469824
7	0x40a4403b	5.1328406
8	0xc143db87	-12.241096
9	0x407f81ce	3.9922976
10	0x40add41c	5.4321423
11	0xc06e8e6d	-3.727443
12	0x404c69ff	3.1939695
13	0x404390d6	3.055715
14	0xc091eb17	-4.5599475
15	0x40820d91	4.064156
16	0xc05489bc	-3.3209066
17	0x4017fca6	2.3747954
18	0xc10f473d	-8.954892
19	0x411e8cc5	9.909368
20	0x405ad505	3.4192517
21	0xc00a42a9	-2.1603186
22	0x3fd3ab0b	1.6536573
23	0x40b18c87	5.548404
24	0x413f7ee9	11.968484
25	0x401f2027	2.4863374
26	0x4048985f	3.1343
27	0xc0bd235b	-5.910566
28	0x408bc413	4.367685
29	0xbfadd122	-1.3579447
30	0x414632b5	12.38738
31	0x4012555a	2.2864594

static_variable_selection.single_variable_grns.art.norm.weight f4 [32]
0	0xc0d6844b	-6.703649
1	0x40d3001a	6.5937624
2	0x412ae506	10.680914
3	0x40651d90	3.5799294
4	0x40033b6f	2.0505025
5	0x40c216ee	6.065299
6	0x3f831862	1.0241816
7	0x409b18fc	4.8468
8	0x411af795	9.685445
9	0x40cb91b3	6.3615355
10	0x40c8465d	6.2585893
11	0xbf980e8e	-1.1879442
12	0x40f25927	7.573383
13	0x40bccc64	5.89995
14	0x4095db61	4.6830297
15	0x40c9aff1	6.302727
16	0x406a4836	3.6606574
17	0x40bf1d2c	5.972311
18	0x40f83226	7.7561216
19	0x410127fa	8.07226
20	0x40a012be	5.002288
21	0x4024e78a	2.576632
22	0x40b0c70a	5.5242968
23	0x40561122	3.3447957
24	0x40be1695	5.9402566
25	0x40828dc5	4.079806
26	0x40a1c388	5.0551186
27	0xc08df265	-4.435839
28	0x40bd0439	5.9067655
29	0x404b919d	3.1807625
30	0x4130b4ba	11.044123
31	0x40d4317b	6.63104

static_variable_selection.single_variable_grns.art.norm.bias f4 [32]
0	0xbfa41bf9	-1.2821037
1	0xbf003b0f	-0.50090116
2	0x3f19107e	0.5979079
3	0x3fc3aebb	1.5287699
4	0x3f4cc231	0.7998381
5	0x3b8c8ee9	0.004289497
6	0xbe8c1c0c	-0.27365148
7	0xc0a30994	-5.094919
8	0x3ac31142	0.0014882463
9	0xc005371c	-2.0814886
10	0xc0618e1e	-3.5242991
11	0xbfb1ade1	-1.3881189
12	0x4025e6f5	2.5922215
13	0xbf49988f	-0.7874841
14	0x3f00aa46	0.50259817
15	0x3fb04556	1.377116
16	0xbf2c6bf7	-0.6735224
17	0xc089ba35	-4.3039804
18	0xbdb17941	-0.086657055
19	0x3e980c19	0.2969673
20	0xbf5fc520	-0.87410164
21	0x3f597687	0.84946483
22	0x40653fc2	3.5820165
23	0xc0361555	-2.845052
24	0xc08b585b	-4.3545356
25	0x3f93558d	1.1510483
26	0x3f214258	0.6299186
27	0x3f9b086e	1.2111948
28	0x409f6e55	4.9822183
29	0x3f444d5d	0.76680547
30	0x403529b8	2.8306713
31	0xbfd681e2	-1.6758387

static_variable_selection.single_variable_grns.pos.mask f4 [32]
0	0xc00b9677	-2.1810586
1	0x40563130	3.3467522
2	0x40c78c73	6.2358947
3	0x40fb8163	7.8595443
4	0x3fe82e3f	1.8139113
5	0x3f3e8be1	0.7443219
6	0xc0f9bc7d	-7.804259
7	0xc1219d08	-10.100838
8	0x3f8aeaac	1.0852866
9	0xc06f39ac	-3.737895
10	0x409dbb2c	4.929098
11	0x412121f8	10.070793
12	0x40fff1dc	7.998274
13	0x415d689d	13.83804
14	0xc13575af	-11.341231
15	0x3e8f63f1	0.28005937
16	0x3f8ffc4c	1.124887
17	0xc00a984c	-2.1655455
18	0x3fec3e31	1.8456479
19	0xc0946ec1	-4.63852
20	0x4082460a	4.0710497
21	0xc09be0d4	-4.871195
22	0xc09eb091	-4.9590535
23	0x403356c2	2.8021703
24	0xc08fbe0b	-4.4919486
25	0xc0d369dd	-6.606673
26	0x405ab497	3.4172723
27	0xc018ba62	-2.386376
28	0x3f3383ef	0.7012319
29	0x40d85f54	6.7616367
30	0xbfe89acf	-1.8172244
31	0x40246729	2.5687964

static_variable_selection.single_variable_grns.pos.norm.weight f4 [32]
0	0x3fb4aef5	1.4115893
1	0x407725e4	3.8616877
2	0xbfd318a3	-1.6491894
3	0x4052f037	3.2959116
4	0x4018d320	2.387886
5	0x40578407	3.3674333
6	0x417cb8b7	15.795096
7	0x4094c16b	4.6486106
8	0x40bf0a35	5.969996
9	0xbf94de8d	-1.1630417
10	0x40b5fd07	5.687137
11	0x40d9ce9f	6.8064723
12	0xc09f8f84	-4.986269
13	0x413b199d	11.693753
14	0xc1408901	-12.033448
15	0x410199b1	8.100022
16	0x40f7d3db	7.7446113
17	0xc0266cfe	-2.6004024
18	0x413c44fb	11.766841
19	0x41038948	8.221016
20	0x40d19117	6.548961
21	0xc0904670	-4.5085983
22	0x3f0241a1	0.5088139
23	0x402f3b02	2.7379766
24	0xc0a7a5df	-5.238998
25	0xbf5231c2	-0.82107174
26	0x40ab7875	5.358454
27	0x4109ee9f	8.620757
28	0x3fe6d001	1.8032228
29	0x400562f2	2.0841641
30	0x408237c5	4.069308
31	0x41496c9a	12.589014

static_variable_selection.single_variable_grns.pos.norm.bias f4 [32]
0	0xbf1a7b53	-0.6034443
1	0x3f6eaa00	0.9322815
2	0xbf394a30	-0.72378826
3	0x403b07b6	2.9223456
4	0x4006de8e	2.1073337
5	0x4014a532	2.3225827
6	0x3ee6f9cc	0.45112455
7	0xbec6d00b	-0.388306
8	0xbf9da346	-1.2315452
9	0xc02f9dd9	-2.7440093
10	0xc032bc5f	-2.7927473
11	0xc00ab648	-2.1673756
12	0xbfa22962	-1.2668879
13	0x3f5a9459	0.8538261
14	0xbe51d425	-0.20491083
15	0x3fb55eb1	1.4169523
16	0x401e281b	2.4711978
17	0xc013969f	-2.3060682
18	0xbf426256	-0.759313
19	0x3f850ffe	1.0395505
20	0xc04c5995	-3.1929677
21	0xbf9ad73c	-1.2096934
22	0x4014fdc1	2.327988
23	0x3fa49ce1	1.2860376
24	0xbfde27ec	-1.7355933
25	0xbf31fcea	-0.6952654
26	0xbfa5951e	-1.2936132
27	0xbf1e2f1e	-0.61790645
28	0x3ed9690c	0.42462957
29	0xbff72fb0	-1.9311428
30	0x3e163178	0.14667308
31	0x3de94a21	0.11391092

static_variable_selection.single_variable_grns.cluster.mask f4 [32]
0	0xbfd3f29e	-1.6558416
1	0xbf058195	-0.5215085
2	0xc0881c3b	-4.253446
3	0x410f9fb0	8.976486
4	0x3fb8b411	1.4429952
5	0xc09bf585	-4.8737206
6	0xc1241437	-10.254935
7	0xc08f4fc4	-4.478487
8	0xc1373d6c	-11.452496
9	0x409734a6	4.725177
10	0xc12f15ce	-10.942823
11	0x41556e6e	13.33946
12	0xc0f73344	-7.725008
13	0xc0353cce	-2.8318362
14	0xbf2314dd	-0.6370371
15	0xc0eea0dc	-7.457136
16	0x3f70c198	0.940454
17	0x3fc79902	1.5593569
18	0xc02c4cb9	-2.6921828
19	0x3e1cbb8b	0.15305917
20	0xc007c3ed	-2.1213334
21	0xc1249ccf	-10.288283
22	0xc0c68c07	-6.204593
23	0xbffcb580	-1.974289
24	0xc151fce0	-13.124237
25	0xc0d8ed46	-6.778964
26	0x3e6b85b9	0.2300023
27	0x40fffe9f	7.9998317
28	0xc1298abc	-10.596371
29	0xbf8b25d8	-1.0870924
30	0xbf97b49f	-1.1851996
31	0xbf804159	-1.0019943

static_variable_selection.single_variable_grns.cluster.norm.weight f4 [32]
0	0xbe114c52	-0.1418927
1	0xc000f7e5	-2.0151303
2	0x3e165d35	0.14683993
3	0x409e2922	4.942521
4	0x405989cd	3.3990357
5	0x403b56c1	2.92717
6	0xc0b4e131	-5.652489
7	0x40031fba	2.0488114
8	0x411685f7	9.407706
9	0x40857d26	4.171527
10	0x410f1142	8.941713
11	0x41270b97	10.44033
12	0xc080a795	-4.020457
13	0xbe8aae5b	-0.27086148
14	0x40abd309	5.369511
15	0xc0993d57	-4.788738
16	0x4089917e	4.2990103
17	0xc08df5b4	-4.436243
18	0xbe6ace16	-0.22930178
19	0x407ea3e0	3.9787521
20	0x3c093e29	0.008376637
21	0x40a6dd61	5.214524
22	0xc09482a4	-4.6409473
23	0x3e8c72e4	0.27431405
24	0x40b19bcc	5.550268
25	0xc07caad0	-3.9479256
26	0x40b39f6f	5.613212
27	0x415c8827	13.78324
28	0xc0a719c7	-5.2218966
29	0xc00e12d3	-2.219899
30	0xbef3a7a9	-0.47588852
31	0x400fe91d	2.248603

static_variable_selection.single_variable_grns.cluster.norm.bias f4 [32]
0	0x3e80b851	0.25140622
1	0x3fdf8f0f	1.7465533
2	0xc04767a9	-3.115702
3	0x4029605f	2.646507
4	0x3f33f56b	0.70296353
5	0xc034c048	-2.824236
6	0xbf0078a3	-0.5018408
7	0xbfa15df2	-1.2606795
8	0xbe0490a4	-0.12945801
9	0xbff72a5f	-1.9309806
10	0xc061d082	-3.5283513
11	0xc006f007	-2.1084
12	0xbdf32f7c	-0.11874291
13	0xc011dadc	-2.278983
14	0xbfbb57ec	-1.4636207
15	0x3f4ac468	0.7920594
16	0x3eb1346e	0.34610313
17	0x3df2c7a4	0.11854485
18	0x3ec93251	0.392962
19	0x3f748a28	0.9552331
20	0xbf11eb90	-0.57000065
21	0xbc5f3e22	-0.013625653
22	0x3f9017e4	1.1257291
23	0x3de27650	0.110577226
24	0xbfe3d9fe	-1.7800901
25	0x3f8c552b	1.0963491
26	0x3ee1e113	0.4411703
27	0xc005d37b	-2.0910327
28	0x3fbec9bf	1.4905318
29	0xc0025efd	-2.0370476
30	0x40467c70	3.101345
31	0x3f6707e9	0.90246445

encoder_variable_selection.flattened_grn.resample_norm.mask f4 [11]
0	0xc1202313	-10.008563
1	0x40e1b20c	7.052984
2	0x410fca54	8.9868965
3	0xbcdd923f	-0.027047275
4	0x413edf04	11.929447
5	0xbfc8d4bf	-1.5689925
6	0xbf8923f4	-1.0714097
7	0x4050d320	3.262886
8	0xc12ae8c3	-10.681827
9	0xbf9e4a4e	-1.2366426
10	0xc08e4d9b	-4.4469733

encoder_variable_selection.flattened_grn.resample_norm.norm.weight f4 [11]
0	0xbea504eb	-0.32230315
1	0xc12b79f9	-10.7172785
2	0x41153ce0	9.327362
3	0x410d367c	8.825802
4	0x411b517f	9.7073965
5	0xc04425b3	-3.064801
6	0xc08874d9	-4.2642636
7	0x411da9e4	9.853977
8	0xc08d1654	-4.4089756
9	0xc0c0488b	-6.0088553
10	0x41a57d89	20.686296

encoder_variable_selection.flattened_grn.resample_norm.norm.bias f4 [11]
0	0xbf60914f	-0.87721723
1	0xbdd240aa	-0.1026624
2	0xbea2ebd8	-0.3182056
3	0x41818b0f	16.1929
4	0xc160ad47	-14.042304
5	0x418467aa	16.550617
6	0x4139a0c1	11.601747
7	0xc02f623c	-2.7403708
8	0xbec67036	-0.38757485
9	0xbfe7f3d4	-1.8121285
10	0xc18f6678	-17.925034
