hnam_experiments/Fit_and_Predict/models/Favorita/HNAM/lightning_logs/version_1/checkpoints/model-08-0.985.ckpt (torch, 399546 bytes, 216 tensors)

input_embeddings.embeddings.national_holiday.weight f4 [178, 8]
000000 51 e5 00 3e 86 44 12 3f e0 cb 50 3e 51 a5 81 3f
       0.12587477 0.5713581 0.20390272 1.0128576
000010 b9 a5 48 3d 92 0f 2f 3e 8b 85 2e bf 94 a5 9d bf
       0.04898617 0.17095783 -0.6817252 -1.2316155
000020 c4 22 91 3f 37 b3 c2 bf 5a fa 3a 3e 3d a4 e7 bf
       1.1338735 -1.5210942 0.18259564 -1.8096997
000030 95 e8 99 bd a2 6c af 3f a3 d4 b2 3f 8e 00 6a bf
       -0.075150646 1.3705027 1.3971142 -0.91407096
000040 41 70 12 c0 c7 0d 31 c0 84 a0 03 be ce e9 d2 bf
       -2.2881014 -2.766466 -0.128542 -1.6477602
000050 47 7a 7d bf 49 97 ed be 9d 12 37 40 69 b5 6c 40
       -0.99014705 -0.46404484 2.860511 3.6985724
000060 13 c1 38 bf e8 1b 57 bf 49 22 2d bf 94 e8 50 3f
       -0.7216961 -0.84026957 -0.6763044 0.81604886
000070 86 c8 8b 3f 47 0c 55 c0 64 47 98 3f 65 36 27 3f
       1.092057 -3.3288743 1.1896787 0.65317374
000080 5b 4c 80 bf d6 ae 18 c0 d2 3c 53 bf 26 cd 1b 40
       -1.0023302 -2.3856711 -0.8251468 2.4343963
000090 cd 17 0b 3e eb bc cc bf 66 76 9d 3e 4c 51 85 3f
       0.13583298 -1.5995153 0.30754393 1.0415435
0000a0 19 65 02 3f 2c 26 79 bf 11 e6 f6 be 22 df 94 bf
       0.5093551 -0.9732387 -0.48222402 -1.1630595
0000b0 37 0a 9c bc b0 9c 9a bf bc 3e 06 40 d4 77 91 3e
       -0.01904784 -1.2079067 2.097579 0.28411734
0000c0 6f 1a 0b be b9 59 b2 be c5 ec 5b 3f 0b 43 84 3e
       -0.13584302 -0.34834078 0.85908157 0.258324
0000d0 b3 a9 ae 3f ce 11 b5 bf d7 0b 15 40 06 7b 1d c0
       1.3645538 -1.4146059 2.3288476 -2.4606338
0000e0 fc 98 03 bf 4a f6 dd 3e bd aa 93 be c4 69 a2 3f
       -0.5140531 0.43351966 -0.288412 1.2688527
0000f0 ba 96 52 3f 85 65 20 3e 86 24 c3 be 72 b8 55 bf
       0.8226124 0.15663727 -0.38113803 -0.83484566
000100 a5 eb f9 3e 8c f1 a8 be 89 a0 53 3e d0 b9 2f 3f
       0.48812595 -0.32996786 0.20666708 0.686429
000110 1f 0f 50 bf d1 71 ac bf 1e a2 ae bd a9 70 7c 3f
       -0.8127307 -1.3472234 -0.08527015 0.98609406
000120 74 39 7c 3f 49 a3 92 3e 27 25 1d 3f a6 66 33 3f
       0.98525167 0.28640202 0.61384815 0.70078504
000130 d5 a6 fc be 45 6c 8d bf c2 2d cf 3e b9 d1 e5 bf
       -0.49346033 -1.1048666 0.40464598 -1.7954627
000140 8d 9e ce 3e 6f ab 8d 3f d7 a1 0f 40 a5 08 67 bf
       0.4035534 1.1067942 2.244253 -0.90247566
000150 9b 8c 13 c0 26 c2 72 3d 68 ec a0 3f 09 5e 9f bf
       -2.3054569 0.059267186 1.2572145 -1.2450572
000160 2a f2 50 bf ac e1 07 bf 25 7a cb be 80 4c b4 3f
       -0.81619513 -0.5307872 -0.39741626 1.4085846
000170 be 26 e4 bd 05 25 f0 3e 44 18 e6 3e 42 73 78 be
       -0.11140202 0.46903244 0.44940388 -0.24262717
000180 45 26 8a bf 20 ae ec be a9 a8 b7 be fe 9b b1 bf
       -1.0792929 -0.46226597 -0.35870865 -1.387573
000190 90 d3 25 40 7e c9 c1 3e 51 72 44 3f f8 3f b7 be
       2.5910378 0.3784904 0.76736933 -0.35790992
0001a0 33 d8 69 3f 28 7e 13 bf b4 b9 43 3f 8f c6 36 bf
       0.9134552 -0.57614374 0.76455235 -0.71396726
0001b0 b3 0e 53 be 87 d9 ea bf 65 2f ad 3f cf 17 3c 3f
       -0.20611076 -1.8347634 1.3530089 0.7347383
0001c0 73 83 c6 3e 00 94 83 bf 56 89 1b 40 30 d3 cd 3e
       0.38772163 -1.0279541 2.4302573 0.40200186
0001d0 76 4c da be d4 7a 93 bf 8a cc a3 bf 77 d4 1a 3f
       -0.4263646 -1.1521859 -1.2796795 0.60480446
0001e0 9c 13 56 be 81 8d 35 3f 34 2c 00 40 2b 56 3b c0
       -0.20905918 0.7091904 2.002698 -2.9271343
0001f0 d9 03 9f bf af 35 36 40 67 08 c8 3d d1 ac 07 3e
       -1.2423049 2.8470266 0.097672276 0.13249518
000200 ce 30 86 3e a9 e5 9b 3f ae 0a 55 3f 9e 9b 89 bd
       0.2620911 1.2179462 0.8321942 -0.06719135
000210 00 34 ba bf d9 27 81 bf b8 76 0c bf f8 97 0b 3f
       -1.4547119 -1.0090286 -0.5486865 0.5452876
000220 aa 88 22 be 59 1e d6 bf 89 0e b1 3f eb cc 08 be
       -0.15872446 -1.6728011 1.3832561 -0.1335942
000230 4e f9 4f 3e 7e 0c 1a 40 70 43 fb bf fd 69 04 be
       0.20309946 2.4070125 -1.9629955 -0.12931056
000240 f8 f5 07 3f b4 ab 94 bd dc ae 97 3f 4a 5f 8c be
       0.53109694 -0.07259312 1.1850238 -0.2741645
000250 49 e0 e3 bf 86 98 99 3e ce 80 1c 3f 77 79 5f bf
       -1.7802821 0.2999918 0.6113404 -0.87294716
000260 6f 0f 8d be 2b cd a5 3d b8 c1 8e bf 56 68 f4 3e
       -0.27550837 0.08095773 -1.1152868 0.47735852
000270 30 d5 3d 3f 18 4b 83 3f cc 2a a0 be e8 85 4e bf
       0.74153423 1.0257292 -0.3128265 -0.80673075
000280 43 f0 71 3d bc bf 4f 3e c4 b5 89 3f 13 e6 99 bf
       0.059067022 0.20287985 1.0758595 -1.2023338
000290 18 e0 1f 3f ae 47 84 3e 3d dd f3 be b9 70 45 3e
       0.62451315 0.25835937 -0.4762973 0.19281282
0002a0 5c 15 82 3e 6d 64 ef 3e 12 2b ae 3f 88 04 34 3f
       0.2540692 0.46756306 1.3606894 0.70319414
0002b0 56 77 0c bf 3b 4e dc be 5b 4c e7 be dc 40 3a bf
       -0.5486959 -0.43028435 -0.45175442 -0.7275522
0002c0 b4 83 b5 3e c2 7c 39 bf 8b bf 5a 3e 97 fb 47 be
       0.35452044 -0.7245599 0.2136213 -0.19529568
0002d0 16 94 9a 3b ab 20 47 3d 34 16 18 3f 80 09 16 bf
       0.0047173603 0.04861514 0.5940888 -0.58608246
0002e0 8a ed e6 3e c1 25 81 bf 14 3d 63 3e b7 99 71 3e
       0.45103103 -1.0089647 0.22191268 0.23593794
0002f0 7c c0 72 bf d6 1f 92 3e fb 40 36 3f 98 7e be be
       -0.9482496 0.28539914 0.711929 -0.37205958
000300 f4 6a c9 3f 79 44 0d c0 32 69 18 c0 f8 c4 0b 3f
       1.5735765 -2.2073042 -2.3814206 0.54597425
000310 43 f4 d3 be 00 0e a1 3f 91 6d 66 3e af 4a a6 3e
       -0.41397294 1.2582397 0.22502734 0.32478854
000320 cd a6 df 3e 38 3e 82 bf 2b 66 99 bb 73 10 42 3f
       0.43681946 -1.0175238 -0.004681369 0.7580635
000330 34 e2 99 bf ab 58 ea 3e 2c 0c f1 3e 2e a4 2b be
       -1.2022157 0.45770773 0.470796 -0.16761848
000340 be cc 8c 3f c9 f2 2e c0 62 d4 13 c0 7b 46 a9 3e
       1.0999982 -2.7335684 -2.3098378 0.33061585
000350 01 bb d5 be 4c 68 ed be 0d ff dd 3f f3 04 d5 3f
       -0.41744235 -0.46368635 1.734346 1.6642135
000360 62 6f 47 3f 17 c3 7a bc ca 36 86 bf 94 2b 3f 3f
       0.7790433 -0.015305302 -1.048547 0.7467587
000370 d3 18 08 bf f9 3b 8c be 0d 03 78 bf 77 86 71 3f
       -0.5316288 -0.27389506 -0.96879655 0.943458
000380 3a 30 a6 be 0d c1 77 bf 6c 63 06 3f 58 b5 90 3d
       -0.3245867 -0.9677895 0.52495456 0.070658386
000390 30 95 40 be f7 50 b1 bf 83 10 8c 3f 4e 28 2b 3f
       -0.1880691 -1.3852834 1.0942539 0.66858375
0003a0 90 ba 6d 3f fb 84 b6 3d 14 7b 12 bf 46 ce aa 3e
       0.92862797 0.08912083 -0.5721905 0.333605
0003b0 14 41 8a be 9d 9b 5a bf 2f 23 69 bf 9b af 5d 3f
       -0.27002776 -0.853937 -0.9106931 0.8659608
0003c0 c1 45 22 3f 72 9c 74 bf 9b e3 53 3f aa 27 8a be
       0.63387686 -0.95551217 0.82769173 -0.26983386
0003d0 e7 8b b4 be ff 48 67 bf 9f d2 05 3f 50 1c d9 be
       -0.35262987 -0.9034576 0.5227451 -0.42404413
0003e0 10 45 88 3f a6 96 1a c0 9e 11 90 3f d5 a8 3a 3f
       1.0646076 -2.4154449 1.1255376 0.7291387
0003f0 73 8c 85 bf 6b ca 48 bd 3a 8d 9e 3e 18 42 0f bf
       -1.0433487 -0.049021166 0.30967122 -0.55960226

input_embeddings.embeddings.regional_holiday.weight f4 [19, 8]
000000 3a 92 46 3d e5 6a 97 3e 88 ba 98 3e c6 0e a4 be
       0.048479296 0.29573742 0.29829812 -0.3204252
000010 1b 2b cd be b4 91 80 3a 0c 53 20 3e cd c3 8a 3d
       -0.4007195 0.0009809048 0.1565668 0.06775627
000020 e4 6a 8a 3f 27 f6 62 3f 6e ca 4c 3f 4f ab d0 3f
       1.081387 0.8865685 0.79996383 1.6302279
000030 7e 60 c7 3c 22 70 44 bf b3 e3 af bf 09 b8 03 be
       0.024338003 -0.767336 -1.3741363 -0.12863173
000040 09 97 35 be 5f 75 58 3f 38 ac 5e 3e 52 f6 6e bf
       -0.17733397 0.84554094 0.21745384 -0.93344605
000050 d0 83 e5 3f 22 a0 88 3f 00 14 6a bf 65 58 24 bf
       1.7930851 1.0673869 -0.9143677 -0.6419738
000060 22 19 c7 3f b3 72 52 bf 72 57 d3 bf d5 0b cf 3e
       1.5554545 -0.8220627 -1.6511061 0.40438715
000070 bb 41 0f 3f 6f 05 a1 bf 0e fd 9d be d7 fc 5b 3f
       0.5595967 -1.2579783 -0.30857128 0.8593268
000080 14 d9 2a bf 51 4e 8f c0 83 fe 0e 40 4d 65 51 40
       -0.66737485 -4.47831 2.2342842 3.271808
000090 1c 06 cc bf 22 31 52 3f a5 ca 02 c0 03 9a c5 3f
       -1.5939364 0.8210622 -2.0436184 1.5437626
0000a0 3c 82 da 3f f5 4c 90 c0 36 f4 a0 be 75 ac 13 3f
       1.7070994 -4.509394 -0.31436318 0.57685024
0000b0 31 98 90 bf 04 b5 65 c0 6f 8a 18 40 7f 30 8d 3f
       -1.1296445 -3.5891733 2.3834493 1.1030425
0000c0 99 3b 0d be cc 57 f6 bf 92 88 e0 3f 98 36 56 bf
       -0.13792266 -1.9245543 1.7541678 -0.83677053
0000d0 cb 1b 9e bf 77 2c ce bf 6d ea 23 40 b1 2b 29 be
       -1.2352232 -1.610732 2.5611832 -0.16520573
0000e0 09 3e e9 3e 1f 16 62 bf 21 85 2a c0 59 d9 b7 3f
       0.45555142 -0.88315004 -2.6643755 1.4363204
0000f0 e4 1e 88 3e c2 32 20 bf 71 92 13 40 44 82 02 bb
       0.26586068 -0.6257745 2.305813 -0.001991407
000100 ba d6 8c bf 7a 1f 08 bf e1 f4 fd 3e 93 ef 25 3e
       -1.1003029 -0.5317303 0.4960089 0.16204672
000110 55 88 5b 3f 17 44 59 bf f4 44 5c bf c3 80 e5 3f
       0.857549 -0.8486952 -0.86042714 1.792992
000120 e2 c0 c1 3f 30 a1 06 c0 2c 1c 9a bf f2 11 42 3d
       1.5136988 -2.103588 -1.2039847 0.047380395
000130 dc ad 6f bf 89 0a ad 3f 2f da 0b 3e ab c5 27 3f
       -0.93624663 1.351884 0.13657449 0.6553599
000140 13 56 9a 3f a4 6a 59 bf 9d dd f4 3e 04 46 41 3f
       1.2057518 -0.84928346 0.47825328 0.7549746
000150 ad ee f3 bf e8 39 20 bf 26 fb 64 be 3e 14 27 3e
       -1.9057213 -0.6258836 -0.2236143 0.16316316
000160 f6 1b 9c bf 68 8d 53 3f e5 fb bf bf 36 06 03 3f
       -1.2196033 0.82637644 -1.4998747 0.5118135
000170 9c 9b d1 3e d4 b7 c1 be 17 ea b4 3f 29 de bf 3f
       0.40939033 -0.37835562 1.4133939 1.4989673
000180 4a 84 62 bf 00 53 95 bf 78 4e 30 bf 5c a5 31 bf
       -0.8848311 -1.1665955 -0.68869734 -0.69392943
000190 86 95 bd 3f 9f ae 7d bf 2b 67 ca 3f 61 6c 99 3f
       1.4811256 -0.99094576 1.5812734 1.19862
0001a0 40 95 d9 3f bc 77 97 bf ef 02 27 3f 93 f8 22 c0
       1.6998672 -1.1833415 0.6523885 -2.5464218
0001b0 4f 4f 6a 3f e4 62 a4 be dd 89 e3 3f 5f 34 fd bf
       0.91527265 -0.32106698 1.7776448 -1.9781607
0001c0 6c 8e 4f 3f 86 c2 40 bf b9 d1 13 c0 fb 5c a5 3f
       0.81076694 -0.7529682 -2.3096755 1.2919
0001d0 94 f8 b1 bd 73 64 bb 3e 04 f2 8c 3a 2b 53 d5 3e
       -0.08689991 0.36600074 0.0010753279 0.41665015
0001e0 32 6a f2 3e 9f 71 95 be 7d 62 09 bf ec 9b 32 3f
       0.47346646 -0.2918825 -0.53665906 0.6976917
0001f0 9a 05 27 bf f5 f7 3c bf 56 b8 3f 3e b7 6d 53 3e
       -0.6524292 -0.7381585 0.18722662 0.20647322
000200 89 94 09 bf 4c 99 92 3c 7a 3f a1 bf fd 7a 18 bf
       -0.5374227 0.017895363 -1.2597497 -0.59562665
000210 09 f9 01 40 2f 22 84 3f 05 87 97 bf 2a 02 f4 3f
       2.030825 1.0322932 -1.183808 1.906316
000220 f0 93 bb 3e 3f e1 95 3c 32 97 12 3f 66 a6 85 bf
       0.36636305 0.018295882 0.57261956 -1.0441406
000230 80 57 bf 3e 24 c9 95 bd 96 2a cb bf 0c f6 2e 40
       0.37371445 -0.07313755 -1.5872371 2.7337675
000240 72 fc 71 bf 03 85 a1 bf c7 54 00 bf ac 16 de 3f
       -0.94525826 -1.2618717 -0.5012936 1.7350669
000250 ab 72 2d c0 51 6e ab be 9b 03 af 3f de bb 81 3f
       -2.7101238 -0.33482602 1.3672975 1.0135458

input_embeddings.embeddings.local_holiday.weight f4 [115, 8]
000000 b4 11 80 be 77 c5 5e 3f cd 9f 2d 3e ef 9e c6 bd
       -0.25013506 0.8702006 0.1695549 -0.09698283
000010 ba 5f 1a 3e 34 b7 7f 3e 2f bc 4c be 7b f5 1c bf
       0.1507558 0.2497223 -0.19993661 -0.61312073
000020 01 d8 23 be 91 37 b1 be e8 6a 5b bf a6 6b 19 c0
       -0.16000368 -0.34612706 -0.8571 -2.3971953
000030 f6 e2 3c be 39 1d 96 3f 83 58 c4 3f 91 c6 2c 3e
       -0.18445954 1.1727668 1.5339512 0.16872622
000040 75 e0 05 3f a8 63 c3 3a 33 2a 0a 3f 57 c6 4b bf
       0.5229562 0.0014907019 0.5397064 -0.7959952
000050 da 3c 54 bf 62 54 21 3f 1a 41 13 bf c9 60 43 3f
       -0.8290535 0.6301938 -0.5752121 0.7631956
000060 7a a1 78 3f bb 16 57 3f 52 a5 d4 3d 6b 91 a4 bf
       0.97121394 0.8401906 0.10383095 -1.2856878
000070 7a 68 40 be 74 26 9a 3f 55 29 47 3f 62 13 19 c0
       -0.18789855 1.2042985 0.7779744 -2.391808
000080 ac 9b f9 3e b5 b1 fc be ed 2d f0 be 5c f2 1c bd
       0.4875158 -0.4935433 -0.4691004 -0.03831707
000090 1c c0 10 bf 8d f9 8c 3f d6 5f 22 bf 3c cc 09 3d
       -0.56543136 1.1013657 -0.63427484 0.03364204
0000a0 6b 43 5c 3f 81 9f 5f be 57 1a b3 bf be c2 b9 3f
       0.8604037 -0.2183819 -1.3992413 1.4512556
0000b0 9e 20 08 40 ca e3 28 c0 81 d7 0e 3e 72 69 da 3d
       2.1269908 -2.6389031 0.13949396 0.10664643
0000c0 fc 98 80 bf 38 d1 32 3e ab 8d e2 be 35 79 3f be
       -1.0046687 0.17462623 -0.4424871 -0.1869858
0000d0 b3 b2 b7 3e d9 a6 6f bf 22 01 93 3f 56 14 3c 3f
       0.35878524 -0.93613964 1.1484721 0.7346853
0000e0 b8 61 a9 bf d7 8b 2c c0 ba 1c 10 3e c1 64 8d bf
       -1.3232946 -2.6960351 0.14073458 -1.1046373
0000f0 a0 e7 7c 3f 05 97 85 bf 3f 5e 6a 40 62 cf a7 3f
       0.9879093 -1.0436713 3.6620023 1.3110163
000100 78 ea 2b 3e 69 54 08 c0 ef 29 d9 3e ee a8 a2 3e
       0.16788661 -2.130152 0.42414805 0.31769508
000110 ce 8a 0e 3e 94 5d c7 bf 4b fc a1 3f 23 93 43 3f
       0.13920137 -1.5575433 1.2655119 0.7639639
000120 a7 a2 4d 3f dd 7d 41 c0 30 d4 87 3f d6 03 da bf
       0.8032631 -3.023307 1.061163 -1.7032421
000130 a2 6b 11 3f f8 ef 26 3d 81 92 ee 3f c1 19 b2 bd
       0.5680486 0.040756196 1.863846 -0.086963184
000140 f9 fb bd 3e 0e fb 00 c0 dd 12 50 3f a3 e2 6a bf
       0.37106302 -2.0153232 0.81278783 -0.9175207
000150 e9 ac eb bd e6 6b 0f bf df bf de 3f 53 f1 f8 bc
       -0.11507589 -0.56024015 1.7402304 -0.03038851
000160 8f 25 07 be 42 27 d1 bf bf cd ee be 14 fa 08 bf
       -0.13197921 -1.6340106 -0.46641347 -0.5350659
000170 b6 9f 70 3f 9f 4d 64 3f 99 71 93 3f 43 d6 b9 3d
       0.939937 0.8918094 1.1519042 0.0907407
000180 7a a0 38 bf fb 12 0a c0 f0 d0 47 3f f5 76 36 3f
       -0.7211987 -2.1574085 0.7805319 0.71275264
000190 d1 7f 02 c0 7f 85 d2 3f 34 d8 75 bf 41 b7 0e 40
       -2.0390513 1.644699 -0.96033025 2.229935
0001a0 37 ec f5 be fb 9d 6a bf 09 41 56 bc de 68 a2 3f
       -0.4803178 -0.9164731 -0.013077029 1.2688253
0001b0 34 6f 21 bf 7a 2e 0a c0 97 ee d6 3f 89 00 a2 3f
       -0.6306031 -2.1590867 1.6791562 1.2656413
0001c0 45 2c a2 3f 7e 0f 2b 3e 61 4d 2a 3e a0 af ac be
       1.266976 0.16705129 0.1663108 -0.3372774
0001d0 db 27 3c be 40 6f c3 be c2 57 31 bf eb 35 3b bd
       -0.18374579 -0.38170815 -0.6927453 -0.045705717
0001e0 ae f1 1c 3e ae 3e ac bf a4 d0 88 be 87 97 f4 3e
       0.15326568 -1.3456628 -0.2672168 0.47771856
0001f0 04 d3 94 3e d9 b9 ac bf 7c e0 b4 3f ed 86 e0 3e
       0.29067242 -1.3494216 1.4131007 0.4385294
000200 09 e7 31 3f a6 9b b7 bf c5 3c 80 3f 5e 89 9a 3f
       0.69493157 -1.4344375 1.0018545 1.2073171
000210 1e 93 c8 bf a0 9a 31 bf 91 24 a6 3e 0a 1a b2 3f
       -1.5669897 -0.69376564 0.32449773 1.3914196
000220 e6 a1 90 3d 9d 80 0a 3f f5 f3 3f bf 05 82 91 3c
       0.0706213 0.541025 -0.74981624 0.017762193
000230 d3 2c 45 bf 14 2e 29 bc 7e 83 c5 bd 94 16 55 3f
       -0.7702152 -0.010325927 -0.09644221 0.83237576
000240 78 f8 30 40 36 94 36 3f 9a 8b 03 bf 50 e7 fd 3c
       2.7651653 0.713199 -0.5138489 0.030994087
000250 67 75 d7 3e 2c 1b 11 c0 49 ee ef bd a8 f6 dc bd
       0.42081758 -2.2672834 -0.11715371 -0.107892334
000260 27 8d fe 3e 5a 44 7b 3e 48 09 e3 3d f0 cd 79 3f
       0.49717066 0.24537793 0.11085755 0.9757986
000270 d5 a1 8f be 17 ad 6a bf d7 29 1d bf 58 10 b7 bd
       -0.28053156 -0.91670364 -0.6139197 -0.08938664
000280 48 da 93 bf c1 af 98 bf 67 90 7f 3f c4 a7 fd 3f
       -1.1550989 -1.1928636 0.99829715 1.9816823
000290 f2 e8 8e bf 69 bf 8a bf ca 6e 22 bf ef c1 eb 3f
       -1.1164839 -1.0839664 -0.634503 1.8418559
0002a0 16 72 3a be b7 c1 95 bf fc 33 f1 be 88 5c 33 3f
       -0.18207583 -1.1699742 -0.47109973 0.70063066
0002b0 4a ab 6d 3f 08 2b 0e bf 3d 23 95 3f b2 23 4f bf
       0.9283949 -0.5553441 1.1651379 -0.8091384
0002c0 c8 9d 5a 3f 02 11 54 3f 1b 4f 26 be f3 28 7b bd
       0.85397005 0.8283845 -0.16241114 -0.06131835
0002d0 84 72 d4 be d0 ef 75 bc b0 61 89 3f af 7c 08 c0
       -0.41493618 -0.015010789 1.0732937 -2.13261
0002e0 a2 44 c9 be 05 62 8f 3f c2 6b d0 3e a0 01 46 3f
       -0.39310175 1.1201788 0.40707213 0.7734623
0002f0 2f 0a 83 bf 2c 62 34 bf c6 9f 3e 3f 25 b8 d0 3e
       -1.0237483 -0.704623 0.74462545 0.4076549
000300 f7 1b 0c c0 7b 53 00 bf be e6 58 3f 8f 11 3b 40
       -2.1892068 -0.5012738 0.84727085 2.9229467
000310 a3 75 a4 bf e2 55 06 bf 07 06 30 3f df 22 91 3f
       -1.28484 -0.52474797 0.68759197 1.1338767
000320 93 35 12 bf a8 d4 83 3f b6 0b 76 3f ad dd fc 3e
       -0.57113 1.0299273 0.9611162 0.49387875
000330 92 a4 d5 bf ed fb 41 3f a3 bb 90 3f 4b 31 1e c0
       -1.6690848 0.75775033 1.1307262 -2.4717586
000340 16 c8 34 3d 6c 27 d2 bf 58 f8 bb bf 12 70 cf 3f
       0.04413613 -1.6418281 -1.4685163 1.6206076
000350 20 df 03 c0 f2 8e 86 3f 53 e0 b7 3e c6 aa 2b 3f
       -2.0604935 1.0512373 0.35913333 0.67057455
000360 c3 b6 00 40 55 27 90 be a8 52 94 3f 98 2b c8 bf
       2.011155 -0.28155008 1.1587725 -1.5638304
000370 69 5e 1d bf fd e1 ae bf 06 39 a6 3f 56 ef ed bf
       -0.61472183 -1.3662716 1.2986152 -1.8588665
000380 d8 8a 07 bf f8 3e b6 3f 88 af 9c 3f ea ba 0a 3f
       -0.52946234 1.4237967 1.2241068 0.5419146
000390 d4 aa 7e bf 48 86 ba bf 3a be fb be c4 fe ac 3f
       -0.99479413 -1.4572229 -0.4916857 1.3515248
0003a0 d5 03 33 3e ee 44 87 3f 50 7a d5 3f 07 19 0a 40
       0.1748193 1.0567911 1.6677952 2.1577775
0003b0 a4 0e f0 bf 62 32 af bf e2 3f 07 3f 3b 2a d8 bf
       -1.8754468 -1.3687251 0.5283185 -1.6887888
0003c0 55 70 bf 3f a6 be 9e 3f 1e b5 3f be 83 7a 35 bf
       1.4956156 1.2401931 -0.18721434 -0.70890063
0003d0 ac 60 d9 bf e8 0a 4b 3f d1 dd 1d bf f7 70 c8 be
       -1.6982627 0.79313517 -0.6166659 -0.39148685
0003e0 c4 4b 0d 3f 2d 2e a7 3e d0 bd b9 3f e3 02 2d be
       0.55193734 0.32652417 1.4511051 -0.16895632
0003f0 28 7d a7 be e0 2d 34 bf 90 36 74 3f 22 d8 22 c0
       -0.32712674 -0.703825 0.95395756 -2.5444417

input_embeddings.embeddings.art.weight f4 [174, 8]
000000 3a bb e4 3e 6d 7f 6a bc 7b ea 0f bf f4 48 0f 3f
       0.44674093 -0.014312607 -0.56217164 0.5597069
000010 04 b0 22 bf 94 83 68 be b3 87 e7 3e 3c 2a c9 bd
       -0.6354983 -0.22706443 0.45220718 -0.09822509
000020 ed f3 78 bf 79 b5 04 bf e7 71 e1 be 3d 3f 02 3e
       -0.972472 -0.51839405 -0.44032213 0.12719436
000030 29 be 65 3f 88 c2 51 3f da 89 14 3e 51 0f 85 be
       0.89743286 0.81937456 0.14505711 -0.25988248
000040 0b 38 02 bf 27 11 77 3e dc b5 3a bf 20 24 4f bf
       -0.50866765 0.24127637 -0.72933745 -0.809145
000050 d5 e1 77 3d 47 9b 4a 3f 3b 26 6c 3f 4c 00 f5 3d
       0.060518105 0.79143184 0.92245835 0.11962947
000060 e3 67 a9 3f bf 39 89 bf ca f0 4d 3d ca e8 88 3d
       1.3234829 -1.0720748 0.050278462 0.06685026
000070 5c 36 9b bf ad 8e 82 bf 7b d6 a4 bd 96 bd 03 40
       -1.2125964 -1.0199791 -0.080487214 2.0584464
000080 da 73 60 bf 13 8c 1b 3f 69 fb b0 bf ba 8a aa 3e
       -0.87676775 0.6076061 -1.3826724 0.33308965
000090 03 ac d2 3e 43 8e 29 3f 4d 22 af be 1e 47 69 3d
       0.4114686 0.662327 -0.34205857 0.05695259
0000a0 04 07 c8 be 1d 95 32 3f 96 d9 e3 be 6a d4 57 3f
       -0.39067852 0.6975878 -0.44501942 0.84308493
0000b0 6e ae 4d be c6 e5 7a be 41 a7 55 3e b3 9e 60 3e
       -0.20086071 -0.24501714 0.20864584 0.21935539
0000c0 36 37 b6 bc b4 44 b9 3e 91 d8 6a 3f 57 7c 09 3d
       -0.022243124 0.3618523 0.91736704 0.033565845
0000d0 d4 60 59 be fd 58 fd 3e 10 ee e3 be 1f 8f 10 bf
       -0.21228343 0.49481955 -0.44517565 -0.56468385
0000e0 bf 4c 4c bd 92 c3 b9 3e 0a 1e bf 3e fd fa 12 bd
       -0.04987788 0.3628202 0.37327605 -0.035883892
0000f0 01 b5 ab be e8 3f 02 3f e9 8d 59 3d 93 b2 4b bf
       -0.33536533 0.50878763 0.05311385 -0.7956936
000100 f3 4b 09 bf 75 0a a4 3e 4b b8 7b 3f f1 05 de be
       -0.53631514 0.32039228 0.98328084 -0.43363908
000110 ec d9 76 3f 96 3a bb be 78 5b 0c bc 81 ae 25 bf
       0.9642627 -0.36568135 -0.00856673 -0.64719397
000120 e1 06 52 bf 8f 83 a7 bf a8 08 a8 3e 75 19 16 3f
       -0.82041746 -1.3087023 0.32819104 0.58632594
000130 c6 50 8e 3f e7 3a ca be fd 1c 41 bf db 6c 9b 3f
       1.11184 -0.39498064 -0.7543486 1.2142595
000140 89 8c f2 bd af 00 3c be 97 4c 43 bf 6f 8e 8d 3e
       -0.11843211 -0.18359636 -0.7628874 0.2764773
000150 01 f7 e1 be ab 27 e3 3e 2f eb 9d 3e a4 c1 b2 3e
       -0.44133762 0.44366202 0.30843493 0.3491336
000160 78 3c 1e 3f 04 d9 f8 be 1e 2b 5a bf 76 b4 a0 3c
       0.6181102 -0.4860307 -0.8522204 0.0196173
000170 78 9e 38 be 7c 65 59 3f 5e 2f 90 bd 75 7d 84 3e
       -0.18029201 0.8492048 -0.070402846 0.25876966
000180 7e 0a 0f 3e 32 3a 17 3f 3b 3c fb be 0f 31 e2 be
       0.13968846 0.59073174 -0.4906939 -0.44178054
000190 2a 59 bc bc 80 64 59 bf 6e fc c7 be 83 df dc 3f
       -0.022991735 -0.84918976 -0.39059776 1.725571
0001a0 98 2b 63 bf 6c 18 81 3f 62 55 ab be ef b2 39 3f
       -0.88738394 1.0085578 -0.3346358 0.72538656
0001b0 b6 4d 30 40 9b c7 de 3f ad fd c5 bf 0c 59 fd bf
       2.754743 1.7404665 -1.5468041 -1.97928
0001c0 f5 11 0a 3c 47 2b 46 3f 57 4b bb bf 72 67 09 3b
       0.008427133 0.77409786 -1.4632367 0.00209662
0001d0 5f b4 f2 3f da 36 0c 40 20 1e e9 be 2f 93 d9 bf
       1.8961295 2.1908479 -0.45530796 -1.6998042
0001e0 84 40 ea be 9f 06 a5 3d 62 96 70 3e e3 17 7d bf
       -0.45752347 0.080579035 0.23494866 -0.98864573
0001f0 40 ba ce be e8 b5 0a 3f e8 79 5a bc fe 0e 9c 3f
       -0.40376472 0.54183817 -0.013334729 1.2192075
000200 69 5e 3b 3f fc 65 13 3e c8 33 6b bf 7f cb 0c 3d
       0.73190933 0.14394373 -0.91875887 0.034373756
000210 10 ad 42 bf 1e bf 3c bf b5 01 d0 3e 7f 48 c8 3e
       -0.7604532 -0.7372912 0.40626302 0.3911781
000220 ed 55 8f bf 96 2b 10 bf 51 44 1a bf e6 fe 45 3f
       -1.1198097 -0.56316507 -0.6026049 0.7734207
000230 31 85 22 3f 97 8f f3 3c 0e de bc 3e f4 42 8f 3e
       0.63484484 0.029731555 0.36888164 0.2798077
000240 02 e2 04 bf 1e 5c 28 3f 22 eb 84 bf a6 0a 18 3d
       -0.5190736 0.6576556 -1.0384257 0.03711953
000250 ea a4 a2 3e 45 a0 42 bf 06 2f 4c 3e 01 3b dd 3e
       0.31766444 -0.760258 0.19939813 0.4320908
000260 00 14 21 bf 25 22 df 3e cd 54 8c bf 72 ee 4c 3f
       -0.6292114 0.43580738 -1.0963379 0.8005134
000270 2a be 04 3f 54 10 80 bf de 3f 83 bf ac 62 c2 3f
       0.5185267 -1.0004983 -1.0253866 1.5186362
000280 b7 03 26 bf 69 50 02 3f cd 7f 0b bf f2 84 4d 3f
       -0.6484942 0.50903946 -0.54491884 0.80280983
000290 70 56 ce be c1 ec d1 be a4 af 0b be 18 cc 98 3e
       -0.40300322 -0.4100094 -0.1364122 0.2984321
0002a0 c5 7d 91 be e4 2e d7 bb cf 12 d2 3e ca 36 7a 3e
       -0.28416267 -0.006566869 0.41029975 0.24434963
0002b0 a2 95 9f 3d 12 3d 98 be dd 33 55 3e 34 e8 09 be
       0.07792212 -0.29734093 0.20820566 -0.13467485
0002c0 9c 43 25 bf 21 cb 56 bd 0f 2e 93 be 50 68 ed 3e
       -0.6455629 -0.052439813 -0.28746077 0.46368647
0002d0 d9 95 ed 3e c7 fe a5 be 02 d7 38 3d 71 c9 57 3e
       0.46403387 -0.32420942 0.045126922 0.21072938
0002e0 77 78 b6 bf 0d 66 fd be 62 ab bb be 67 2e af bf
       -1.4255513 -0.4949192 -0.36654192 -1.3686036
0002f0 a6 31 0d 3e 1e 72 0d 3f 1a 2e b1 be 84 95 aa 3f
       0.1378847 0.55252254 -0.34605485 1.3326879
000300 95 9c 2f be 94 47 85 be 2a f6 0c 3f 2a 73 f5 3e
       -0.17149575 -0.26031172 0.55063117 0.47939426
000310 81 64 1a 3f 3e 8b 30 c0 61 24 33 bf b5 bf 8f 3f
       0.60309607 -2.7584987 -0.69977385 1.1230379
000320 52 de e5 3e 4e dc 7a bf 55 63 ae 3f d9 27 b5 3e
       0.4489618 -0.9799241 1.3624064 0.35381964
000330 d6 ed 5a bd 2c bc 95 bd a0 f7 5c bf 5b b5 dd 3e
       -0.053449474 -0.073112816 -0.86315346 0.43302426
000340 6f d0 07 3f 48 48 8e bf f7 df 2b be 5f c4 ba 3d
       0.5305242 -1.1115808 -0.16784655 0.09119486
000350 fc c3 df bd 31 dd 5e 3f e5 ea 1f be ff 5d 8a 3e
       -0.10926053 0.8705626 -0.15616949 0.27024838
000360 97 94 5c 3f ba 1a 1d bf 90 6a 3b 3d d0 36 97 3e
       0.8616423 -0.61368906 0.045755923 0.29534006
000370 6c 21 10 bf 9e 18 31 bd 82 da 3b bf fa 94 6d 3f
       -0.56301 -0.043236367 -0.7338029 0.92805445
000380 8c 60 65 3f 50 cb b3 be a6 fa 1c 3f 6b 60 13 3f
       0.89600444 -0.35116053 0.6131996 0.57569
000390 5d 09 d0 be 04 fc 53 be e7 18 02 bf 2b 21 00 bf
       -0.40632144 -0.20701605 -0.5081925 -0.5005061
0003a0 8f ca 0b bd f2 50 e2 be 94 bf 9d 3f a9 3e d1 3e
       -0.03412872 -0.4420238 1.232409 0.40868118
0003b0 7d e5 10 bf 4b 25 10 bd 4a 74 65 bf 3a 4f ba 3e
       -0.5660017 -0.035191815 -0.8963057 0.3638857
0003c0 f2 ae 07 3f ef 56 47 bf 9c 56 24 3f 9f 96 fd 3e
       0.5300132 -0.77867025 0.64194655 0.49528977
0003d0 76 74 0a bf bc e1 1a 3e b6 cd 8f be df 36 21 bf
       -0.54083955 0.15125173 -0.28086632 -0.6297435
0003e0 e4 6e ce 3e 38 da 6c bf ca e5 34 3f 6c f3 cb 3e
       0.40318978 -0.92520475 0.7066313 0.39834154
0003f0 81 71 29 bf 82 8a cf 3e bb 0f 51 be cc 11 09 bf
       -0.6618882 0.4053536 -0.20416157 -0.5354278

input_embeddings.embeddings.pos.weight f4 [45, 8]
000000 3f 96 bb 3e 33 bb e2 3e 1f 04 43 3f eb ed 00 c0
       0.36638066 0.44283447 0.76178163 -2.0145214
000010 26 49 81 3f 32 ab c7 be e0 57 58 bf 6d a2 dc 3c
       1.0100448 -0.389978 -0.84509087 0.02693292
000020 37 df e5 3e c9 62 ca 3f 5a ac f5 3e 95 eb e8 3e
       0.44896862 1.5811397 0.47983056 0.45492235
000030 62 a0 e8 3f 84 7e ca bf cb a6 98 3f c6 d0 cd bf
       1.8173945 -1.581986 1.1925901 -1.6079338
000040 39 20 91 3e 7d 15 d6 be ef d0 03 bf 9e 61 7b 3f
       0.28344896 -0.4181327 -0.5149068 0.98195827
000050 54 bb 01 3f ec 25 9c bf 17 e2 c4 3e 8c db ef bc
       0.50676465 -1.2199073 0.38453743 -0.029279493
000060 32 54 a7 be 99 76 ec 3c f5 4b aa 3e ab 04 63 3e
       -0.32681423 0.028865146 0.33261076 0.2216975
000070 1c ce 25 3f d8 22 b3 bf d3 9c 21 bc 91 eb e8 3e
       0.6476762 -1.3995008 -0.00986405 0.45492223
000080 0c 1b 09 3f 30 8f 7c 3e 90 c1 8a bf 19 51 4f bf
       0.53556895 0.24663997 -1.084032 -0.8098312
000090 33 0d 84 3f 52 92 e2 3e 9d 5f 87 be 37 92 21 bf
       1.0316528 0.4425226 -0.26440135 -0.6311373
0000a0 a6 fc 38 3f 85 9d 53 be 65 42 72 be 08 04 b1 bf
       0.7226051 -0.20665558 -0.2365814 -1.3829355
0000b0 d5 73 66 3f 0d 64 d0 be 1f 3c 00 bd 12 9e 48 be
       0.90020496 -0.40701333 -0.031307336 -0.19591549
0000c0 81 3d 36 3f 0f c3 86 3e c1 db cf 3b 28 26 58 bf
       0.711876 0.26320693 0.0063433354 -0.8443322
0000d0 67 f0 3f 3f b2 53 c7 bf b7 08 65 bd c9 e0 a7 3e
       0.749762 -1.5572417 -0.055916514 0.32788685
0000e0 20 e4 b8 bd a6 e1 8e bf 3a 00 1d bd 57 f5 66 3d
       -0.090278864 -1.1162612 -0.038330294 0.056386318
0000f0 3e 7f fc 3e 65 36 3c c0 52 e3 1a 3f 9b 4d f3 3f
       0.49315828 -2.94082 0.60503113 1.9008058
000100 1a 15 ae 3e da b9 15 3f 7c c9 83 bf 69 db d5 bf
       0.34000474 0.5848671 -1.0295863 -1.6707584
000110 bc 95 a5 3f e3 94 e2 3f 6f 98 c8 bd 28 9b 30 bf
       1.293632 1.7701687 -0.097946994 -0.6898675
000120 69 7d 70 3e b0 7d 21 3e 69 a7 b4 3d 6d 25 ee be
       0.2348534 0.15770602 0.088209935 -0.4651293
000130 1f 33 7d be 66 c3 aa 3e 29 13 f7 bc eb 7e 37 3d
       -0.24726532 0.33352202 -0.030160503 0.044798773
000140 1b 2b cf be 20 42 80 bf 4d 1d 5d bf df f7 c5 3f
       -0.40462574 -1.002018 -0.86372834 1.5466269
000150 db 31 e3 3d 7b fd 20 bf 22 52 9f 3f 83 c1 d2 3c
       0.110934936 -0.6288678 1.244694 0.02572704
000160 7f 34 a2 be 29 63 f2 be 7d e5 33 bf bf 5c ac be
       -0.31680676 -0.47341278 -0.70272046 -0.3366451
000170 cd 45 0b 3d 94 a0 a4 3c 5c 29 ab 3f a5 1b d7 3d
       0.034002114 0.0200961 1.3371997 0.1050332
000180 fa 99 76 bf 5d e6 2c 3f 87 e6 85 3f 20 de 7c bf
       -0.963287 0.67539006 1.0460976 -0.98776436
000190 3a 2d 4c 3f 76 83 bc bc cf ed 10 bf b3 d3 ad bc
       0.7975651 -0.023011904 -0.5661287 -0.02121911
0001a0 b1 75 8b be 11 a0 2f 3f eb 98 b1 3d 22 69 36 bf
       -0.2723823 0.68603617 0.08671745 -0.7125417
0001b0 e2 92 e1 be 3d 72 ce bc 7b 32 44 3f be e0 6c bd
       -0.44057375 -0.025200957 0.7663953 -0.05783152
0001c0 a4 70 6e bf d5 91 88 3c 88 92 19 3e ef 4c a4 be
       -0.93140626 0.0166711 0.14997303 -0.32089946
0001d0 97 11 ff bc 55 c8 19 bf c4 03 5b 3f a1 43 87 3e
       -0.031136317 -0.6007131 0.8555262 0.26418784
0001e0 86 68 99 be a6 d4 2a bd 67 be e6 3c f7 65 4b be
       -0.29962558 -0.041706704 0.028166963 -0.19863115
0001f0 f1 bf 00 bd d4 96 e2 be a8 19 b3 3f c3 03 41 be
       -0.03143305 -0.44255698 1.3992205 -0.18849091
000200 43 97 76 3e 05 8d 5d 3e b4 62 8f 3e 55 b2 da bd
       0.2408114 0.21635826 0.28004992 -0.106785454
000210 aa 9a 3c bf 2c 57 b1 3e 85 bb 9f be 34 73 98 3d
       -0.736735 0.3463682 -0.31197754 0.07443848
000220 5d b0 21 bf fe 41 49 be 9c 23 7f 3e 13 a0 a1 3e
       -0.63159734 -0.1965408 0.24915928 0.3156744
000230 94 be 35 3f 03 0b f7 be f2 b6 b1 3e 39 67 a8 be
       0.70993924 -0.4825059 0.3470989 -0.32891253
000240 68 70 15 bf 15 b4 3b bf 73 cb 46 3e a9 da 0c bf
       -0.58374643 -0.7332166 0.19413547 -0.5502115
000250 21 99 d1 3f 91 0d 44 bf 9e 1b 22 3f 23 53 ff 3d
       1.6374856 -0.765832 0.6332339 0.12467029
000260 33 81 0f bf 92 b4 17 bf 48 c9 93 3f 84 e2 af 3c
       -0.5605652 -0.59259903 1.1545801 0.021470316
000270 10 76 8e 3f 9f 8a ee bf 7a c8 00 3f 18 1d 6f 3f
       1.112978 -1.8636054 0.503059 0.9340377
000280 fd 60 81 bf 8f 9b 08 bf 18 3d 11 3e 9f 84 ce 3e
       -1.0107723 -0.53362364 0.14183462 0.40335557
000290 80 3d a1 3f 6e 17 97 bf 64 df dc bd 3c ad 8c 3e
       1.2596893 -1.1804025 -0.10784796 0.27475917
0002a0 4c 0d 94 3e 01 22 44 bf 35 8a fa bd 2a b5 66 3e
       0.28916395 -0.76614386 -0.12233392 0.22530046
0002b0 9d d0 99 3f 5b 41 d0 3e 63 c4 a4 3d da 24 be be
       1.2016789 0.40674862 0.0804527 -0.3713749
0002c0 bb 15 87 bf d2 eb 14 bf 48 36 3a 3d d5 0f cb 3e
       -1.0553507 -0.58172333 0.045461923 0.39660516
0002d0 f7 4c 89 3f d6 2d 63 bf a8 47 b4 3e ec 0f 6f 3e
       1.0726613 -0.88741815 0.3521092 0.23345917
0002e0 a6 0c 6a 3e ce db ff 3e 13 22 d3 3e b9 7c 8b bf
       0.22856387 0.49972385 0.41236934 -1.0897437
0002f0 ff ff 8d 3e d1 7c bb 3e 2f f3 0b bf 8e ce 92 3d
       0.27734372 0.36618665 -0.54667944 0.071683034
000300 ae d5 84 bc e4 11 79 3e e3 22 81 be 08 f6 08 be
       -0.016215172 0.24323231 -0.2522193 -0.13375103
000310 28 b6 99 3d f7 2a 14 3f e0 2c 59 bd 8d f5 97 be
       0.07505447 0.5787806 -0.05302131 -0.29679528
000320 8d 31 04 3f dd 08 72 bf e3 89 a0 3c 90 a5 1f bf
       0.5163811 -0.94544774 0.019597 -0.62362003
000330 55 54 be 3e 16 bc 16 3f 05 f5 0e 3f 26 d6 59 be
       0.37173715 0.58880746 0.5584262 -0.21273097
000340 6a e3 50 3e 2a 79 c7 3d 66 f1 43 3e 4d 8d 08 bc
       0.20399252 0.09739907 0.19135055 -0.00833447
000350 84 b7 41 bf 3f 9a 46 3e 81 47 27 3e 71 03 56 3d
       -0.7567065 0.19394778 0.1633587 0.052249376
000360 f4 c3 55 bc 20 63 4a bf 82 2a 3a 3e 57 89 93 bf
       -0.013047207 -0.790575 0.18180278 -1.1526288
000370 e5 00 2f 3f bd 2b 36 be e0 a6 67 3f 72 86 2f 3e
       0.6836074 -0.17790122 0.90489006 0.1714113
000380 92 85 1a bd 05 c1 f8 3e 12 f2 f1 bd 8f c7 20 bf
       -0.03772504 0.48584762 -0.118137494 -0.628045
000390 70 7c 9d bd 95 fb a1 3e 05 2d 40 3f c2 98 a0 be
       -0.0768975 0.31637254 0.75068694 -0.31366545
0003a0 dc 6e f8 3e c1 c5 29 3f 1a a0 28 be fe b2 54 bf
       0.4852208 0.66317374 -0.16467324 -0.8308562
0003b0 79 78 0c be ee 9b 39 3f ce e6 40 bd c5 8c ed be
       -0.13717832 0.72503555 -0.047095113 -0.4639646
0003c0 33 d2 97 3d a5 62 dd 3d 4f ab e3 3d 5e d8 d2 bd
       0.07413139 0.108098306 0.11116659 -0.10295175
0003d0 28 63 5a bf 01 27 4e 3f 33 12 e3 be ed 39 32 3e
       -0.8530755 0.80528265 -0.44349822 0.1740491
0003e0 aa 0f 11 be 58 6e 3b bd e4 fa b7 bd 08 c6 8b 3f
       -0.14166132 -0.04575953 -0.089834005 1.0919809
0003f0 00 1a f6 be 08 e5 2b be 1a 79 a7 be 59 7e 0d 3d
       -0.4806671 -0.16786587 -0.3270958 0.034544323

input_embeddings.embeddings.cluster.weight f4 [15, 8]
000000 ac 3a 8d 3e cc 3f e6 bf 4e 08 2f 3d 85 54 a2 bd
       0.27583826 -1.7988219 0.04273253 -0.07926277
000010 c7 80 02 be fd 3b 9f 3f 09 a0 88 3e bd 4e e9 bd
       -0.12744437 1.2440182 0.26684597 -0.11391971
000020 76 07 a6 3e fa 92 b0 bf 48 ae 67 3f c9 6b 3c bd
       0.32427567 -1.3794854 0.9050031 -0.04600123
000030 3c 7a 88 3e ed 2b 9e 3f 47 a2 6a bf f8 7f 1b bf
       0.26655757 1.2357155 -0.91653866 -0.6074214
000040 0f c3 93 3d b1 2d ce bc 24 a7 c1 be a7 14 e3 be
       0.07214939 -0.025168272 -0.3782283 -0.44351694
000050 03 09 8e 3e c1 ee df be 06 f4 d7 3e c8 31 77 3d
       0.2774125 -0.43736842 0.42178363 0.06035021
000060 10 6d 76 3d 1a 36 96 3d 6f 7c b0 be 97 f4 d3 3e
       0.060162604 0.07334538 -0.34469935 0.41397545
000070 80 92 e4 3d 88 1a 20 be ce 09 ae 3d 21 ed 91 be
       0.11160755 -0.15635121 0.08497964 -0.28501227
000080 70 33 d7 3e 68 e9 31 3d 22 0c 98 be 8d 2e aa be
       0.4203143 0.043435484 -0.29696757 -0.3323864
000090 76 95 f4 3e f3 76 db be 64 d2 38 be da 1d f8 3c
       0.4777028 -0.4286419 -0.18049008 0.030287672
0000a0 5a cb 4f bf ba 51 f3 3d af 62 82 3f 72 b2 e5 3e
       -0.81169665 0.118808225 1.0186366 0.44862705
0000b0 f4 2b 61 bf 3e d1 26 3f d4 77 e5 bd fc c1 73 3e
       -0.8795769 0.6516303 -0.11204496 0.23804468
0000c0 f5 e0 16 3e 93 83 eb be 4f 2e 89 bf bb 05 9a bf
       0.14734252 -0.4599882 -1.0717257 -1.2032999
0000d0 d2 95 2e 3e 62 01 4c 3e de 40 57 3f 5e 02 54 3e
       0.1704934 0.19922403 0.84083354 0.20704028
0000e0 e9 6f 6b bf bf 52 5a 3f 93 c9 94 be 34 e1 3c 3f
       -0.91967636 0.8528251 -0.2906004 0.7378113
0000f0 3d 2a 0b be 2e 86 b1 be 61 8c 00 3f 32 1b 03 bf
       -0.13590331 -0.34672683 0.502142 -0.5121337
000100 ee eb 93 be a4 21 42 3c e0 73 35 3f 45 5b 82 bf
       -0.28890938 0.011848841 0.70879936 -1.0184103
000110 f0 7d 3c bf a7 57 ea 3f a4 74 22 be 4f 2b 6c 3f
       -0.73629665 1.8307999 -0.15864807 0.92253584
000120 8d 8d 44 be bd 01 a7 3e 2d 71 e4 3e d6 9b 02 bf
       -0.19194622 0.32618514 0.44617596 -0.51019037
000130 d2 ae 09 be 4c 69 2e be 78 cc d3 3d f2 0b 18 3e
       -0.13445595 -0.17032355 0.10341734 0.14848307
000140 78 a7 9c 3e d8 19 c7 3d 09 a6 a8 be 81 8b ca 3e
       0.3059652 0.09721726 -0.32939175 0.39559558
000150 8b f9 23 3d 20 83 b0 bf 68 f5 bd 3e 1e ca 70 3c
       0.040032905 -1.3790016 0.37101293 0.014696626
000160 f2 56 0e bf 8e 02 4a 3f 96 96 0a 3f 7d 94 4c 3f
       -0.5560142 0.7891015 0.54136026 0.79914075
000170 9a 63 1f be 8e 2d 80 be 6b 0f 32 bf f6 11 1e 3d
       -0.15565339 -0.25034755 -0.69554776 0.038591348
000180 d5 1d e9 be 3b 56 ac 3d 2e 8e af 3f 73 71 00 3f
       -0.45530573 0.08414885 1.3715265 0.5017311
000190 ad 94 8a bf 5d 1b ce 3e 9e 85 32 bf 82 06 c0 3e
       -1.0826622 0.40255252 -0.69735134 0.37504965
0001a0 2a 68 3a 3e 96 ef 86 3e 0f 19 dc be 70 58 b7 3e
       0.18203798 0.26354665 -0.42987868 0.3580966
0001b0 8e 3c 4b be 8b e6 3a bf 5f 02 a1 3e de dc 46 bd
       -0.19847319 -0.7300803 0.31447122 -0.04855048
0001c0 2a 92 cb 3e 0e 71 a0 be 84 49 ef be 44 4f af 3f
       0.39759952 -0.31336254 -0.46735775 1.3696065
0001d0 25 30 28 be 45 33 fb bd 91 4b 00 be c6 3a 07 bf
       -0.16424616 -0.12265638 -0.12528826 -0.52824056

input_embeddings.embeddings.weekday.weight f4 [7, 8]
000000 b8 ac 7e 3e 96 62 8d 3e dd 11 09 be 98 09 a2 be
       0.24870574 0.27614278 -0.1338572 -0.31647944
000010 ef 9d 51 3e ec 3c 9a be d2 22 93 3f 4a cf 03 bf
       0.20470403 -0.30124605 1.1495001 -0.51488173
000020 d2 7b 80 bf 35 b9 48 bc a8 ed 66 3e 7c 7a 86 3e
       -1.0037787 -0.012251188 0.22551596 0.26265323
000030 c7 a0 ba be 17 b8 b8 3e 51 35 0f 3f 07 e6 37 bd
       -0.36450788 0.3607795 0.5594073 -0.044897106
000040 a4 13 99 bd bd 35 68 3e 54 d4 35 3f 28 a9 b9 3d
       -0.07474449 0.2267675 0.7102711 0.09065467
000050 79 70 86 bf c8 29 10 bf 2f 9a 8c 3e 60 ad 8b bd
       -1.0503074 -0.56313753 0.27461383 -0.06820178
000060 4c 25 de bf d6 4d d3 bd 6d 5b 3e 3f 23 ba 04 3d
       -1.7355132 -0.103175804 0.74358255 0.032404076
000070 c8 33 fa 3d b8 ec 1b 3e 98 d0 20 bc 8d 80 12 3f
       0.12216908 0.1522702 -0.009815358 0.572274
000080 24 cd a3 3e 66 a1 0e bf 3b 1b 70 bd 98 7b ba 3f
       0.31992447 -0.55715024 -0.05861972 1.4568968
000090 ab cf 81 3e b3 5f f8 bf fe 1b 9a be 8e c8 17 3e
       0.2535375 -1.9404205 -0.3009948 0.148226
0000a0 ef ea 4e 3f 89 94 b0 be 3a 56 49 bf 89 f8 02 bf
       0.8082723 -0.34488323 -0.78647196 -0.51160485
0000b0 8b b1 0f 3f a4 fc 7e 3e 29 89 79 3f e4 24 44 bf
       0.56130284 0.24901062 0.97474915 -0.7661879
0000c0 d2 ab 0d 3f 55 75 a2 3e cc 43 8e bf 80 ae cd be
       0.553403 0.31730142 -1.111444 -0.40172195
0000d0 f9 c9 0b 3e 90 cf d5 3f 33 7c ee bf 4e 81 53 3f
       0.13651265 1.6703968 -1.8631653 0.8261918

input_embeddings.embeddings.onpromotion.weight f4 [2, 8]
000000 27 51 f7 3e 8a 19 b1 be a1 1a 0e 3f 9b 12 23 bd
       0.48304102 -0.34589797 0.5550938 -0.039812665
000010 dc 4d 8a be c9 be 25 3f dc b6 62 be 05 69 d5 be
       -0.27012527 0.6474424 -0.22140068 -0.41681686
000020 e6 5d b5 3f 79 cc a9 3e ba 5b 27 bf 82 4a 10 bf
       1.416928 0.33163813 -0.6537434 -0.5636369
000030 ab 07 ad 3c 5b 46 b9 3e 32 1a 8f be f3 d0 c7 be
       0.02112182 0.3618649 -0.27949673 -0.39026603

prescalers.time_idx.weight f4 [8, 1]
000000 5b ff ca b9 96 9e bc bd d2 d0 42 3e 45 a9 9d bc
       -0.00038718697 -0.09209935 0.19024971 -0.019245753
000010 b1 88 7f 3d d4 d9 47 bd 99 27 db bb 83 c5 88 bd
       0.06238622 -0.04879172 -0.00668807 -0.06678297

prescalers.time_idx.bias f4 [8]
000000 59 6d 81 bf 67 a3 94 3e bf 42 6d bf f6 71 d8 be
       -1.0111495 0.29030916 -0.9267997 -0.42274445
000010 71 3b 12 bf 33 2d 7e 3e f5 ee 9a bd b5 dd d3 3c
       -0.5712195 0.2482193 -0.07565109 0.025862554

prescalers.doy_sine.weight f4 [8, 1]
000000 1c b5 16 3d eb b9 08 3d 84 da 3c 3c 73 e1 39 bc
       0.036793813 0.03338043 0.011526708 -0.011345255
000010 ce e8 1a 3d 6b 8c 4b bc 38 d8 17 bd 10 a1 f0 bc
       0.037819676 -0.012423615 -0.037071437 -0.029373676

prescalers.doy_sine.bias f4 [8]
000000 53 06 79 bf 2a ed 4d 3e 4a ec 2d bf cb 39 26 3e
       -0.97275275 0.20110002 -0.67938673 0.16232984
000010 1d e2 1c 3f 81 17 49 be 06 ee 23 3f 73 2e be 3c
       0.6128252 -0.19637872 0.6403507 0.023215508

prescalers.doy_cosine.weight f4 [8, 1]
000000 02 62 36 3e 80 4e 06 be 87 df bb 3c b5 50 85 bc
       0.17810825 -0.13115883 0.022933735 -0.016273836
000010 b2 fb 62 be a3 52 9a 3d 2d 12 9e 3b b1 1a a3 3d
       -0.22166327 0.07535293 0.004823944 0.07964075

prescalers.doy_cosine.bias f4 [8]
000000 f9 85 37 bf 3f bd d8 3e 0d 11 7d 3f 85 de 86 3e
       -0.716888 0.42331883 0.9885414 0.26341644
000010 d0 a0 e1 be 3e 54 40 bf 70 40 65 3e d9 3e b2 3e
       -0.44068003 -0.75128543 0.22387862 0.34813574

prescalers.relative_time_idx.weight f4 [8, 1]
000000 d7 56 19 3f 56 e2 7f bf 74 e3 40 3f 7f 59 7a bf
       0.5989813 -0.99954736 0.75347066 -0.9779281
000010 3a da 33 40 ed 29 4b c0 ce 5a e0 3f 79 13 78 c0
       2.8101945 -3.174434 1.7527711 -3.8761885

prescalers.relative_time_idx.bias f4 [8]
000000 e1 75 1b 3f 10 5d fc be 49 be cb 3e 24 42 96 bf
       0.60726744 -0.4928975 0.39793614 -1.1738935
000010 f9 ff 8b 3f 2d df 52 bf fc dc fa be 2e b1 9a bf
       1.0937492 -0.8237179 -0.48996723 -1.2085321

prescalers.sales.weight f4 [8, 1]
000000 96 50 67 bf f2 21 f0 3b da ef b2 3e 82 9b 78 3f
       -0.9035734 0.0073282653 0.34948617 0.97112286
000010 8b 72 95 bf 5d 7d 08 3f fb 40 96 3f bb 0a c7 be
       -1.1675581 0.5331629 1.173858 -0.38875374

prescalers.sales.bias f4 [8]
000000 ca d9 1a 3e 40 4c dc 3e 12 46 b4 be a1 9a 0d bf
       0.15122142 0.43026924 -0.3520971 -0.5531407
000010 2a 6f 24 3e ae 4d 26 bf f4 17 46 3c 77 77 b0 bf
       0.1605803 -0.6496228 0.012090672 -1.3786458

prescalers.dcoilwtico.weight f4 [8, 1]
000000 d4 d0 8c 3d eb 15 07 be 8d af bd bd 1d 6d 38 3e
       0.06875768 -0.13191955 -0.09261999 0.18010373
000010 5f 4b 10 3e 56 f5 a3 bd 74 f7 84 bd 7c f4 af bd
       0.14091252 -0.080057785 -0.064925104 -0.085915536

prescalers.dcoilwtico.bias f4 [8]
000000 12 d7 d5 3f ca 61 9a 3f a9 94 00 bf 95 13 45 be
       1.6706259 1.2061093 -0.5022684 -0.19245751
000010 d3 4d 73 3f d0 12 83 bf 92 05 31 bd a4 0a c9 be
       0.95040625 -1.0240116 -0.043218203 -0.3926593

causal_lns.weekday.weight f4 [8]
000000 fc 50 eb 3f b7 14 bf 3e 97 eb 3b 3f b8 42 e3 3f
       1.838409 0.37320492 0.73406357 1.7754736
000010 65 db a0 3f cd 9a 66 40 05 36 8a 40 b2 a3 19 40
       1.2566954 3.6031983 4.319094 2.4006162

causal_lns.onpromotion.weight f4 [8]
000000 d2 fb f3 3f 3f e9 f0 40 b7 50 a6 40 17 70 86 40
       1.9061224 7.5284724 5.197353 4.201183
000010 02 7f 31 40 a7 83 ca be 0a ac 1f 40 71 9a 0e 40
       2.773377 -0.39553568 2.4948754 2.2281764

causal_lns.national_holiday.weight f4 [8]
000000 64 3a 1d 3f e1 d9 8a 3f 9d 81 63 40 8a f3 82 40
       0.6141722 1.0847741 3.554786 4.092229
000010 fe 56 02 40 21 6b 83 40 39 b0 49 40 0a 52 ea 40
       2.0365596 4.1068273 3.1513808 7.3225145

causal_lns.regional_holiday.weight f4 [8]
000000 92 27 36 40 fe f1 38 40 bc d9 89 3f 06 28 ab be
       2.8461652 2.88977 1.0769572 -0.33428973
000010 22 48 ba 3e 1e f7 b5 40 15 c4 85 41 47 3a cc bf
       0.36383158 5.6864157 16.720743 -1.5955285

causal_lns.local_holiday.weight f4 [8]
000000 c2 f0 02 40 17 99 be 3e 4b 92 29 40 18 4c 26 40
       2.0459447 0.37226173 2.649554 2.5983944
000010 76 db 49 40 79 4f 05 41 d3 2c e2 3f 12 c4 fe 3d
       3.1540198 8.3319025 1.7669929 0.12439741

past_ln.weight f4 [8]
000000 fe 3d 5e 3f 6f 4d 8c 3c 58 f6 30 3f 3b df 41 3f
       0.8681334 0.017126767 0.6912589 0.7573125
000010 b6 64 3f 3f 38 4c 25 3f a3 94 45 3f 37 0e 2b 3f
       0.7476305 0.64569426 0.77179927 0.66818565

post_lns.weekday.weight f4 [8]
000000 f3 c6 07 3f ce 64 95 3f d4 24 5f 3f 09 19 20 3f
       0.5303795 1.1671388 0.8716557 0.625382
000010 3b 05 58 3f 9c dd b0 3e c6 8d 5c 3e c7 01 02 3f
       0.8438298 0.34544075 0.21538457 0.5078396

post_lns.onpromotion.weight f4 [8]
000000 c6 c5 10 3f a6 94 d8 3e 26 7d 37 3f dc c7 7b 3d
       0.5655178 0.4230091 0.71675336 0.061469898
000010 a5 58 3d 3f 8b 91 ce 3f 5f d8 62 3f d6 1e 48 3f
       0.73963386 1.6138166 0.88611406 0.7817205

post_lns.national_holiday.weight f4 [8]
000000 9d ac b3 3f 2e d1 a1 3f 1a cf 9f 3e 89 f8 5d 3e
       1.4037052 1.2641962 0.31212693 0.2167684
000010 b9 99 20 3f 57 a4 54 3e 2c 9b 8f 3e a9 fb 28 3e
       0.6273456 0.20765816 0.28048074 0.1650225

post_lns.regional_holiday.weight f4 [8]
000000 92 84 da 3c 8b 0d e2 be a3 d8 94 be c8 db 73 3e
       0.026674543 -0.44150957 -0.2907153 0.23814309
000010 1e f8 fb 3c f0 9f 8a 3d 20 88 b6 3d 48 d1 29 be
       0.03075796 0.06768787 0.089126825 -0.1658374

post_lns.local_holiday.weight f4 [8]
000000 ee 3d 06 3f b1 8f 65 3f 18 d8 c8 3e b6 40 c1 3e
       0.5243825 0.8967238 0.39227366 0.37744683
000010 38 52 c1 3e 1b 7b c9 3d 1b 83 0f 3f ee 16 e9 3e
       0.3775804 0.09837934 0.56059426 0.45525306

trend_block.gru.weight_ih_l0 f4 [24, 8]
000000 96 67 f7 be 5b 45 54 3e c2 3f fa be 7b 81 b7 3e
       -0.48321217 0.20729582 -0.48876768 0.35840973
000010 92 d4 de be c1 f7 dc be 01 d9 e3 be 9c c9 34 3f
       -0.43521553 -0.4315777 -0.44501498 0.7062013
000020 3a f3 87 3e 6b 51 ad 3f ea 11 01 bf cd 21 1e 3f
       0.26552755 1.3540472 -0.5041796 0.61770326
000030 f0 42 bf be 02 bf 62 bf 17 2c 0b c0 51 5a 4d 3f
       -0.37355757 -0.88572705 -2.174566 0.80215937
000040 02 36 8f 3e 5a ac 05 bf 29 f9 2d be a0 7a ec 3f
       0.27970892 -0.5221611 -0.16989578 1.8474922
000050 fd 55 45 be 6f 56 23 3f 92 e4 e4 bf b5 03 26 bf
       -0.19271083 0.6380376 -1.7882254 -0.64849406
000060 a7 c3 1e 3d 3d 4b be 3d fe 80 63 3d 0d f4 8b be
       0.038760807 0.09291694 0.05554294 -0.27334633
000070 af b3 32 3f 58 a6 42 bd a0 8d f6 bf 55 1d 73 3e
       0.69805425 -0.04752192 -1.926197 0.23741658
000080 0d ba a3 3f af 08 62 3e e7 b2 6a bf 19 75 e4 bf
       1.2791153 0.22073625 -0.91679233 -1.7848235
000090 d8 d8 1d 3f 73 bd ae bd 30 62 ff bf 5a 1c cd 3e
       0.61659 -0.08532228 -1.995184 0.40060693
0000a0 17 fc c6 be c9 41 8d 3f a0 e5 c4 3e 93 6f 95 bd
       -0.38864204 1.1035701 0.3845644 -0.07296672
0000b0 40 1b a9 3f 9f 84 b9 be dd e0 b6 bf ed b4 d2 be
       1.3211441 -0.36233994 -1.4287373 -0.4115366
0000c0 b0 d8 96 3e 1c 49 0a bd c9 27 93 3e 13 67 20 bf
       0.29462194 -0.03376113 0.2874129 -0.6265728
0000d0 fe 8d 49 3f 8f df 37 bf d1 21 81 3f 30 7e 91 bd
       0.7873229 -0.718255 1.0088445 -0.071041465
0000e0 25 2e 3b be 75 10 aa bd 9a d1 b8 3f b6 ba 53 be
       -0.18279321 -0.0830392 1.4438965 -0.20676693
0000f0 bb 42 b3 3f 71 50 a0 bf 22 c3 c3 3e 58 0f b3 bf
       1.400474 -1.2524549 0.38234812 -1.3989058
000100 4a bf 4c 3e 2c 67 d7 be 2b f1 05 3f d7 08 83 3e
       0.19994846 -0.420709 0.5232112 0.25592682
000110 ee 6b 8e 3e fb 9d fa be d5 cf 94 be 33 e0 8e bf
       0.2781672 -0.48948655 -0.29064813 -1.116217
000120 ec b8 0b 3f d5 c3 7f 3d 55 94 f1 3f f6 5c 06 3f
       0.54579043 0.06244262 1.8873392 0.524856
000130 84 50 67 bf 8b f5 e9 3e 28 ba 01 bf 62 e8 a6 bf
       -0.9035723 0.45695147 -0.50674677 -1.3039668
000140 a3 7a d0 3e 8f e2 e4 3e b2 65 84 bf a4 34 bc bf
       0.40718564 0.447041 -1.0343535 -1.4703565
000150 57 26 9c 3f eb fe 76 bf f1 71 92 be 90 ea 2c c0
       1.21992 -0.96482724 -0.28602555 -2.7018166
000160 09 05 85 3d 21 6c 47 be 83 fb 1a 3f e3 f4 f6 3e
       0.06495101 -0.19474842 0.60540026 0.4823371
000170 6e 27 e8 be f4 73 e7 3e 60 f9 32 3c 32 46 6a bd
       -0.45342582 0.45205653 0.010923713 -0.05719585
000180 91 f8 90 3f 9b e3 c7 bc d7 87 02 be 62 5f 30 bf
       1.1325856 -0.024400523 -0.12747131 -0.6889554
000190 38 1b 04 3f 70 b9 c3 3d b2 42 87 be 87 4b 93 3e
       0.5160403 0.09556854 -0.26418072 0.2876856
0001a0 ed 9e 8b 3e 66 75 ad 3d cd 59 e3 3e 42 47 77 bf
       0.27269688 0.084696576 0.4440445 -0.96593106
0001b0 c2 ad b9 3f 0e 8a da be 35 ac 46 bf ec 82 84 bf
       1.4506152 -0.42683452 -0.7760652 -1.0352454
0001c0 fd 32 f6 bf ae 93 dc bd b8 a4 ff 3e 51 39 28 bf
       -1.923431 -0.10770355 0.49930358 -0.6571246
0001d0 da 40 f9 3d 12 6b 5e 3e 50 da 1d bf bd a0 5e 3f
       0.121705726 0.21720532 -0.61661243 0.8696402
0001e0 33 96 4e 3f 9f 6c eb ba 57 13 1d bf 95 18 6b bf
       0.80697936 -0.0017961449 -0.61357635 -0.91834384
0001f0 70 64 3c 3f ea 6b 1a bf 8f e4 28 3f a4 06 87 3d
       0.73590755 -0.60320914 0.6597375 0.065930635
000200 f1 76 e5 be 2b 61 7d bd 3a c5 4b be d3 a2 99 3f
       -0.44817308 -0.061860245 -0.19899455 1.2002815
000210 35 42 09 bf a9 ac 15 3f 7d 3b 16 bc 8e e0 87 be
       -0.5361665 0.58466583 -0.009169457 -0.2653851
000220 eb a5 8d bd 41 2e ca bd 7b 8c d4 3e a1 f0 b0 be
       -0.06916412 -0.098721035 0.41513428 -0.34558585
000230 ae 07 a8 3f bf ef 29 bf 6a cc f3 3e 3a 89 96 bf
       1.3127344 -0.6638145 0.47616893 -1.1760628
000240 eb e5 51 bd 13 72 9c bd 27 d6 98 3e e9 9f a4 be
       -0.051244657 -0.076389454 0.29850885 -0.32153252
000250 5b 59 ee be 13 9d d4 be 23 5f bd 3f a5 04 d6 3d
       -0.46552548 -0.41526088 1.4794658 0.104501046
000260 2e 3a 0c bf a6 b9 1f bd 18 d6 29 3d 53 08 47 3f
       -0.54776275 -0.038995408 0.04146394 0.77747077
000270 f2 84 93 bf 5e a9 0b 3e 83 b5 62 3c f6 c9 69 bd
       -1.1524947 0.13638827 0.013837221 -0.05707737
000280 7b 14 53 3f d8 21 c8 bd 44 0f 0d 3f 3e e6 a6 3d
       0.82453126 -0.0977208 0.5510142 0.08149384
000290 13 e4 4b be 81 7c 10 3f 32 3a 45 3e f8 ef 60 3d
       -0.19911222 0.5643998 0.19260481 0.054916352
0002a0 e1 46 05 be 0f f0 3b 3f 14 5c a0 3f 04 dd 37 3d
       -0.1301532 0.73413175 1.25281 0.04488851
0002b0 c9 0f d1 3e a2 26 de 3f 91 f9 57 bf 7c 48 f8 bf
       0.40832356 1.735554 -0.84365183 -1.939712
0002c0 ce 9a d1 3d 99 d8 ec bc 9c a8 88 3e a2 60 00 bf
       0.10234605 -0.028911876 0.2669114 -0.5014745
0002d0 fc dc 20 3f 51 05 12 bf ae 57 80 3f 8f 35 e5 be
       0.62837195 -0.5703936 1.0026758 -0.44767424
0002e0 73 7b 11 3f bd 34 aa 3d 89 07 72 3c 63 8f 38 bf
       0.56828994 0.0831084 0.014772304 -0.7209379
0002f0 27 ef 19 3e cb 45 11 be 7e 3c 53 bf 88 7d bc 3e
       0.15032636 -0.1418678 -0.8251418 0.36814523
