hnam_experiments/Fit_and_Predict/models/Favorita/HNAM/lightning_logs/version_0/checkpoints/model-37-0.842.ckpt (torch, 399354 bytes, 216 tensors)

input_embeddings.embeddings.national_holiday.weight f4 [178, 8]
0	0xbafff477	-0.0019527812
1	0x3d8ede8f	0.069760434
2	0x3ecc33be	0.39883226
3	0x3f4ff5d2	0.8123447
4	0x3dd8e6e2	0.105909124
5	0x3e83944c	0.2569908
6	0xbef85e9a	-0.48509675
7	0xbf6ff359	-0.93730694
8	0x3f4f1ee4	0.8090651
9	0xbfa54bbe	-1.291374
10	0x3e8587ac	0.26080072
11	0xbf9808dc	-1.1877704
12	0x3db0308b	0.08603009
13	0x3e8158f7	0.25263187
14	0x3f9ee4cd	1.2413574
15	0xbeae909f	-0.34094712
16	0xbfa9a257	-1.3252667
17	0xbf4f441d	-0.8096331
18	0x3ea2ba2e	0.3178267
19	0xbf80a4a1	-1.0050241
20	0xbf1a5d1a	-0.6029831
21	0xbf9d459d	-1.2286869
22	0x3fbc9b86	1.4734962
23	0x4018c297	2.3868768
24	0x3d496f17	0.04917821
25	0x3e8aa020	0.2707529
26	0x3e4e062c	0.20119542
27	0xbf5cec99	-0.8629852
28	0xbef19df2	-0.47190815
29	0xbf4229c0	-0.75844955
30	0x3f17888c	0.5919273
31	0x3f660d10	0.8986368
32	0xbf80848f	-1.0040454
33	0xbf663dbd	-0.89937955
34	0xbedf4374	-0.4360615
35	0x3fa0d710	1.2565632
36	0x3f04a920	0.51820564
37	0xbfdb70ba	-1.7143776
38	0x3ecf67c6	0.4050886
39	0x3f1e6c5d	0.618841
40	0x3f063097	0.5241789
41	0xbf6bac29	-0.9205957
42	0xbea31113	-0.31848964
43	0xbef8ac0d	-0.48568764
44	0x3f09fbe4	0.5389998
45	0xbfaa8cc5	-1.332421
46	0x3fad1c6f	1.3524302
47	0xbe811ec4	-0.25218785
48	0x3d61890f	0.05506235
49	0x3e219a4d	0.15781517
50	0x3f947315	1.159762
51	0x3d86f3ec	0.06589493
52	0x3f277f37	0.6542849
53	0xbf6523d1	-0.89507776
54	0x3ef5961f	0.47966096
55	0xbff1d4e4	-1.8893094
56	0x3e89ef55	0.26940408
57	0xbf097d37	-0.5370669
58	0x3fb0a573	1.3800491
59	0x3da55249	0.08072335
60	0x3e120763	0.1426063
61	0xbf87f2b9	-1.0620948
62	0xbf42e15c	-0.7612512
63	0x3e833f99	0.2563446
64	0x3e3be48a	0.183489
65	0xbf084f39	-0.53245884
66	0x3e4da52d	0.20082541
67	0x3f1589fe	0.58413684
68	0xbf07d02e	-0.5305203
69	0xbfa343e9	-1.27551
70	0x3d89eff7	0.06735223
71	0x3f437888	0.7635579
72	0x3eb88db0	0.360456
73	0x3e08a840	0.13345432
74	0x3f018440	0.5059242
75	0x3f21b1b0	0.63161755
76	0xbe1e910a	-0.15485016
77	0xbf160b02	-0.58610547
78	0x3c556043	0.013023439
79	0xbf8b1f88	-1.0868998
80	0x3cac0128	0.020996645
81	0x3ecea289	0.4035838
82	0x3fdeb9e9	1.7400485
83	0x3d4f392e	0.05059164
84	0xbff01879	-1.8757468
85	0xbf0d337d	-0.5515669
86	0x3ef5d370	0.48012877
87	0x3e6e0084	0.23242384
88	0xbf81e014	-1.0146508
89	0xbf268ff4	-0.65063405
90	0xbf00f56e	-0.50374496
91	0x3f75829b	0.95902413
92	0x3d7bf53d	0.061513174
93	0x3e887212	0.2664953
94	0x3f83fc63	1.0311397
95	0xbd87dc15	-0.06633774
96	0xbdb4e9f1	-0.08833683
97	0x3c4c0b65	0.012453889
98	0x3dd276f5	0.102765955
99	0xbeeca3e4	-0.4621879
100	0x3f1b5051	0.6066943
101	0x3ebd4bd9	0.3697193
102	0x3f3ac06c	0.7294986
103	0xbf330765	-0.6993316
104	0x3ee47ab4	0.44624865
105	0xbd82f563	-0.0639446
106	0x3f139c29	0.57660156
107	0xbe51e6d6	-0.20498213
108	0xbc3e61ca	-0.011619994
109	0xbfd5df56	-1.6708782
110	0x3f6fbf42	0.9365121
111	0x3e709354	0.23493701
112	0x3f0d68fd	0.55238324
113	0xbf1a8d23	-0.6037161
114	0x4008e55d	2.1389992
115	0x3ed5ba23	0.41743574
116	0xbe8c601d	-0.2741708
117	0xbfcbb555	-1.5914713
118	0xbfa40457	-1.2813824
119	0x3e50a082	0.20373729
120	0xbda552f9	-0.080724664
121	0x3d7e820e	0.06213575
122	0x3f9b8107	1.2148751
123	0xbebbfec3	-0.36717805
124	0xbf97043a	-1.1798165
125	0x3ff2d4c5	1.8971182
126	0xbccda63d	-0.025103683
127	0xbf319d5e	-0.6938075
128	0xbe4e56cc	-0.20150298
129	0x3f6d3bf2	0.92669594
130	0x3f8d0a86	1.1018836
131	0xbe18c55a	-0.14919034
132	0xbf99b05d	-1.2006947
133	0xbf28dac7	-0.6595883
134	0xbecd3d82	-0.4008599
135	0x3e7ebd9e	0.2487702
136	0x3e831b12	0.2560659
137	0xbf64cab5	-0.89371806
138	0x3f4385c3	0.7637598
139	0x3d99256c	0.07477841
140	0xbdbb87a6	-0.09156732
141	0x3f74e1e6	0.95657194
142	0xbf93f9df	-1.156063
143	0x3d9f37cb	0.077743135
144	0x3e9ccf73	0.3062702
145	0xbf18a348	-0.5962415
146	0x4000053a	2.000319
147	0xbedfbca5	-0.43698612
148	0xbfa66c19	-1.3001739
149	0x3f86d545	1.0533835
150	0x3e682149	0.22668947
151	0xbf7853b0	-0.97002697
152	0x3eabf2f2	0.3358379
153	0xbed4c663	-0.41557607
154	0x3e2675b4	0.16255838
155	0x3b9e8de5	0.0048386925
156	0x3f157d6a	0.5839449
157	0x3ec8addc	0.39195144
158	0xbf2510a2	-0.64478505
159	0xbd239c80	-0.039944172
160	0x3db0bb05	0.08629421
161	0xbd52b37d	-0.051440705
162	0x3d7e74e0	0.06212318
163	0xbed699f2	-0.41914326
164	0x3e50dc61	0.20396568
165	0xbe92293c	-0.28547084
166	0x3e47ec01	0.19523622
167	0x3e6a46b3	0.22878532
168	0x3eed8bc3	0.46395692
169	0xbe11bd55	-0.1423238
170	0x3e2f33d8	0.1710962
171	0x3f207894	0.6268399
172	0xbef9dbe3	-0.48800573
173	0xbe489bb4	-0.19590646
174	0xbf49831e	-0.78715694
175	0x3e5e1762	0.21688607
176	0x3c59f56f	0.013303145
177	0xbe8dd5ab	-0.27702078
178	0x3f837f96	1.0273311
179	0x3dfec23a	0.124393895
180	0xbedc9941	-0.43085673
181	0xbee93116	-0.45545262
182	0xbc6f4c1e	-0.01460555
183	0xbdbd2e5e	-0.092373595
184	0x3bd6a0a9	0.006549914
185	0xbe04346a	-0.1291062
186	0x3ed876cc	0.42278135
187	0x3f14da42	0.58145535
188	0xbf34e457	-0.7066092
189	0xbe097b29	-0.13425888
190	0x3e7e5c1f	0.24839829
191	0xbdfb13b4	-0.122596174
192	0x3f2b64d6	0.6695074
193	0x3eac8899	0.33697966
194	0xbf80ba61	-1.0056878
195	0x3cdba12f	0.026810257
196	0xbe9ebb87	-0.31002447
197	0x3f234eea	0.6379229
198	0xbf4971a4	-0.78689027
199	0x3e58673f	0.21133135
200	0x3ee493a2	0.44643885
201	0xbf0fef1a	-0.56224215
202	0xbf295372	-0.6614295
203	0x3fb07283	1.3784946
204	0x3eaae612	0.33378655
205	0xbf2ab27c	-0.66678596
206	0xbdf66b91	-0.120322354
207	0xbe7e91db	-0.24860327
208	0x3f2fb37f	0.68633264
209	0xbfc971b9	-1.573783
210	0xbf8eeabf	-1.1165389
211	0x3e49133d	0.19636245
212	0xbe4106ef	-0.18850301
213	0xbf61fdcb	-0.8827788
214	0x3ee12fcb	0.43981776
215	0x3fe07980	1.7537079
216	0x3ec09be7	0.37618944
217	0xbe682e4c	-0.22673911
218	0xbed13766	-0.40862578
219	0x3f83cd51	1.0297033
220	0xbfcca80f	-1.5988787
221	0xbed8a16b	-0.42310652
222	0x3efcdda8	0.4938786
223	0x3e8816c4	0.2657987
224	0xbcc152f2	-0.023599122
225	0xbefb7fb4	-0.49120867
226	0xbe460445	-0.19337566
227	0x3f516dbe	0.8180808
228	0x3edcfbc1	0.43160823
229	0xbf9ffd35	-1.2499148
230	0x3ec05ff5	0.3757321
231	0x3eab69cc	0.33479154
232	0x3e9c6a4f	0.30549857
233	0x3c050ac5	0.008120243
234	0xbec63ca2	-0.38718134
235	0x3ca4b24f	0.020104555
236	0x3e401848	0.18759263
237	0xbe77d582	-0.2420254
238	0xbf3f5e26	-0.74753034
239	0x3ef1d9b6	0.47236413
240	0x3f2ae6f9	0.66758686
241	0xbf7eaffa	-0.9948727
242	0x3f60fc84	0.8788531
243	0xbf0cd8fe	-0.55018604
244	0x3dbdcca3	0.09267547
245	0xbf306306	-0.689011
246	0x3f65fcc7	0.8983883
247	0xbf9c8a3c	-1.2229686
248	0x3e85b818	0.26117015
249	0xc00ea23e	-2.2286525
250	0x3fa97218	1.3237944
251	0x3f35f9f9	0.71084553
252	0xbe44629a	-0.19178239
253	0x3ec60bf3	0.38680992
254	0x3e301385	0.17194946
255	0xbf9008be	-1.1252668

input_embeddings.embeddings.regional_holiday.weight f4 [19, 8]
0	0xbc93cf28	-0.018043116
1	0x3e53133b	0.20612805
2	0x3e7a66c4	0.24453264
3	0xbe2c1179	-0.1680354
4	0xbea53c92	-0.32272774
5	0x3dd7dfa5	0.10540704
6	0x3d7bc62d	0.061468292
7	0x3d5d2bce	0.053996854
8	0x3f316fe4	0.69311357
9	0x3f122796	0.57091653
10	0xbe74a3e6	-0.23890647
11	0x3fe2350b	1.7672437
12	0xbeb597a5	-0.35467258
13	0xbf16959d	-0.5882204
14	0xbf02bbeb	-0.5106799
15	0xbf4e35fb	-0.8055112
16	0xbe9a3e6e	-0.30125755
17	0x3eb0c7be	0.3452739
18	0xbd551b17	-0.052027788
19	0xbf1b867a	-0.6075207
20	0x3fbf301c	1.4936557
21	0xbe41e950	-0.18936658
22	0xbdfb9052	-0.12283386
23	0xbf0a101f	-0.5393085
24	0x3f36f9d2	0.71474946
25	0xbec90fe2	-0.3926993
26	0xc026a52f	-2.603832
27	0xbe4e5ea5	-0.20153292
28	0x3f2809de	0.65640056
29	0xbe0a0647	-0.13478957
30	0xbe8e6cc6	-0.27817363
31	0x3fcc3eaf	1.595663
32	0xbd1bccf8	-0.03803727
33	0xc02ffb8a	-2.7497277
34	0x3f251315	0.6448224
35	0x4023fb4f	2.5622137
36	0xbf28e369	-0.65972
37	0x3db8929b	0.09012338
38	0xc0018465	-2.0237057
39	0x3f948439	1.1602851
40	0x3ffa075d	1.9533497
41	0xbfc882ea	-1.5664952
42	0xbe087632	-0.13326338
43	0xbe91e870	-0.28497648
44	0xbf727b0e	-0.94719017
45	0xc00544af	-2.082317
46	0x3fc8a0a6	1.5674026
47	0xbfbb703f	-1.464363
48	0xbc2207e8	-0.00988958
49	0xbf947093	-1.1596855
50	0x3f811e5e	1.0087392
51	0xbf2cc7b2	-0.6749221
52	0xbf89e0cb	-1.0771726
53	0xbfc3a94a	-1.5286038
54	0x3ff7e54d	1.9366852
55	0x3ecdd579	0.4020193
56	0x3f5f3c3d	0.8720129
57	0x3e9a789f	0.30170152
58	0xbf86840f	-1.0509051
59	0xbee49585	-0.44645324
60	0xbed54292	-0.41652352
61	0xbede28bc	-0.43390453
62	0x3fe1c98a	1.763963
63	0xbf42ae77	-0.7604746
64	0xbf15a711	-0.5845805
65	0xbed56eaa	-0.41685992
66	0x3f5f07aa	0.8712107
67	0xbec26aad	-0.37972012
68	0x3ec5abad	0.3860754
69	0xbf527236	-0.8220552
70	0xbe851c81	-0.2599831
71	0x3faf81f0	1.3711529
72	0x400102dd	2.0157998
73	0xbfc63ac5	-1.5486685
74	0xbed9cd61	-0.42539504
75	0xbf04a31d	-0.5181139
76	0xbfe29028	-1.7700243
77	0xbf0aad7f	-0.54170984
78	0x3f85f42c	1.046514
79	0x3f5d1ee6	0.8637527
80	0xbb236ed0	-0.0024937876
81	0xbf52fbb9	-0.8241535
82	0xbed5f016	-0.41784734
83	0xbc6e34d1	-0.01453896
84	0xbeca13ef	-0.39468333
85	0xbe29b289	-0.16572012
86	0x3f97060f	1.1798724
87	0x3fc0b037	1.5053777
88	0xbf936586	-1.1515357
89	0xbf5d1c0b	-0.86370915
90	0x3f74ecef	0.9567403
91	0x3ebdb134	0.37049258
92	0x3f836f5d	1.026836
93	0x3e7d0af9	0.24711217
94	0x3f4869cc	0.78286433
95	0xbe228aaa	-0.15873209
96	0x3b2c1aca	0.0026261085
97	0xbef72724	-0.4827205
98	0xbd4d3c89	-0.05010656
99	0x3debb9eb	0.115100704
100	0xbf0f53c2	-0.5598718
101	0xbf687a21	-0.90811354
102	0x3f63a981	0.8893052
103	0x3ea3353a	0.31876546
104	0x3f2370e3	0.63844126
105	0xbfa80949	-1.3127834
106	0xbfab0f96	-1.3364131
107	0xbee809b0	-0.4531989
108	0x3e5cf7d4	0.21578914
109	0x3f5085c5	0.81454116
110	0x3fbde99b	1.4836916
111	0xbf3c3a3f	-0.73526376
112	0x3f5ee77a	0.87071955
113	0x3e451d22	0.19249395
114	0xbf9ca6d9	-1.2238418
115	0xbf093b92	-0.5360652
116	0xbf539ed7	-0.82664245
117	0x3e0ed3cd	0.13947983
118	0x3d108eba	0.035292365
119	0x3ecee6fb	0.404106
120	0x3e19b8c4	0.15011889
121	0xbf98f517	-1.1949795
122	0x3f46455a	0.7744957
123	0xbf9a0342	-1.2032244
124	0x3e97020f	0.29493758
125	0xbed1b48c	-0.4095806
126	0x3f421b03	0.75822467
127	0x3f86d4f9	1.0533744
128	0xbebb9e44	-0.36644185
129	0xbf14df88	-0.5815358
130	0x3fc3cdb3	1.529715
131	0xbeeeb4b1	-0.46622232
132	0x3f0efba0	0.558527
133	0xbe7c457c	-0.24635881
134	0xbf83737a	-1.0269616
135	0x3fa19df5	1.262633
136	0xbe53770b	-0.2065088
137	0xbfc5686b	-1.5422491
138	0x3ea6a763	0.3254958
139	0x3ebe9b42	0.37227827
140	0x3f07ee8e	0.5309838
141	0x3e43d7b5	0.19125254
142	0xbf73a8ee	-0.9517964
143	0x3f8a1611	1.0787984
144	0xbe9b0196	-0.30274647
145	0xbf210964	-0.62904954
146	0xbf6e38ca	-0.93055403
147	0x4006b580	2.104828
148	0xbfef61af	-1.8701686
149	0x3dd0edb0	0.10201585
150	0x3f8249c4	1.0178761
151	0xbec3d49f	-0.38248155

input_embeddings.embeddings.local_holiday.weight f4 [115, 8]
0	0xbe27cb5f	-0.16386174
1	0x3f47ae43	0.7800028
2	0x3d9d44ba	0.07679124
3	0x3cf93748	0.030421868
4	0xbdc72d79	-0.0972547
5	0x3e732663	0.23745112
6	0xbe0575f6	-0.1303328
7	0xbec74884	-0.38922513
8	0x3e06d452	0.13166931
9	0xbfc592fe	-1.5435483
10	0xbf841951	-1.0320226
11	0xbfa4fd87	-1.288987
12	0x3f3049b1	0.68862444
13	0x3e7e5179	0.24835767
14	0x3f5673c4	0.83770394
15	0x3e871fed	0.26391545
16	0x3d2aae69	0.041670237
17	0x3ec3f692	0.38274056
18	0x3e984d28	0.29746366
19	0x3e9115d4	0.28336966
20	0xbed98b26	-0.42488974
21	0x3f1b64c4	0.6070063
22	0xbef389b6	-0.47566003
23	0xbfb644f5	-1.4239794
24	0x3f2e133d	0.67998105
25	0xbecc97fd	-0.39959708
26	0x3f514330	0.81743145
27	0xbf6ad5b6	-0.91732347
28	0xbe3581cb	-0.17725293
29	0x3e930686	0.28715914
30	0x3e91b16b	0.28455672
31	0xbfd25e0d	-1.6434952
32	0x3ec0cb43	0.37655076
33	0xbfe78620	-1.8087807
34	0xbdd8a2a0	-0.10577893
35	0xbdd08fad	-0.10183654
36	0xbf241760	-0.6409817
37	0x3fd57ff7	1.6679677
38	0xbe9011c3	-0.2813855
39	0x3da0a64e	0.0784422
40	0x3deffb64	0.11717871
41	0x3e9684b4	0.2939812
42	0xbf3cd9d0	-0.73769855
43	0x3f04bad6	0.5184759
44	0xbd9caa5c	-0.07649681
45	0x3dd7fecc	0.105466455
46	0x3fa8839e	1.3165166
47	0xbfcb656f	-1.589033
48	0x3de00111	0.109377034
49	0xbb0bf0ec	-0.0021353317
50	0xbe99ae8c	-0.3001598
51	0xbf20a6b0	-0.62754345
52	0x3efda1a1	0.49537376
53	0xbf815ece	-1.0107057
54	0x3ea9069a	0.3301285
55	0x3f0cbf82	0.5497972
56	0xbde31318	-0.11087626
57	0xbffa8f07	-1.9574898
58	0x3e5bcf5a	0.21465817
59	0xbf6193fb	-0.88116425
60	0x3f0d72ec	0.5525348
61	0xbf87a266	-1.0596435
62	0x3fe3ed58	1.7806807
63	0x3fa0dda9	1.2567645
64	0xbe035834	-0.12826616
65	0xc03848cc	-2.8794432
66	0x3f84d901	1.0378724
67	0x3f2abd47	0.66695064
68	0x3f35c945	0.7101024
69	0xbfd01405	-1.625611
70	0x3e90f08c	0.28308523
71	0x3f624e34	0.8840058
72	0x3f72da1f	0.94864076
73	0xc006bb4d	-2.105182
74	0x3dbf6620	0.09345651
75	0xbf82e2cd	-1.0225464
76	0x3df97329	0.12180168
77	0x3f59eb1a	0.8512436
78	0x3f8b73bb	1.0894693
79	0xbe944aa7	-0.28963205
80	0xbddca164	-0.1077297
81	0xbfd03aa3	-1.6267895
82	0x3f0c53cb	0.5481536
83	0x3edcd34b	0.43129954
84	0xbf74e65a	-0.9566399
85	0x3f4a03b3	0.78911895
86	0xbf2d8897	-0.67786545
87	0x3fe95eaa	1.8232014
88	0x3ff215df	1.8912925
89	0xbfc10a45	-1.5081259
90	0xbfc23b06	-1.5174263
91	0x3f58bf1f	0.8466663
92	0xbecb1924	-0.39667618
93	0xbf0fdc52	-0.5619556
94	0x3ef63fc2	0.48095518
95	0xbef3e5e1	-0.4763632
96	0xbe5e6508	-0.21718228
97	0xbf886cfb	-1.0658258
98	0xbfb22344	-1.3917012
99	0x3f6858e8	0.9076066
100	0xbff54ba3	-1.9163707
101	0x4054cf62	3.3251576
102	0x3da18a92	0.07887758
103	0x3f0ff3b2	0.56231225
104	0xbdf4130e	-0.11917697
105	0xbf1ec998	-0.6202636
106	0xbfedc825	-1.8576704
107	0x3ebc94a2	0.36832148
108	0x3da51ed0	0.08062518
109	0xbfc7ad55	-1.5599772
110	0x3fc64c3c	1.5492015
111	0x3fdf2566	1.7433288
112	0x3ea7f7d0	0.32806253
113	0x3f3d433e	0.7393073
114	0x3eabfa31	0.33589318
115	0xbf3aaaf6	-0.72917116
116	0xbe9cb7b3	-0.306089
117	0xbeff73c4	-0.4989301
118	0xbd88f094	-0.06686512
119	0x3f670a1c	0.902498
120	0x3d6f0c51	0.058361355
121	0xbeafe7b8	-0.34356475
122	0x3f7411a6	0.9533943
123	0x3f447b04	0.76750207
124	0xbe40afb1	-0.18817021
125	0xbfc0ce65	-1.5062987
126	0x3ee38972	0.444408
127	0xbedca118	-0.43091655
128	0x3ececea4	0.4039203
129	0xbf4379f4	-0.7635796
130	0x3f9d056e	1.2267282
131	0x3f6476e0	0.8924389
132	0xbf90a9f9	-1.1301872
133	0xbef4b795	-0.47796312
134	0xbef8770d	-0.4852833
135	0x3f3d82d5	0.7402776
136	0x3f8aec1f	1.0853308
137	0x3f20216e	0.6255101
138	0xbe8dca67	-0.27693483
139	0x3eab9684	0.33513272
140	0xbee543d4	-0.4477831
141	0xbf9d601b	-1.2294954
142	0xbd82f539	-0.06394429
143	0x3f156783	0.5836107
144	0x3ff7ef85	1.936997
145	0xbf8c33a3	-1.0953258
146	0xbf14eed5	-0.5817693
147	0xbf5b4440	-0.85651016
148	0x3ed9f8cb	0.42572626
149	0xbf80940d	-1.0045182
150	0x3f293844	0.6610148
151	0xbefee717	-0.49785683
152	0xbe8ba2b8	-0.27272582
153	0xbfaea4a4	-1.3643994
154	0x3ef0a875	0.47003523
155	0x3eb868f8	0.36017585
156	0xbf0486a8	-0.5176797
157	0xbdeb7c6d	-0.11498342
158	0x3ef837da	0.4848011
159	0x3f1a7ad7	0.6034369
160	0xbf23bc05	-0.6395877
161	0xbf837e01	-1.0272828
162	0x3f020b67	0.5079865
163	0x3fbab2b7	1.458579
164	0xbf8d296a	-1.1028264
165	0xbf16b540	-0.58870316
166	0xbe76a2a3	-0.24085478
167	0x3fddb20e	1.7319963
168	0xbec9bae5	-0.39400402
169	0xbeb17042	-0.34655958
170	0xbf0d3836	-0.55163896
171	0x3ea6fdf2	0.3261562
172	0x3f046690	0.51719
173	0xbeb8bbfd	-0.36080924
174	0x3f206eaa	0.6266886
175	0x3dbabadf	0.09117674
176	0x3f2970cf	0.6618776
177	0xbf9f911e	-1.2466161
178	0x3e1917ed	0.14950533
179	0xbe78c61a	-0.2429432
180	0xbefcd804	-0.49383557
181	0xbe8cd029	-0.27502564
182	0x3f7b8d9e	0.98262966
183	0xbf2c7fd2	-0.6738254
184	0xbece5149	-0.4029639
185	0xbf6ff10d	-0.9372719
186	0x3e3e5334	0.18586427
187	0x3f2089d2	0.627103
188	0xbe77c2a6	-0.24195346
189	0xbe269a15	-0.16269715
190	0x3f8c3669	1.0954105
191	0xbf227921	-0.6346608
192	0xc001d460	-2.0285873
193	0x3fc2c9c9	1.521783
194	0x3ed99342	0.4249516
195	0xbe47e585	-0.19521149
196	0xbf0756a0	-0.52866554
197	0x3f489c42	0.7836343
198	0x3ec8b526	0.39200705
199	0x3f64fb11	0.89445597
200	0xbdbc5a30	-0.091968894
201	0x3deef2b3	0.11667385
202	0x3f703ce3	0.93842906
203	0xbfa23863	-1.2673458
204	0x3e53c9a4	0.20682389
205	0xbf0280ff	-0.5097808
206	0x3fa02488	1.2511148
207	0xbf5e159f	-0.8675174
208	0xbf3785bd	-0.71688443
209	0xbe1536e0	-0.14571714
210	0xbf190880	-0.59778595
211	0x3f9eab33	1.2395996
212	0xbf3aeb2a	-0.7301508
213	0x3f1d87be	0.6153525
214	0xbe7d5eb5	-0.24743159
215	0x3f117383	0.5681688
216	0x3fc31ca2	1.5243113
217	0xbe23c728	-0.15993941
218	0x3ebd5b2e	0.36983627
219	0xbf623de5	-0.88375694
220	0x3f93bdd5	1.1542307
221	0xbf60ceff	-0.8781585
222	0x3ef163ca	0.47146446
223	0xbfb9eb96	-1.452502
224	0x3ec47f9b	0.38378605
225	0xbf496c15	-0.78680545
226	0x3fe6883a	1.8010323
227	0x3f2c35e1	0.6726971
228	0xbf7742c7	-0.9658627
229	0xbfab11c8	-1.3364801
230	0xbf0ba85d	-0.54553777
231	0x3f6910b2	0.910411
232	0xbf3c3f67	-0.73534244
233	0x400cb2cc	2.198413
234	0x3f303869	0.68836075
235	0x3f3a769a	0.7283722
236	0xc0174911	-2.3638346
237	0xbf6c2016	-0.9223646
238	0x3f1b3b63	0.6063749
239	0x3eba4bd1	0.36385968
240	0x3f77875e	0.9669093
241	0x3e746149	0.23865236
242	0xbf3c90d8	-0.73658514
243	0xbecbe990	-0.39826632
244	0xbf1595b7	-0.5843157
245	0x3e65b0d8	0.22430742
246	0xbebee184	-0.3728143
247	0xbdfc3735	-0.123152174
248	0x3ebe1cbb	0.37131295
249	0xbee07942	-0.43842512
250	0x3ea8509a	0.32873994
251	0x3f13b959	0.57704693
252	0x3eba1205	0.36341873
253	0xbf4024ae	-0.7505597
254	0x3effcd99	0.49961546
255	0xbf579f6d	-0.8422764

input_embeddings.embeddings.art.weight f4 [174, 8]
0	0x3df833ec	0.12119278
1	0xbdae9788	-0.08524996
2	0xbe8c6f09	-0.27428463
3	0x3e754633	0.2395256
4	0xbeca74b8	-0.39542174
5	0xbe2902b8	-0.16504943
6	0x3ecf295a	0.40461236
7	0x3d9570d8	0.07296914
8	0xbf3795ac	-0.71712756
9	0xbe32a22a	-0.17444673
10	0xbf22c38d	-0.63579637
11	0xbdfca9a2	-0.123370424
12	0x3efd2a59	0.4944637
13	0x3f4d7ecf	0.8027162
14	0x3d2cb302	0.042162903
15	0xbb41422a	-0.00294889
16	0xbf0390c8	-0.51392794
17	0x3e35ba47	0.1774684
18	0xbf4406c1	-0.76572806
19	0xbed0d536	-0.40787667
20	0x3e9f8f5c	0.31164062
21	0x3f18c93c	0.5968206
22	0x3f5e48c4	0.8682978
23	0xbe558a45	-0.20853527
24	0x3f85ccc1	1.0453111
25	0xbf385358	-0.7200217
26	0x3da007c5	0.07813982
27	0x3e4e56a0	0.20150232
28	0xbf5815ff	-0.84408563
29	0xbf0e65de	-0.55624187
30	0xbed40dff	-0.41416928
31	0x3f761927	0.9613213
32	0xbeff727c	-0.49892032
33	0x3ea252d0	0.31703806
34	0xbf0b2e44	-0.5436747
35	0x3e0a802e	0.13525459
36	0x3e9abf49	0.30224064
37	0x3d853d9d	0.065058924
38	0xbe0e11fe	-0.13874051
39	0x3d4cb7f0	0.049980104
40	0xbea482cc	-0.3213104
41	0x3e99d83f	0.30047795
42	0xbef6fe7f	-0.4824104
43	0x3ee8a282	0.45436484
44	0x3e474659	0.19460429
45	0xbe062efe	-0.13103864
46	0x3e851ec7	0.26000044
47	0x3d93c5f8	0.07215494
48	0x3bfa98ff	0.007647633
49	0xbe542b5d	-0.20719667
50	0x3f2c44a3	0.6729223
51	0xbd8d8402	-0.06909944
52	0xbe225768	-0.15853655
53	0x3ed569ac	0.41682184
54	0xbe09dbb8	-0.13462722
55	0xbeb63388	-0.3558619
56	0xbd12b16d	-0.035813738
57	0xbd14c254	-0.03631814
58	0x3df1084a	0.11769159
59	0x3e079d91	0.132437
60	0xbe6a111c	-0.22858089
61	0x3e912ae0	0.28353024
62	0x3e47c1eb	0.19507568
63	0xbeded87b	-0.43524536
64	0xbee69f9b	-0.45043644
65	0x3e564c56	0.20927557
66	0x3f112370	0.566947
67	0xbe460e62	-0.19341424
68	0x3f5246cb	0.8213927
69	0xbe403764	-0.1877113
70	0x3d240595	0.040044386
71	0xbef63742	-0.48089033
72	0xbee4f0bf	-0.44714925
73	0xbf6f5879	-0.93494374
74	0x3e70694e	0.2347767
75	0x3efd1c03	0.49435434
76	0x3f566fc8	0.83764315
77	0xbef2181f	-0.47284028
78	0xbf1340ce	-0.5752076
79	0x3f503c9a	0.8134247
80	0xbe4f9c24	-0.20274407
81	0xbe35e9c9	-0.17764963
82	0xbf130f82	-0.5744554
83	0x3e985b61	0.29757217
84	0xbe127f24	-0.14306313
85	0x3e69e8c5	0.22842701
86	0x3ea21f04	0.31664288
87	0x3dc9da8b	0.09856137
88	0x3da388a1	0.07985044
89	0xbed3fa72	-0.41402012
90	0xbf0d4a44	-0.55191445
91	0xbe0b1a01	-0.13584138
92	0xbcfcd43c	-0.03086292
93	0x3f0610d0	0.52369404
94	0x3dfee99a	0.124469
95	0x3eaae8fc	0.33380878
96	0x3e8c923a	0.27455312
97	0x3f581979	0.8441387
98	0xbbe42e47	-0.0069635245
99	0xbeceb5a9	-0.4037297
100	0x3de499c0	0.11162138
101	0xbf6e5e4f	-0.93112653
102	0xbeda6ef7	-0.42662784
103	0x3f85a9a8	1.04424
104	0xbf1ddc2c	-0.6166408
105	0x3f488123	0.78322047
106	0x3e1a86eb	0.1509053
107	0x3e6f321c	0.23358959
108	0x4007fb0a	2.1246972
109	0x3fa4fad9	1.2889053
110	0xbf2d3445	-0.6765788
111	0xbfab07f5	-1.3361803
112	0xbea94338	-0.33059096
113	0x3e03eff4	0.12884504
114	0xbf91531b	-1.1353487
115	0xbe9c09a5	-0.30476108
116	0x3f869992	1.0515616
117	0x3fd7ae12	1.6849997
118	0x3d373793	0.044730734
119	0xbf9c7941	-1.2224504
120	0xbef63615	-0.48088136
121	0x3ef0fd4d	0.47068253
122	0xbf035e34	-0.5131562
123	0xbf42e1d1	-0.7612582
124	0xbeda38fd	-0.42621604
125	0x3ec6f3c1	0.38857844
126	0xbd5afa82	-0.05346156
127	0x3fc6b9cb	1.552545
128	0x3f169cd4	0.5883305
129	0x3e085fb5	0.1331776
130	0xbf43be2d	-0.7646206
131	0x3d64471e	0.055731885
132	0xbefb87f3	-0.4912716
133	0xbe8beedc	-0.27330673
134	0x3e7347e4	0.23757893
135	0x3d54867b	0.051886063
136	0xbee0ebc4	-0.43929875
137	0xbeb2475b	-0.34820065
138	0x3dd35ad4	0.103200585
139	0x3e856a23	0.26057538
140	0x3e72c3eb	0.2370755
141	0x3cd2cef6	0.025733452
142	0x3eb9186e	0.3615145
143	0x3d3a3bb2	0.045467086
144	0xbeb24c9e	-0.3482408
145	0x3f0e8094	0.55664945
146	0xbf6c53ec	-0.92315555
147	0xbd2e965c	-0.042623863
148	0x3d421b1c	0.047389135
149	0xbefd3656	-0.49455518
150	0x3dad3944	0.08458188
151	0x3e9f0d9c	0.3106507
152	0xbeb4dc65	-0.35324398
153	0x3e32727c	0.17426485
154	0xbf7af719	-0.9803329
155	0x3e75a69f	0.23989342
156	0x3e8aca0d	0.27107278
157	0xbec5a313	-0.38600978
158	0xbeb58271	-0.3545108
159	0x3f41fd6d	0.7577732
160	0xbef752f1	-0.48305467
161	0x3ed5f020	0.41784763
162	0xbed1b7ac	-0.40960443
163	0x3e94bb93	0.29049358
164	0xbdf9593a	-0.12175222
165	0xbefe7188	-0.49695992
166	0xbdcd3356	-0.10019557
167	0x3e67c3a1	0.2263322
168	0xbe1edaf8	-0.15513217
169	0xbe2553f1	-0.16145302
170	0x3d0fd12e	0.0351116
171	0x3e4c3e8f	0.19945739
172	0x3ea7f37e	0.32802957
173	0xbe685c3e	-0.22691438
174	0x3d28bbd5	0.041194756
175	0xbd029d23	-0.03188814
176	0xbed480ec	-0.4150461
177	0x3bb436d0	0.005499698
178	0x3dfa3d53	0.12218728
179	0x3e6973d1	0.22798087
180	0x3dcda850	0.10041869
181	0xbc0e5162	-0.008686395
182	0x3dbe242c	0.09284243
183	0x3d95576a	0.072920635
184	0xbfac7a6b	-1.3474859
185	0xbe6a3ba6	-0.22874317
186	0xbdb48919	-0.08815212
187	0xbf7f6ad3	-0.99772376
188	0x3e0afdb3	0.13573341
189	0x3eb45b37	0.3522584
190	0xbe349a38	-0.17636955
191	0x3f6f5382	0.934868
192	0xbe2ecc56	-0.17070135
193	0x3ca92dac	0.02065166
194	0x3eed8532	0.46390682
195	0x3d1ec4b0	0.038761795
196	0x3ed18ce9	0.40927818
197	0xbfc09736	-1.5046146
198	0xbe9da61f	-0.30790803
199	0x3f0f943a	0.5608555
200	0x3e691bd2	0.22764519
201	0xbf24a39e	-0.6431216
202	0x3f434364	0.76274705
203	0x3e555921	0.20834781
204	0x3d18fabe	0.0373485
205	0x3e227094	0.15863258
206	0xbf30dcb7	-0.69086784
207	0x3edaae5d	0.42711154
208	0x3e9b70b1	0.30359414
209	0xbf34f5c1	-0.7068749
210	0x3d46c3ef	0.0485267
211	0x3e9f7a86	0.31148165
212	0xbe2f53da	-0.1712183
213	0x3eb477e0	0.35247707
214	0xbe489cc7	-0.19591056
215	0x3d72140d	0.059101153
216	0x3d949cb2	0.0725645
217	0xbf38883d	-0.72082883
218	0x3dfdb028	0.12387115
219	0x3d7f0b6a	0.062266745
220	0xbed19e4e	-0.4094109
221	0x3f858ac9	1.0432979
222	0xbf0849cf	-0.5323762
223	0x3f30ac65	0.69013053
224	0x3f162fdf	0.58666795
225	0xbe96cb89	-0.2945216
226	0x3edccfef	0.4312739
227	0x3f079165	0.5295623
228	0xbead5be4	-0.3385917
229	0xbe1e013d	-0.1543016
230	0xbebfc34b	-0.37453684
231	0xbed563a6	-0.41677588
232	0x3f038c83	0.5138628
233	0xbddf2b59	-0.1089694
234	0x3f0a5504	0.54035974
235	0x3e4a216d	0.19739313
236	0xbea429df	-0.32063195
237	0x3ee98950	0.45612574
238	0xbf8d989d	-1.1062199
239	0x3ddb5557	0.10709637
240	0x3eaa3383	0.33242425
241	0xbef5f502	-0.4803849
242	0x3f0ac665	0.54208976
243	0x3ee65ee0	0.4499426
244	0xbead2f49	-0.33825138
245	0x3c8cca06	0.017186176
246	0xbe926c25	-0.28598133
247	0xbed4c4f5	-0.41556516
248	0x3e80c735	0.25151983
249	0xbf1d9e9d	-0.6157015
250	0x3f23997f	0.6390609
251	0x3ed1bc47	0.40963957
252	0xbf00c4a9	-0.5030008
253	0x3e1f8159	0.15576686
254	0xbe9c38f8	-0.30512214
255	0xbea9905e	-0.33117956

input_embeddings.embeddings.pos.weight f4 [45, 8]
0	0x3e4bf25a	0.19916669
1	0x3ef70c31	0.4825149
2	0x3eca06c9	0.39458302
3	0xbfb9e033	-1.4521545
4	0x3f4fcf53	0.81175727
5	0xbe02c660	-0.12770987
6	0xbf0eecd4	-0.5583012
7	0xbe2496e8	-0.16073191
8	0x3e98e524	0.2986232
9	0x3f8c3bcc	1.0955749
10	0x3e6bb8ea	0.23019758
11	0xbec7b53e	-0.39005464
12	0x3fc12092	1.5088065
13	0xbf7c97cc	-0.98669124
14	0x3f5f6f29	0.8727899
15	0xbf8a58f8	-1.0808401
16	0x3e53ff73	0.20702915
17	0xbeab76f5	-0.33489195
18	0xbecc8ca0	-0.39951038
19	0x3f11aab8	0.5690112
20	0x3e8ee281	0.27907184
21	0xbf35714a	-0.7087599
22	0x3e44abf4	0.1920622
23	0x3d097d35	0.033566672
24	0xbefeb127	-0.49744532
25	0x3d973018	0.0738222
26	0x3eec910c	0.46204412
27	0xbd536a6a	-0.051615156
28	0x3f0ccee3	0.55003184
29	0xbf8f981c	-1.1218295
30	0xbd8c6d69	-0.06856806
31	0x3f002b4b	0.5006606
32	0x3e8a9352	0.2706552
33	0x3e03b498	0.1286186
34	0xbf0d8a94	-0.5528958
35	0xbf0cf465	-0.55060416
36	0x3f2bf2b3	0.67167205
37	0x3ea534dc	0.3226689
38	0xbe87d79f	-0.26531693
39	0xbe634471	-0.22194077
40	0x3efc9b1d	0.49337092
41	0xbe86c8f0	-0.26325178
42	0xbed3fa98	-0.41402125
43	0xbf6ab950	-0.91689014
44	0x3f2f02b8	0.68363523
45	0x3c6edac6	0.014578527
46	0x3e82404a	0.25439674
47	0xbea115f8	-0.31462073
48	0x3f0314d7	0.51203674
49	0x3e193677	0.14962183
50	0xbe695587	-0.22786532
51	0xbf10f849	-0.56628853
52	0x3f3e23f3	0.74273604
53	0xbf634a19	-0.8878494
54	0xbe9620ce	-0.29321903
55	0xbd7dcf74	-0.06196542
56	0xbe5e03bd	-0.21681114
57	0xbf0f714b	-0.56032246
58	0xbf40069c	-0.75010085
59	0xbf6bcf00	-0.9211273
60	0xbef47fb2	-0.47753674
61	0xbeb2af1b	-0.3489922
62	0x3f335ec1	0.7006646
63	0x3fd70942	1.67997
64	0x3dbba3b6	0.09162085
65	0x3cdac57c	0.026705496
66	0xbf24781a	-0.6424576
67	0xbf8ef56a	-1.1168644
68	0x3f583c0b	0.8446662
69	0x3f9b8200	1.2149048
70	0x3d9ce44e	0.07660733
71	0xbe981669	-0.29704598
72	0x3e5b555a	0.21419278
73	0x3df0a827	0.117508225
74	0x3ccf2846	0.025287759
75	0xbe8b39d5	-0.2719256
76	0xbe669267	-0.22516786
77	0x3eaa25c4	0.33231938
78	0x3d9f15e8	0.0776785
79	0xbcfda23c	-0.030961148
80	0xbe58c9a5	-0.21170671
81	0xbe7b9356	-0.24567923
82	0xbf7ebce0	-0.9950695
83	0x3f7056d4	0.9388249
84	0x3e25a75a	0.16177121
85	0xbf18b77a	-0.59654963
86	0x3f63fb13	0.89054984
87	0xbe0551d7	-0.130195
88	0xbea0368a	-0.3129161
89	0xbe8a5cc6	-0.27023906
90	0xbf206c60	-0.6266537
91	0xbe327bce	-0.1743004
92	0xbe679fbf	-0.22619532
93	0xbe42971c	-0.19002956
94	0x3f86d07c	1.0532374
95	0x3e489711	0.19588877
96	0xbf326362	-0.69682896
97	0x3f1ae9c7	0.60512966
98	0x3f3ee1cd	0.74563295
99	0xbf5a7074	-0.8532784
100	0x3f034374	0.512748
101	0x3ddc6d5b	0.107630454
102	0xbef1f49c	-0.47256935
103	0xbd8f0efd	-0.06985281
104	0xbdecd16c	-0.115633816
105	0x3ecefd9d	0.40427867
106	0x3e220061	0.15820457
107	0xbf0d92ef	-0.5530233
108	0xbeb9567a	-0.3619879
109	0xbd7b36e2	-0.061331637
110	0x3f1fcca1	0.62421614
111	0xbe142b76	-0.14469704
112	0xbf1d8e26	-0.61545026
113	0x3e77bf6e	0.24194118
114	0x3ea1f639	0.31633165
115	0xbe5c7634	-0.21529466
116	0xbd1376e1	-0.036002044
117	0xbf155939	-0.5833927
118	0x3f12ed9e	0.57393825
119	0x3dbcce96	0.09219091
120	0xbd9defb1	-0.07711733
121	0xbaecdd7d	-0.001807138
122	0x3e0b6dd3	0.13616113
123	0xbef6d6e8	-0.48210835
124	0x3e0aabc8	0.13542092
125	0xbedb5838	-0.42840743
126	0x3f43075c	0.76183105
127	0xbdc187dc	-0.09449741
128	0x3e48b9f4	0.19602185
129	0x3e1f379c	0.15548557
130	0x3e32af2a	0.17449632
131	0xbdaf1239	-0.085483976
132	0xbf09b6bd	-0.5379446
133	0x3e99a378	0.3000753
134	0xbe7afe92	-0.24511173
135	0x3d19864e	0.0374816
136	0xbf0d7080	-0.55249786
137	0xbac9eb0d	-0.0015405134
138	0x3e254d19	0.16142692
139	0x3e4bbe92	0.19896916
140	0x3f2e4932	0.6808044
141	0xbef9ee69	-0.48814705
142	0x3e0542db	0.13013785
143	0xbe98022f	-0.29689166
144	0xbeeab717	-0.4584281
145	0xbec9d2e8	-0.3941872
146	0x3e325101	0.17413713
147	0xbd4ddaac	-0.05025737
148	0x3f62c166	0.8857635
149	0xbeef2de2	-0.46714693
150	0x3ea3b704	0.31975567
151	0xbc5535f9	-0.013013356
152	0xbeaf556f	-0.34244868
153	0x3d6e5922	0.058190472
154	0x3d281e1b	0.041044336
155	0xbe5d596f	-0.21616147
156	0x3f8d27b7	1.1027745
157	0xbf981cf4	-1.1883836
158	0x3cc22a1a	0.023701716
159	0x3e3a68fc	0.18204111
160	0xbf4a3ed1	-0.790021
161	0xbe62e01e	-0.22155806
162	0x3dc94fc6	0.09829669
163	0x3d615a8b	0.05501799
164	0x3f8554fd	1.0416561
165	0xbf655c05	-0.89593536
166	0xbd3911a9	-0.045182858
167	0x3d8f17a7	0.06986933
168	0x3eb193bb	0.34683022
169	0xbf4e8bc9	-0.80682045
170	0xbee188d8	-0.44049716
171	0x3f749e29	0.95553833
172	0x3f725856	0.9466604
173	0x3eadd1cf	0.33949134
174	0x3bc5cdfa	0.006036517
175	0xbe89075e	-0.26763433
176	0xbeb7380e	-0.35784954
177	0xbeb770b3	-0.3582817
178	0xbe26fbd7	-0.16307007
179	0x3e20e091	0.15710665
180	0x3f54f474	0.83185506
181	0xbf18d459	-0.59699017
182	0x3e78659c	0.24257511
183	0x3d268acc	0.04065971
184	0x3ebc1e25	0.36741748
185	0x3e99e378	0.30056357
186	0x3e460bf5	0.19340499
187	0xbf3c8ae4	-0.7364943
188	0x3d05564b	0.032553
189	0x3ebe3532	0.3714996
190	0xbecb30b0	-0.39685583
191	0x3d85e480	0.065377235
192	0x3dc9867c	0.09840104
193	0xbe16de0d	-0.14733143
194	0xbe68f2f0	-0.22748923
195	0x3d839013	0.06423964
196	0x3d8f7cce	0.070062265
197	0x3ec13ec1	0.3774319
198	0xbd00894f	-0.031380948
199	0xbe676f7c	-0.22601122
200	0x3ea24b5e	0.31698126
201	0xbf47776f	-0.77916616
202	0x3e2f624b	0.1712734
203	0x3dbcee0d	0.09225092
204	0x3e83c476	0.25735825
205	0x3e3fd795	0.18734582
206	0xbdd71840	-0.10502672
207	0x3ccbae45	0.024863372
208	0x3d8063ef	0.06269061
209	0xbc388f13	-0.01126458
210	0x3dd8cf3f	0.10586404
211	0x3c970fc7	0.01844014
212	0xbed365b3	-0.41288528
213	0x3e06e86a	0.13174596
214	0x3e8f80fe	0.280281
215	0x3bb10b81	0.0054029827
216	0xbe473dd5	-0.19457181
217	0xbf046291	-0.517129
218	0x3eac0e04	0.33604443
219	0xbf36a6e2	-0.7134839
220	0x3f0a4a90	0.54020023
221	0xbe9b2818	-0.30304027
222	0x3ecddf80	0.4020958
223	0x3e9fc2f3	0.31203422
224	0xbdb9c9e4	-0.09071711
225	0x3e888cb7	0.26669857
226	0x3ba17288	0.0049269833
227	0xbedeb8b8	-0.43500304
228	0xbd6a4c9c	-0.057201967
229	0xbd3549bd	-0.044259775
230	0x3f35913e	0.70924747
231	0xbe7a8c91	-0.24467684
232	0x3eeb8300	0.45998383
233	0x3ea541e5	0.32276836
234	0xbe9472ea	-0.28993922
235	0xbeb85c4e	-0.36007923
236	0xbdbb7cc7	-0.09154659
237	0x3eefffc8	0.46874833
238	0xbdcddf2e	-0.10052334
239	0xbe90df3e	-0.2829532
240	0x3dd1114b	0.102083765
241	0x3c820cd6	0.015875261
242	0x3db9c194	0.09070125
243	0x3c8bf263	0.017083352
244	0xbf33c55c	-0.7022302
245	0x3efb4bcc	0.49081266
246	0xbe5625b6	-0.20912823
247	0x3dd402ef	0.10352122
248	0xbd0f60cc	-0.035004422
249	0x3c6768de	0.014124123
250	0xbcfc509b	-0.030800154
251	0x3f2db6bb	0.6785695
252	0xbebd3c14	-0.36959898
253	0xbce762ae	-0.028245296
254	0xbe7123b5	-0.23548777
255	0xbd1c5f81	-0.038177017

input_embeddings.embeddings.cluster.weight f4 [15, 8]
0	0x3db28865	0.087174214
1	0xbf4c1bc2	-0.79729855
2	0xbeb397cb	-0.35076746
3	0xbe8bc759	-0.27300528
4	0x3e1f57c4	0.15560824
5	0x3f14b56b	0.5808932
6	0x3e203ae8	0.15647471
7	0x3d61adaf	0.05509728
8	0x3e462283	0.19349103
9	0xbf4e38e6	-0.8055557
10	0x3f264911	0.6495524
11	0xbeb7a784	-0.35869992
12	0xbc90c367	-0.0176713
13	0x3f51eb53	0.819997
14	0xbed05b2d	-0.40694562
15	0xbe20daab	-0.15708415
16	0x3e430f7e	0.19048879
17	0xbe127615	-0.14302857
18	0xbe51bc79	-0.20482053
19	0xbe3dbf00	-0.18529892
20	0x3d0b88bc	0.034065947
21	0xbe843a24	-0.25825608
22	0x3e3c6a12	0.18399838
23	0x3e27a012	0.16369656
24	0x3e46e02c	0.19421452
25	0xbd917d9c	-0.07104036
26	0xbf0b06f3	-0.5430748
27	0x3d56a1ec	0.052400514
28	0x3d807c9b	0.062737666
29	0x3db65ade	0.0890405
30	0x3e536fcc	0.20648116
31	0xbe0fb0e2	-0.14032319
32	0x3e61333c	0.219922
33	0xbe14d2fd	-0.1453361
34	0xbe176d6e	-0.14787838
35	0xbd0ea429	-0.034824524
36	0x3eaa999d	0.33320323
37	0xbea1c3a2	-0.31594568
38	0xbd6dbd71	-0.058041994
39	0xbb503157	-0.003176769
40	0xbf355814	-0.7083752
41	0xbd91e41a	-0.07123585
42	0x3f66abd9	0.9010597
43	0x3d5e2a52	0.05423958
44	0xbf1c233e	-0.60991275
45	0x3f4740cd	0.77833253
46	0xbca4241d	-0.020036751
47	0x3e878153	0.26465854
48	0x3dfd1e38	0.123592794
49	0xbe8a0222	-0.26954752
50	0xbeac34c9	-0.33634022
51	0xbf0932d8	-0.53593206
52	0xbc50e6b9	-0.012750321
53	0xbe6a7d6d	-0.22899409
54	0x3f1e58a2	0.6185399
55	0x3d8cb29d	0.06870005
56	0xbf26c53d	-0.6514471
57	0x3f2e2ea2	0.68039906
58	0xbef35443	-0.47525224
59	0x3f4cdb7d	0.8002241
60	0x39ee188e	0.00045413192
61	0xbee312ed	-0.44350377
62	0x3e72384f	0.23654293
63	0xbe3eb02f	-0.18621896
64	0xbf01b386	-0.50664556
65	0x3e881fa0	0.26586628
66	0x3f360ee5	0.7111648
67	0xbf04b1dd	-0.518339
68	0xbe982b3f	-0.29720494
69	0x3f78e70e	0.9722756
70	0xbed133b3	-0.40859756
71	0x3ee2e573	0.4431568
72	0xbe3a4f89	-0.18194403
73	0x3eda556a	0.4264329
74	0x3e847c2b	0.25875983
75	0x3c81691d	0.015797192
76	0xbea7d3eb	-0.32778868
77	0xbe69ecad	-0.22844191
78	0x3de31cad	0.11089454
79	0x3e052156	0.13000998
80	0x3e73a6cc	0.23794097
81	0x3e61b77b	0.22042648
82	0xbe471c7a	-0.19444457
83	0x3e89785e	0.26849645
84	0x3cedc898	0.029026315
85	0xbf78d50c	-0.97200084
86	0x3e35a0ac	0.17737073
87	0x3db25b94	0.087088734
88	0xbe99f9e7	-0.30073473
89	0x3f15b1f9	0.5847469
90	0x3ead7880	0.33880997
91	0x3e8c6e3e	0.27427858
92	0x3cd652fe	0.02616262
93	0xbd7a215b	-0.061066967
94	0xbf0259af	-0.50918096
95	0x3cb59668	0.022166446
96	0xbf18915b	-0.59596795
97	0xbee975e0	-0.45597744
98	0xbedc6000	-0.43041992
99	0x3f229a05	0.63516265
100	0x3e4190a1	0.18902828
101	0x3f5e49f8	0.8683162
102	0xbebbcd7b	-0.36680207
103	0x3ddbfe68	0.107418835
104	0x3e481070	0.1953752
105	0xbd4e4180	-0.050355434
106	0xbeba12da	-0.36342508
107	0x3e94efa8	0.29089093
108	0xbe1a1053	-0.1504529
109	0xbeb6a4de	-0.3567266
110	0x3e93cf4e	0.28869098
111	0xbdb1fb22	-0.08690478
112	0x3ed57321	0.416894
113	0xbf16a1b4	-0.5884049
114	0xbe9b08b4	-0.30280077
115	0x3eff1fe6	0.49829024
116	0xbe46eb8c	-0.19425792
117	0x3db7d031	0.08975256
118	0x3e644e9e	0.22295615
119	0xbee9810c	-0.45606267

input_embeddings.embeddings.weekday.weight f4 [7, 8]
0	0x3da60820	0.081070185
1	0x3e0053ae	0.12531921
2	0xbe1c6056	-0.15271124
3	0xbe8a34b0	-0.26993322
4	0x3ea1f07f	0.31628796
5	0xbe77bb23	-0.2419248
6	0x3f385d82	0.7201768
7	0xbe903c86	-0.28171176
8	0xbf2d15a3	-0.6761114
9	0xbe66d355	-0.22541554
10	0x3e9f9389	0.31167248
11	0x3d243528	0.040089756
12	0xbdafd1ed	-0.08584962
13	0x3e692428	0.22767699
14	0x3e8bbbd8	0.2729175
15	0x3d7218c6	0.059105657
16	0xbdcba144	-0.09942868
17	0x3eaad49e	0.3336534
18	0x3ef15e0c	0.47142065
19	0x3d21b864	0.03948249
20	0xbf416807	-0.7554936
21	0xbee3465e	-0.44389623
22	0x3d76df51	0.060271565
23	0xbb9a18d6	-0.0047026677
24	0xbf9081f4	-1.1289659
25	0xbd964ab4	-0.07338467
26	0x3ed41cdc	0.41428268
27	0x3e91472b	0.2837461
28	0x3d457bad	0.04821365
29	0x3e460b3c	0.19340223
30	0xbd127259	-0.03575358
31	0x3e97f706	0.2968065
32	0x3ea037c5	0.3129255
33	0xbea5a2e5	-0.3235084
34	0xbe162301	-0.1466179
35	0x3f8dcc2a	1.1077931
36	0x3e4d51fe	0.20050809
37	0xbfbb944a	-1.4654629
38	0xbe212834	-0.15737993
39	0xbced551c	-0.028971247
40	0x3ed93c58	0.4242885
41	0xbe253130	-0.16132045
42	0xbe8a5d8d	-0.270245
43	0xbea1d7ab	-0.31609854
44	0x3e426104	0.18982321
45	0x3e01e12d	0.12683554
46	0x3f3a1bc7	0.72698635
47	0xbf10077f	-0.5626144
48	0x3f01ac67	0.5065369
49	0x3e0bf488	0.136675
50	0xbf23d8b5	-0.64002544
51	0xbeadf9ad	-0.3397955
52	0x3d55c1cc	0.052186772
53	0x3fad3ba4	1.3533826
54	0xbf99af42	-1.200661
55	0x3ee18465	0.44046322

input_embeddings.embeddings.onpromotion.weight f4 [2, 8]
0	0x3f0406fc	0.5157316
1	0xbe98c445	-0.29837242
2	0x3f0718cf	0.5277223
3	0x3ba56f05	0.005048635
4	0xbe110f19	-0.14165916
5	0x3ec1783b	0.3778704
6	0xbe288db0	-0.164603
7	0xbed9bc9e	-0.42526716
8	0x3f9a4ea5	1.205525
9	0x3d6238a0	0.055229783
10	0xbeccb4de	-0.3998174
11	0xbe9db1b1	-0.3079963
12	0x3e38785c	0.18014663
13	0x3c790475	0.015198817
14	0xbce9b173	-0.028526997
15	0xbeea655f	-0.45780465

prescalers.time_idx.weight f4 [8, 1]
0	0xbca967db	-0.020679405
1	0xbc9aa89d	-0.01887923
2	0x3ddef8ce	0.108872995
3	0x3d1aeb78	0.037822217
4	0x3d5b1db1	0.053495113
5	0xbd3d2d0f	-0.04618555
6	0xbced646e	-0.028978553
7	0xbd795b54	-0.060878113

prescalers.time_idx.bias f4 [8]
0	0xbf344945	-0.704243
1	0x3e1c7a79	0.15281095
2	0xbf671088	-0.902596
3	0xbeeb2821	-0.45929053
4	0xbf16b59d	-0.5887087
5	0x3e971239	0.2950609
6	0xbe604df4	-0.21904737
7	0x3c622261	0.013802142

prescalers.doy_sine.weight f4 [8, 1]
0	0x3cc0db90	0.023542196
1	0xbbd1c719	-0.006401908
2	0xbbf255c7	-0.0073954794
3	0xba9fc06e	-0.0012188086
4	0x3d0091fd	0.031389225
5	0xbcc78420	-0.024354994
6	0xbc1be16b	-0.009514193
7	0xbbb52eaa	-0.0055292444

prescalers.doy_sine.bias f4 [8]
0	0xbf2a74db	-0.6658456
1	0x3d824116	0.063600704
2	0xbf27ba13	-0.655183
3	0x3e00cd9c	0.12578434
4	0x3f1867f1	0.595336
5	0xbe192094	-0.14953834
6	0x3efe70f8	0.49695563
7	0x3c36c36e	0.0111549925

prescalers.doy_cosine.weight f4 [8, 1]
0	0x3dc4c2ba	0.09607454
1	0xbd1c385a	-0.03813968
2	0x38315111	4.2275587e-05
3	0x3b19dae7	0.0023476423
4	0xbe1cac94	-0.15300208
5	0x3c1b2f55	0.009471734
6	0x3d8d579b	0.06901475
7	0x3ca575c6	0.02019776

prescalers.doy_cosine.bias f4 [8]
0	0xbed1e8eb	-0.40998015
1	0x3e92576e	0.2858233
2	0x3f81a14f	1.0127352
3	0x3e6850dd	0.22687097
4	0xbeea94a8	-0.4581654
5	0xbf3456a8	-0.70444727
6	0x3da4d3da	0.0804822
7	0x3eac1241	0.33607677

prescalers.relative_time_idx.weight f4 [8, 1]
0	0x3ed36d03	0.41294107
1	0xbf20fbad	-0.62884027
2	0x3f1ddef3	0.6166832
3	0xbf4ee1dc	-0.80813384
4	0x400fe558	2.248373
5	0xc00393b8	-2.055891
6	0x3fcb3737	1.5876225
7	0xc03caf70	-2.9482079

prescalers.relative_time_idx.bias f4 [8]
0	0x3e6e6159	0.23279323
1	0xbefedfe6	-0.49780196
2	0x3eaa66d3	0.33281574
3	0xbf86c6b4	-1.0529389
4	0x3f68a5c0	0.90877914
5	0xbf05aaa0	-0.5221348
6	0xbeb26d94	-0.34849226
7	0xbf85a7b7	-1.0441808

prescalers.sales.weight f4 [8, 1]
0	0xbf1d5993	-0.61464804
1	0xbd9e9e84	-0.07745078
2	0x3e1a6535	0.1507767
3	0x3f305650	0.688817
4	0xbf4c143d	-0.7971838
5	0x3e86b63a	0.26310903
6	0x3f711366	0.94170225
7	0xbe4c0a0e	-0.1992571

prescalers.sales.bias f4 [8]
0	0xbe649bf6	-0.2232512
1	0x3ed9c90c	0.425362
2	0xbed59d8d	-0.41721764
3	0xbedd46b0	-0.43217993
4	0xbcc7c854	-0.024387516
5	0xbeb23276	-0.34804124
6	0x3e1d3f80	0.15356255
7	0xbf9b6e00	-1.2142944

prescalers.dcoilwtico.weight f4 [8, 1]
0	0x3d18c70a	0.037299193
1	0xbd790877	-0.06079909
2	0xbdeae813	-0.11470046
3	0x3d9cbb01	0.07652856
4	0x3e4740d8	0.1945833
5	0x3c0c642e	0.008568807
6	0xbdca407c	-0.09875581
7	0xbda7edf4	-0.08199683

prescalers.dcoilwtico.bias f4 [8]
0	0x3fa5e889	1.2961589
1	0x3f99c177	1.2012166
2	0xbf1140ea	-0.56739676
3	0xbd926d13	-0.071497105
4	0x3f43f41d	0.7654436
5	0xbf38f12c	-0.72243
6	0x3dc93922	0.0982535
7	0xbe69c5fc	-0.22829431

causal_lns.weekday.weight f4 [8]
0	0x3ff90fd2	1.9457953
1	0x3e64eeb0	0.22356677
2	0x3f573c2b	0.84076184
3	0x3fc63993	1.548632
4	0x3faa91d1	1.332575
5	0x404b8392	3.1799054
6	0x40616782	3.5219426
7	0x4016a72c	2.3539534

causal_lns.onpromotion.weight f4 [8]
0	0x3fd8b2f1	1.6929609
1	0x40c8ec43	6.2788405
2	0x4089d22a	4.306905
3	0x404a6c45	3.1628582
4	0x3fa61cd3	1.2977546
5	0xbed2cdf2	-0.4117275
6	0x401de50c	2.467105
7	0x40731511	3.7981608

causal_lns.national_holiday.weight f4 [8]
0	0x3f056744	0.52110696
1	0x3f4eb780	0.8074875
2	0x4049b9f7	3.1519754
3	0x406ef0d5	3.7334492
4	0x3fd727d1	1.6809026
5	0x405ff04a	3.499041
6	0x40472449	3.1115897
7	0x40ce827b	6.453428

causal_lns.regional_holiday.weight f4 [8]
0	0x3fe4d9ca	1.7878964
1	0x401a3b3f	2.409866
2	0x3f45bf7e	0.7724532
3	0x3fb3e1da	1.40533
4	0x3e3bba1e	0.18332717
5	0x40cebea9	6.460774
6	0x41418615	12.095235
7	0x3f9c55dd	1.2213703

causal_lns.local_holiday.weight f4 [8]
0	0x400afd6e	2.1717181
1	0x3f69c22f	0.91311926
2	0x3fc6da70	1.5535412
3	0x400b97ad	2.1811326
4	0x4053e756	3.3109946
5	0x40db67a0	6.8563995
6	0x401a5e5e	2.4120097
7	0x3e3c4707	0.1838647

past_ln.weight f4 [8]
0	0x3fac7f8b	1.3476423
1	0xbbe617ba	-0.0070218714
2	0x3f90d9b4	1.1316438
3	0x3f988f12	1.1918662
4	0x3f8418c3	1.0320057
5	0x3f768c90	0.9630823
6	0x3f8a8129	1.0820667
7	0x3f7e5a86	0.9935688

post_lns.weekday.weight f4 [8]
0	0x3f2ba7cf	0.6705293
1	0x3fd665cb	1.6749815
2	0x3f732a4b	0.9498641
3	0x3f6c5aa4	0.92325807
4	0x3f6553bf	0.8958091
5	0x3ecb9b58	0.39766955
6	0x3eaea34d	0.34108964
7	0x3f1e3cd5	0.6181157

post_lns.onpromotion.weight f4 [8]
0	0x3f4ac30e	0.7920388
1	0x3ee8c9f1	0.4546657
2	0x3f698069	0.91211563
3	0xbb7f5a05	-0.0038963568
4	0x3fa4829c	1.2852359
5	0x3ff8d74b	1.9440702
6	0x3f83b6b0	1.0290127
7	0x3f41ce0c	0.7570503

post_lns.national_holiday.weight f4 [8]
0	0x3ffe0a8b	1.9846967
1	0x400502e5	2.0783017
2	0x3ec447b8	0.38335967
3	0x3e5d2ce9	0.21599163
4	0x3f69dbd7	0.91351074
5	0x3e9e37c9	0.30901936
6	0x3edf6a31	0.43635705
7	0x3e8641cd	0.26222077

post_lns.regional_holiday.weight f4 [8]
0	0x3f288cb5	0.658397
1	0xbf8438d2	-1.032984
2	0xbf274f02	-0.6535493
3	0xbd0c22bc	-0.034212813
4	0xbb895dba	-0.0041920813
5	0xbe6018b6	-0.21884426
6	0x3cc9d300	0.024636745
7	0xbee0da03	-0.4391633

post_lns.local_holiday.weight f4 [8]
0	0x3f59e084	0.8510821
1	0x3faf6fb8	1.3705969
2	0x3f87e8ba	1.0617898
3	0x3f2b001d	0.6679705
4	0x3f242f61	0.64134794
5	0x3be06803	0.0068483367
6	0x3f48469a	0.7823273
7	0x3f574ae3	0.84098643

trend_block.gru.weight_ih_l0 f4 [24, 8]
0	0x3e3ea6ba	0.18618289
1	0x3ee5ae7a	0.44859678
2	0xbf3cc682	-0.737404
3	0x3d5ac27d	0.053408135
4	0xbe2ae117	-0.16687427
5	0x3dde86fa	0.108655885
6	0xbe915ba8	-0.2839024
7	0x3f0f312d	0.5593441
8	0x3eb32e92	0.34996468
9	0x3e97a962	0.29621416
10	0xbf359ac5	-0.70939285
11	0x3f02adfd	0.51046735
12	0xbf2a1327	-0.66435474
13	0x3ef323cf	0.47488257
14	0xbf767fac	-0.9628856
15	0x3e36d9a2	0.17856458
16	0x3e20a670	0.15688491
17	0xbcef7b40	-0.029233575
18	0x3f67de97	0.9057402
19	0x3f05f502	0.5232698
20	0x3eec48fb	0.4614943
21	0x3f72919d	0.9475344
22	0xbf079a43	-0.5296976
23	0xbf804e5e	-1.0023916
24	0x3f3504f7	0.707107
25	0x3ccb08a4	0.024784394
26	0x3e41a467	0.18910371
27	0x3c9750d4	0.018471159
28	0x3e885912	0.26630455
29	0x3edf3f93	0.4360319
30	0xbfe24222	-1.7676432
31	0x3e1409b4	0.14456826
32	0x3f615f13	0.88035697
33	0x3d71dd61	0.059049014
34	0xbefbdcad	-0.491918
35	0xbf8e9d4e	-1.1141756
36	0x3ed80c4e	0.42196888
37	0x3d51476c	0.051093504
38	0xbfc461d0	-1.534235
39	0xbdf2363a	-0.11826749
40	0x3e670870	0.22561812
41	0x3e87cd00	0.2652359
42	0x3f12fd83	0.5741808
43	0x3f28c2ce	0.6592225
44	0x3e0051e0	0.12531233
45	0x3f3cd47c	0.73761725
46	0xbf85e27a	-1.045974
47	0xbecd0ca4	-0.40048707
48	0x3ed439bf	0.41450307
49	0xbcfa6ca4	-0.030569382
50	0x3e81d3d0	0.25356913
51	0x3ddd0a14	0.10792938
52	0x3f3e52f3	0.7434532
53	0xbeeffd90	-0.4687314
54	0x3ec130be	0.377325
55	0xbe67d6b9	-0.22640504
56	0x3e3e551d	0.18587156
57	0xbdcc81bf	-0.099856846
58	0x3f3c96a1	0.7366734
59	0x3d934b80	0.07192135
60	0x3f2a2d0d	0.6647499
61	0xbf2f241d	-0.6841448
62	0x3e870198	0.26368403
63	0xbf8a9b8e	-1.0828722
64	0x3d9144fb	0.07093235
65	0x3eb4a798	0.35284114
66	0xbe6c37c7	-0.23068152
67	0x3aef0f5b	0.0018238829
68	0x3cabdc9f	0.020979224
69	0xbe15e17d	-0.14636798
70	0xbedc3c36	-0.43014687
71	0xbf71411d	-0.9423998
72	0x3ea4fc0a	0.3222354
73	0xbdf1f46b	-0.11814197
74	0x3f9e6866	1.237561
75	0x3f3338e8	0.7000871
76	0xbf5ddd1c	-0.8666551
77	0x3deba618	0.11506289
78	0xbe41d58e	-0.18929121
79	0xbf9b466c	-1.2130866
80	0xbc840ef7	-0.016120417
81	0x3d4a359f	0.049367543
82	0xbf6b56d9	-0.91929394
83	0xbf9c2ffe	-1.2202146
84	0x3e9e7201	0.30946353
85	0xbf140bb9	-0.5783039
86	0xbdfcee8b	-0.12350186
87	0xc014d8ab	-2.3257244
88	0xbe815681	-0.2526131
89	0xbe02dfeb	-0.1278073
90	0x3eb29ca5	0.34885135
91	0x3b9d2c66	0.0047965525
92	0xbf3ae8d2	-0.73011506
93	0x3e491dca	0.1964027
94	0x3e023b4f	0.12717937
95	0x3deddfe1	0.11614967
96	0x3f81a3c6	1.0128105
97	0x3f174032	0.5908233
98	0xbd85b652	-0.065289155
99	0xbef20636	-0.47270364
100	0x3e99595e	0.29950994
101	0x3eb8d3a3	0.36098966
102	0xbe21139d	-0.15730138
103	0x3e7d6d11	0.24748637
104	0x3e277aba	0.1635541
105	0x3d12ab2a	0.035807766
106	0x3f3d571b	0.7396104
107	0xbeeb9054	-0.4600855
108	0x3f97ee3f	1.1869582
109	0xbdd84af4	-0.10561171
110	0xbeb0f526	-0.34562033
111	0xbfa1537d	-1.2603604
112	0xbf4e8120	-0.8066578
113	0x3d48f4b4	0.049061492
114	0x3e9e2c95	0.30893388
115	0x3ebdef1b	0.37096485
116	0xbd0b0901	-0.033944134
117	0x3dd0a158	0.10187024
118	0xbe6df2de	-0.23237178
119	0x3f4ba006	0.7954105
120	0x3f161ea5	0.5864051
121	0xbcfe1397	-0.0310152
122	0xbeab6d33	-0.3348175
123	0xbf75f92c	-0.9608333
124	0x3e95d20f	0.29261824
125	0xbf2b57c3	-0.6693079
126	0x3e90c153	0.28272495
127	0x3cdb28e6	0.0267529
128	0xbe83b4bf	-0.25723836
129	0xbda9f901	-0.08299447
130	0xbd3e9d6b	-0.046536844
131	0x3f1550d2	0.58326447
132	0xbedee6cf	-0.43535468
133	0x3e9c3659	0.30510214
134	0xbc927792	-0.017879281
135	0x3d42ef20	0.04759133
136	0xbe649643	-0.22322945
137	0x3dca8a1a	0.09889622
138	0x3e0cd79d	0.13754125
139	0x3d5823fe	0.0527687
140	0x3f311aab	0.6918132
141	0xbf0b56d4	-0.54429364
142	0x3f124442	0.57135403
143	0xbef5e1d4	-0.48023856
144	0xbca2a5c7	-0.01985444
145	0xbdc8dece	-0.098081216
146	0xbe444a12	-0.1916888
147	0xbeb5be39	-0.3549669
148	0xbe64d311	-0.2234614
149	0xbf17d0b6	-0.5930284
150	0x3f877edb	1.0585588
151	0x3eadd83b	0.33954033
152	0xbe604968	-0.21903002
153	0xbd40e5be	-0.0470941
154	0xbd486d08	-0.048932105
155	0x3ee63324	0.44960892
156	0xbf876cfa	-1.0580132
157	0xba1c165e	-0.00059542607
158	0xbd3ec194	-0.04657133
159	0x3d34d922	0.044152386
160	0x3ee78131	0.45215753
161	0x3b8ad0ae	0.0042363023
162	0x3e782f71	0.24236847
163	0x3d05cb33	0.03266449
164	0xbd929acf	-0.07158434
165	0x3e961166	0.2931015
166	0x3e3b0206	0.1826249
167	0xbd4e0534	-0.05029793
168	0xbf521d19	-0.8207565
169	0x3e6831de	0.22675273
170	0x3f738f94	0.9514096
171	0xbef3e196	-0.47633046
172	0x3e5dfa0b	0.21677415
173	0x3f5ec9b2	0.8702651
174	0xbf1c751e	-0.61116207
175	0xbf3da184	-0.7407458
176	0x3e7e7bb4	0.24851876
177	0x3e48e3d5	0.19618161
178	0x3ee446ec	0.4458536
179	0xbe1d71fb	-0.15375511
180	0x3f1ff58e	0.6248406
181	0xbed23416	-0.41055363
182	0x3f6f8c31	0.9357329
183	0xbef424cb	-0.4768432
184	0x3e84b036	0.25915688
185	0xbd1fcf81	-0.03901625
186	0xbe0f6cf1	-0.14006402
187	0xbed65524	-0.41861832
188	0x3daf0737	0.08546298
189	0x3d824008	0.06359869
190	0xbf1332a3	-0.5749914
191	0x3eab8309	0.3349841

trend_block.gru.weight_hh_l0 f4 [24, 8]
0	0xc00b3d32	-2.17561
1	0x3e9cb42b	0.30606207
2	0x3daf2df0	0.08553684
3	0x3f7f3d28	0.9970269
4	0xbe43c5f7	-0.19118486
5	0xbeffe563	-0.49979696
6	0xbfa292f3	-1.2701095
7	0xbf8e96ec	-1.1139808
8	0x40077262	2.1163564
9	0x3f432a06	0.76236
10	0x3f09119b	0.5354249
11	0xbf83f922	-1.0310404
12	0x3f39ac1d	0.7252825
13	0xbe818017	-0.25293037
14	0x3f4968d1	0.7867556
15	0xbe4b39cf	-0.19846271
16	0x4004cc4a	2.0749688
17	0xbfc769a8	-1.5579119
18	0x3d23b57c	0.039968
19	0x3dd6301d	0.10458396
20	0xbfdba3da	-1.7159379
21	0xbe7ca48d	-0.24672146
22	0xbecf9dee	-0.40550178
23	0x3d29c0c6	0.04144361
24	0x3fa0935d	1.2544972
25	0x3ecad328	0.39614224
26	0x3cc8dda1	0.024519743
27	0xbc880712	-0.016604934
28	0xbfbbef7f	-1.4682463
29	0x3f54305c	0.8288629
30	0xbf02af8e	-0.51049125
31	0x3f605c0a	0.8764044
32	0x3fd5a45a	1.6690781
33	0x3fc17697	1.5114316
34	0x3f3ebd2b	0.745074
35	0xbe8e1cc8	-0.27756333
36	0xbe572197	-0.21008907
37	0x3f19c47c	0.60065436
38	0xbecbb2c8	-0.39784837
39	0x3e21a594	0.1578582
40	0x3f8fffab	1.1249899
41	0x3f35b8fe	0.709854
42	0xbf0d4762	-0.55187047
43	0x3f380bfa	0.71893275
44	0xbf8ace22	-1.0844157
45	0xbeae1911	-0.340035
46	0x3ca7163f	0.02039635
47	0x3e940612	0.2891088
48	0xbfdd01e5	-1.7266203
49	0x3fd810c4	1.6880116
50	0xbfe344f2	-1.7755415
51	0xbebbb34c	-0.3666023
52	0x3fa35a6f	1.2761973
53	0x3e101681	0.14071085
54	0x3fbb6e86	1.4643104
55	0x3f30f064	0.69116807
56	0xbeb47b9b	-0.35250553
57	0xbf68ad4a	-0.9088942
58	0x3ed256f6	0.4108197
59	0x3d437d35	0.04772683
60	0x3eb7f3d1	0.35928205
61	0x3f8c39d3	1.0955147
62	0xbf84cfa8	-1.0375872
63	0xbd917e23	-0.07104137
64	0x3f6cd964	0.9251921
65	0xbf0e2103	-0.5551912
66	0xbe89b171	-0.2689319
67	0xbf5d9e41	-0.865696
68	0xbec6f278	-0.38856864
69	0x3f5365fb	0.82577485
70	0x3f88bae2	1.0682032
71	0x3db27aab	0.08714803
72	0xbfd46cb2	-1.6595671
73	0xbfcff860	-1.6247673
74	0xbe17505e	-0.14776751
75	0xbfd54a37	-1.6663274
76	0x3f52471f	0.8213977
77	0x400742ef	2.1134603
78	0xbe89a9b9	-0.268873
79	0xbe900f71	-0.2813678
80	0x3ec0a063	0.37622365
81	0x3e990b42	0.29891402
82	0xbfb2f47c	-1.3980861
83	0x3e3071fa	0.17230979
84	0x3ed564d5	0.4167849
85	0xbf25ab7b	-0.64714783
86	0xbfa5005b	-1.2890733
87	0xbe88b998	-0.26704097
88	0x3fbb6039	1.463874
89	0xbe86817a	-0.26270658
90	0x3f942a49	1.1575404
91	0xbe5331fb	-0.20624535
92	0x3da73f46	0.08166365
93	0xbe1e86a1	-0.15481044
94	0x390c40b7	0.00013375549
95	0x3ed7a8f6	0.42121094
96	0xbfda9e7c	-1.7079616
97	0x3fc61b37	1.5477055
98	0xbf750458	-0.95709753
99	0x3f879d8a	1.0594952
100	0xbf3e6d0d	-0.7438515
101	0xbbad2305	-0.0052837157
102	0xbedb0684	-0.4277841
103	0xbf7c9110	-0.9865885
104	0xbf4e7b4a	-0.80656874
105	0x3f2d31a5	0.67653877
106	0x3ea3947a	0.31949216
107	0xbf553c73	-0.83295363
108	0xbf3ffa7d	-0.7499159
109	0x3f44fee2	0.7695142
110	0x3e5f08bc	0.21780676
111	0x3f96aa7a	1.1770775
112	0x3f0d369c	0.5516145
113	0xbf040a0c	-0.5157783
114	0x3f419905	0.75624114
115	0xbe9a5896	-0.3014571
116	0x3f84812c	1.035192
117	0xbf753fd1	-0.958005
118	0x3f41ca5a	0.7569939
119	0xbc6ebc9b	-0.014571334
120	0xbfa6f7f1	-1.3044416
121	0x3f8a9136	1.0825565
122	0xbed94a08	-0.42439294
123	0x3e54c69f	0.20778893
124	0x3f5ad264	0.8547728
125	0x3e99fc9b	0.30075535
126	0xbfa11e39	-1.2587348
127	0xbf9ac9e7	-1.2092866
128	0x3ef79a01	0.48359683
129	0xbf045f92	-0.5170833
130	0x3f991dd1	1.1962224
131	0xbd3cc2cc	-0.04608421
132	0x3ef18a0b	0.4717563
133	0xbe29a1a9	-0.16565575
134	0x3fdecb04	1.7405705
135	0xbe36f29d	-0.17865987
136	0x3e7aa6f1	0.24477746
137	0x3f35f7ef	0.7108144
138	0xbf7734bd	-0.9656485
139	0x3ea30327	0.31838343
140	0x3de5be64	0.11217955
141	0x3f3db4e3	0.74104136
142	0xbfc1cbba	-1.5140297
143	0xbf7ab878	-0.97937727
144	0x3d6d5ae1	0.057947997
145	0xbfa1e7b7	-1.2648839
146	0xbd8aac68	-0.06771165
147	0xbf0df635	-0.5545381
148	0x3f0d6cf5	0.5524438
149	0x3f14702c	0.5798366
150	0xbf3ed1a5	-0.7453864
151	0xbfef8ee8	-1.8715487
152	0xbeaa58b9	-0.33270815
153	0xbf4b55d5	-0.79427844
154	0xbf22c478	-0.6358104
155	0x3f549a7a	0.8304821
156	0x3f2506a0	0.64463234
157	0xbfb01f14	-1.3759484
158	0x3c99ebab	0.018789133
159	0x3ec74aa1	0.38924125
160	0xbeadaa35	-0.3391892
161	0x3f59a124	0.85011506
162	0xbf987284	-1.1909947
163	0xbf640e3c	-0.8908422
164	0x3d1f30a1	0.038864736
165	0xbe87c3ec	-0.26516664
166	0xbd808be6	-0.062766835
167	0x3fab83de	1.3399618
168	0x3f3e68e1	0.7437878
169	0x3f14f285	0.58182555
170	0xbedb59e3	-0.42842016
171	0x3f2739f5	0.6532281
172	0xbf3f2b64	-0.74675584
173	0xbebd27da	-0.36944467
174	0x3ef137b3	0.47112808
175	0x3d95567d	0.07291887
176	0xbe20753c	-0.15669721
177	0xbf6964db	-0.9116952
178	0xbde572e3	-0.112035535
179	0x400f4995	2.238866
180	0xbe99c44a	-0.3003257
181	0xbea3cec1	-0.31993678
182	0x3f3304ba	0.6992909
183	0xbf9c98e3	-1.2234157
184	0x3fa2888d	1.2697922
185	0x3f7a959e	0.9788455
186	0x3da26017	0.07928484
187	0xbfaa3089	-1.3296062
188	0xbee35d4e	-0.44407123
189	0xbe7584b0	-0.23976398
190	0x3e26204d	0.1622326
191	0x3fb4e492	1.4132254

trend_block.gru.bias_ih_l0 f4 [24]
0	0x3f49b05d	0.78784734
1	0x3f9b9585	1.2155005
2	0xbea5c996	-0.3238036
3	0x3f7290a3	0.9475195
4	0xbe6dc56a	-0.23219839
5	0x3deed1d0	0.11661112
6	0xbf33cafd	-0.7023161
7	0x3cf97fd6	0.030456465
8	0x3fa40b4f	1.2815951
9	0x3fedf288	1.858964
10	0x3f9cb764	1.2243466
11	0x3f6cf87c	0.9256666
12	0x3e6c6c83	0.23088269
13	0x400305c9	2.047228
14	0x4009edc4	2.155137
15	0x3e9bfdb6	0.30467004
16	0x3e033665	0.12813719
17	0x3fb4abf2	1.4114974
18	0xbe0b0047	-0.13574325
19	0x3ffa4b57	1.9554242
20	0x3fde3905	1.7361151
21	0x3f8afe37	1.085883
22	0xbdb970df	-0.090547316
23	0x3fed6c86	1.8548744
