hnam_experiments/Fit_and_Predict/models/Favorita/HNAM/lightning_logs/version_2/checkpoints/model-12-0.825.ckpt (torch, 399546 bytes, 216 tensors)

input_embeddings.embeddings.national_holiday.weight f4 [178, 8]
0.26024634 0.3558238 0.32410815 0.91386795 0.24705727 0.025647053 -0.89590466 -1.2542595
0.93968767 -1.5442712 -0.20397338 -1.4558672 -0.3777103 0.5307556 1.8952755 -0.5338678
-1.8345147 -1.3810154 -0.027193708 -1.1148328 -0.67389286 -0.5417297 2.1158125 3.1531172
-1.0701067 0.26729318 -0.68210405 -0.99446976 0.68928117 -2.0260203 1.4238837 2.1356907
-0.6780414 -2.717163 0.49097276 2.4128687 0.97564226 -0.90212214 -0.23095983 -0.4307808
0.2588124 -1.1408619 -0.6137637 -0.6833824 -0.124343716 0.1370308 1.3209476 0.27549383
0.08042235 -0.73160505 1.3074497 0.5034442 -0.045609053 -1.2021836 2.0109577 -1.7264075
-0.54096556 0.50720793 -0.16259547 1.2687575 0.5722896 -0.48022148 -0.4765714 -0.43003228
-0.38696498 -0.38387454 0.7293843 0.21717788 -0.64044964 -1.2928691 0.19396782 1.3423369
1.4563498 -0.42864093 1.6289122 0.45580706 -1.227544 -1.1024415 0.23834768 -1.9484361
-0.11781017 0.12181403 2.9337964 -0.6544013 -1.9617516 0.16264857 0.9573429 -0.75958776
-1.0784277 -0.49179834 -0.2903254 1.0630105 -0.18672441 0.8418011 0.4888813 -0.3538755
-0.72872424 -0.5324594 0.48041096 -1.4879414 2.4286385 -0.06755218 -0.41685864 -0.7651486
0.65037036 -0.58380026 0.041042205 -0.80526483 0.63613933 -1.9708968 1.6071055 0.71737975
0.601277 -0.60439205 1.3629268 -0.016182238 -0.29208523 -2.099156 -0.33600792 1.3749901
0.014990166 0.7579569 0.87545353 -2.3504727 -1.1223783 3.0173979 0.8369324 -0.47000098
-0.54228073 1.2963392 1.3593153 0.6157352 -0.9364368 -0.8044175 -1.3376559 0.076204196
-0.694081 -1.2285242 0.31720874 -1.3141956 0.1411062 2.5125623 -0.07447102 0.52016175
0.5678885 0.61381346 2.1837516 -0.25618485 -2.0330317 0.8006596 0.12929282 -0.60726434
0.4225499 -0.11789813 -1.0652436 0.3667859 0.69481474 1.4314855 -0.8853153 -0.77986157
-0.3251715 -0.9352935 1.9218148 -0.73431367 0.71499354 -0.5125411 0.4327078 -0.57794726
0.36256418 0.53454024 2.4572651 -0.13554493 0.16481021 -0.66136986 -0.90978354 -0.72501713
0.7632761 -1.0994217 0.98655397 -0.5429571 -0.32219645 -0.37662402 0.68335897 -0.42981365
0.4204473 -0.77081656 0.402045 -0.06815037 -0.7875337 0.058545366 0.6594608 -0.26594344
0.34414384 -2.8711045 -2.058583 1.348847 -0.024405573 2.1489532 -0.009470002 -0.3203793
0.57381386 1.7845854 -1.1630205 0.43311688 -1.5690943 -0.3650221 0.46846044 0.7183573
0.3938967 -2.587252 -1.87158 0.67334616 -0.628612 -0.42764148 1.242174 1.9584694
0.71941835 -0.41396695 -1.4365563 0.6317893 0.09459929 -0.9541385 -0.47769892 0.85734826
-0.61626434 -0.4359174 0.13907917 -0.042708322 0.20590693 -1.645203 0.9976246 0.49942607
0.6547328 -0.19875696 -0.06281763 -0.2450257 0.16550739 -0.18838133 -1.2678375 0.4702426
0.2525546 -2.1057186 -0.024939438 0.41957963 -1.2684335 -0.670396 0.9934232 0.9509825
1.4791102 -2.4532223 0.95944715 -0.20241155 -1.2738565 -0.478483 0.71230024 0.40749508
00000000: 023f 853e 8a2e b63e 81f1 a53e 40f3 693f
00000010: 95fc 7c3e c519 d23c 025a 65bf 938b a0bf
00000020: 5f8f 703f aeaa c5bf 66de 50be db59 babf
00000030: 3f63 c1be 99df 073f 6398 f23f 8fab 08bf
00000040: 61d1 eabf 1dc5 b0bf 57c5 debc d7b2 8ebf
00000050: 3e84 2cbf ccae 0abf 7969 0740 accc 4940
00000060: 42f9 88bf a7da 883e 5f9e 2ebf 9295 7ebf
00000070: bb74 303f 51aa 01c0 d241 b63f 28af 0840
00000080: 1f94 2dbf 00e6 2dc0 c860 fb3e 716c 1a40
00000090: b1c3 793f 7af1 66bf bc80 6cbe 4d8f dcbe
000000a0: 0f83 843e c307 92bf 9e1f 1dbf 26f2 2ebf
000000b0: eba7 febd cd51 0c3e d014 a93f 870d 8d3e
000000c0: 79b4 a43d 784a 3bbf 835a a73f b8e1 003f
000000d0: 8fd0 3abd 27e1 99bf 88b3 0040 ecfa dcbf
000000e0: b87c 0abf 61d8 013f 6d7f 26be a566 a23f
000000f0: 9281 123f 97df f5be 2b01 f4be 312d dcbe
00000100: 4620 c6be 348b c4be eeb8 3a3f e163 5e3e
00000110: 82f4 23bf bc7c a5bf 809f 463e b2d1 ab3f
00000120: ac69 ba3f d376 dbbe 3280 d03f 8b5f e93e
00000130: 2920 9dbf ce1c 8dbf 6a11 743e 5b66 f9bf
00000140: 7546 f1bd a279 f93d 52c3 3b40 d886 27bf
00000150: ad1a fbbf 598d 263e 6d14 753f 5874 42bf
00000160: eb09 8abf fecc fbbe 88a5 94be ba10 883f
00000170: af34 3fbe 4780 573f a64e fa3e 2b2f b5be
00000180: ac8d 3abf 424f 08bf 6df8 f53e dd74 bebf
00000190: d06e 1b40 cc58 8abd 7f6e d5be c7e0 43bf
000001a0: ac7e 263f ef73 15bf df1b 283d d625 4ebf
000001b0: 07da 223f 5946 fcbf a2b5 cd3f 33a6 373f
000001c0: 4aed 193f 70b9 1abf 6374 ae3f 9d90 84bc
000001d0: 328c 95be 9258 06c0 3b09 acbe adff af3f
000001e0: 5099 753c 7709 423f b91d 603f 256e 16c0
000001f0: 18aa 8fbf 0c1d 4140 3441 563f f8a3 f0be
00000200: e9d2 0abf 71ee a53f 0bfe ad3f d2a0 1d3f
00000210: 52ba 6fbf 4eee 4dbf 4f38 abbf f210 9c3d
00000220: 4baf 31bf 4840 9dbf 2f69 a23e 9037 a8bf
00000230: 257e 103e d2cd 2040 4384 98bd 5229 053f
00000240: 2461 113f e122 1d3f 96c2 0b40 a92a 83be
00000250: 311d 02c0 07f8 4c3f 5665 043e ad75 1bbf
00000260: 7658 d83e 9374 f1bd e759 88bf 5dcb bb3e
00000270: 61df 313f eb3a b73f 06a4 62bf 02a5 47bf
00000280: e17c a6be 656f 6fbf 07fe f53f fbfb 3bbf
00000290: d109 373f e535 03bf e08b dd3e 5af4 13bf
000002a0: 03a2 b93e a1d7 083f d543 1d40 4acc 0abe
000002b0: 02c4 283e 894f 29bf 93e7 68bf b99a 39bf
000002c0: 1066 433f dab9 8cbf cd8e 7c3f 3dff 0abf
000002d0: eff6 a4be ddd4 c0be 9df0 2e3f 8910 dcbe
000002e0: de44 d73e 3c54 45bf d8d8 cd3e 6c92 8bbd
000002f0: cf9b 49bf 44cd 6f3d 6cd2 283f bd29 88be
00000300: 9f33 b03e 2dc0 37c0 d3bf 03c0 05a7 ac3f
00000310: 32ee c7bc 7388 0940 1128 1bbc c108 a4be
00000320: 77e5 123f 4b6d e43f dbdd 94bf 7fc1 dd3e
00000330: 15d8 c8bf 2de4 babe 0cda ef3e 44e6 373f
00000340: d4ac c93e 8995 25c0 ef8f efbf 6a60 2c3f
00000350: b7ec 20bf d3f3 dabe 8fff 9e3f 20af fa3f
00000360: cd2b 383f 7af3 d3be 14e1 b7bf f2bc 213f
00000370: 46bd c13d 6c42 74bf f494 f4be 2d7b 5b3f
00000380: 80c3 1dbf 9130 dfbe c56a 0e3e ecee 2ebd
00000390: 44d9 523e 0396 d2bf 5364 7f3f c6b4 ff3e
000003a0: 929c 273f f286 4bbe 88a6 80bd 04e8 7abe
000003b0: c57a 293e 09e7 40be 8048 a2bf a3c3 f03e
000003c0: d64e 813e 18c4 06c0 cb4d ccbc 24d3 d63e
000003d0: 075c a2bf 129f 2bbf fc50 7e3f 9773 733f
000003e0: 7c53 bd3f 9801 1dc0 549e 753f f944 4fbe
000003f0: bb0d a3bf b9fb f4be 4f59 363f 32a3 d03e

input_embeddings.embeddings.regional_holiday.weight f4 [19, 8]
0.13257517 0.15530486 0.110952534 -0.38975313 -0.17731196 -0.04409119 0.21900722 0.025131973
1.1148124 -0.34796402 -0.45987466 0.4830724 0.90669817 -2.3487306 0.17615667 0.16695474
0.05903908 -0.053821646 1.3009868 -0.8549952 1.9335467 0.49480638 -1.916279 -1.7056061
1.2744092 0.07463835 -2.996615 1.9298383 1.0398899 -1.3186923 -1.3649338 1.1978661
-0.35241893 -3.0668128 1.7621582 3.0780709 -2.6956744 -0.80636823 -2.0304954 2.383989
0.25986075 -2.6836607 0.22401954 2.3475785 -0.91140336 -3.0668912 2.111768 0.8040771
-1.1334262 -1.6515694 -1.7388859 0.42414376 -0.8471973 -0.90541774 2.951284 1.5486637
-0.3698264 -1.0840248 -2.6039476 0.42514288 -0.6216425 1.4438182 3.6944623 0.6142258
-2.3838139 -1.9406942 0.023322292 1.4661721 0.22312269 0.31706148 -0.33177117 2.4548616
1.8583052 -1.5705132 -1.223689 0.13368146 -1.4757584 1.3805017 -0.52339154 0.3911836
0.7205789 -1.8740883 0.9631059 -0.50482047 -1.4008142 -0.068262786 0.22966313 -0.26449317
-1.6919494 1.7497022 -0.8824974 0.22590931 0.16373102 -0.23641367 1.9144757 1.7554845
-1.8075515 -1.0139852 -0.5776319 0.024659233 0.059485186 -0.19970688 1.3687178 0.95513576
0.6888588 -1.0726508 0.44210783 -1.0866214 -2.013838 -0.5399384 1.5842444 0.77098125
0.0926993 0.5870713 -0.5238046 0.3123151 -1.9365445 1.8509624 -0.13457975 -0.8738387
0.45340535 -0.78765535 -1.4553133 1.0854 1.4028032 0.26932544 0.04615976 -0.25800624
0.97642994 1.0054338 -1.2246151 -0.3311414 -0.08893116 0.9819456 -1.3318145 1.3654976
1.7491683 0.10076657 -1.8972152 -2.3630717 0.32283118 2.034382 -0.542136 0.64213806
-0.17073648 -1.0332236 0.17524932 -0.33897397 -0.7578186 0.8297116 0.4982101 0.7534074
00000000: c9c1 073e 3d08 1f3e 153b e33d b98d c7be
00000010: 4491 35be f798 34bd 6e43 603e 91e1 cd3c
00000020: 2cb2 8e3f 5728 b2be b174 ebbe 4455 f73e
00000030: 5f1d 683f 9a51 16c0 6a62 343e 2ff6 2a3e
00000040: f6d2 713d 1674 5cbd bc86 a63f f7e0 5abf
00000050: 757e f73f 4357 fd3e a148 f5bf 4d51 dabf
00000060: d71f a33f fedb 983d 8ac8 3fc0 f104 f73f
00000070: 1d1b 853f e9ca a8bf 27b6 aebf ad53 993f
00000080: 4170 b4be a946 44c0 668e e13f 1dff 4440
00000090: ee85 2cc0 266e 4ebf a3f3 01c0 4793 1840
000000a0: 780c 853e 19c1 2bc0 6165 653e ba3e 1640
000000b0: bb51 69bf f247 44c0 3527 0740 ffd7 4d3f
000000c0: 1c14 91bf a066 d3bf d093 debf 5f29 d93e
000000d0: ece1 58bf 75c9 67bf d6e1 3c40 9d3a c63f
000000e0: e359 bdbe 53c1 8abf 14a7 26c0 54ac d93e
000000f0: f623 1fbf 09cf b83f 1272 6c40 e73d 1d3f
00000100: 6890 18c0 ab68 f8bf 640e bf3c 87ab bb3f
00000110: 467a 643e e255 a23e e9dd a9be 741c 1d40
00000120: f2dc ed3f 9406 c9bf d7a1 9cbf cbe3 083e
00000130: a7e5 bcbf 48b4 b03f fdfc 05bf 3849 c83e
00000140: dc77 383f 20e2 efbf 1c8e 763f ea3b 01bf
00000150: e14d b3bf 5ccd 8bbd d02c 6b3e a66b 87be
00000160: cc91 d8bf 3ef6 df3f 59eb 61bf c554 673e
00000170: 1ba9 273e 6d16 72be 8a0d f53f b7b3 e03f
00000180: d95d e7bf 44ca 81bf afdf 13bf 2902 ca3c
00000190: bda6 733d f67f 4cbe 2532 af3f c783 743f
000001a0: 0d59 303f 9f4c 89bf f55b e23e 6916 8bbf
000001b0: b9e2 00c0 6739 0abf 85c8 ca3f 075f 453f
000001c0: 21d9 bd3d 4e4a 163f 0f18 06bf c4e7 9f3e
000001d0: b1e0 f7bf 56ec ec3f 46cf 09be e5b3 5fbf
000001e0: bf24 e83e c8a3 49bf b547 babf 63ee 8a3f
000001f0: 0e8f b33f 06e5 893e 0412 3d3d 6519 84be
00000200: 50f7 793f 0eb2 803f 30c0 9cbf 5e8b a9be
00000210: 8a21 b6bd c960 7b3f e678 aabf a0c8 ae3f
00000220: bfe4 df3f b45e ce3d f3d7 f2bf 913c 17c0
00000230: 214a a53e 5133 0240 6dc9 0abf 2963 243f
00000240: 8bd5 2ebe ac40 84bf 8f74 333e ff8d adbe
00000250: 6600 42bf fb67 543f 6515 ff3e 4fdf 403f

input_embeddings.embeddings.local_holiday.weight f4 [115, 8]
-0.15129703 0.9218643 0.14171542 -0.2791881 0.32271788 0.15857211 -0.40477148 -0.46890208
-1.3160067 -2.6143525 1.4026932 -1.158194 -0.26622167 1.743788 3.1808586 -1.1996726
0.2271324 -0.52592206 0.16153692 -0.4143894 -1.7788354 1.5054836 0.5612521 -0.9267419
-0.61596954 1.2789462 -0.02728528 -1.0763265 0.07476908 0.8367565 1.364616 -1.5830094
0.48586816 0.003191938 -0.2561412 -0.44602957 -1.0060526 1.389529 0.44885457 -0.8999669
0.9895837 -2.6836395 -0.29647693 1.2124375 2.5261946 -3.0002623 -0.10310703 0.16477302
-1.4280297 -0.40300247 -0.9604775 -0.47680327 1.3183836 -1.382948 1.7923694 0.85697556
-1.1449196 -2.0942566 -0.77735645 -0.53167874 1.0846186 -1.0701368 2.8756711 0.7555692
-0.28151864 -2.1334753 -1.3501042 -0.097436726 1.1937283 -0.31882927 0.32217783 1.7264268
0.73705024 -1.5765992 0.654378 -1.9912797 -0.3785148 0.25788462 1.0019743 0.96332943
0.76034766 -0.82263225 -0.119667865 -0.9665495 -0.304856 -0.5404283 0.71469504 0.436026
-0.8098962 -2.5244503 -0.7692833 0.23392296 0.65156275 1.2262689 0.8828031 0.08513827
-1.0917524 -2.0956848 0.38605657 1.0884006 -1.4365132 1.1133586 -0.6089136 2.6494565
0.5190642 -1.5409063 0.08694222 2.1839774 -0.7599364 -1.9115305 0.41661096 0.93425125
0.97329396 -1.5937259 0.062061697 0.6604354 -0.99423873 -0.87580395 0.06660759 1.4839884
0.027442224 -0.7887583 -0.012098417 0.14309299 -0.3709662 -1.1942598 0.9107095 1.3677053
0.28641638 -2.0840838 1.0791055 1.3123989 -1.4745852 -0.6565028 0.07808888 1.6184081
-0.7334137 -1.325877 -0.61501193 2.012447 -0.3008954 0.44088697 0.728713 -0.19894283
1.1341162 -0.26278245 -0.43561986 -0.68264306 1.1878681 -0.7069338 -0.13063407 -0.21186693
0.045798335 -0.7890404 -0.5632026 -0.3845463 -0.4525754 -0.37258694 0.98098356 0.93934613
-0.89431465 -0.5702258 0.39734462 1.9691286 -0.654156 -1.1461551 -0.51949495 1.3277513
-1.3416021 -0.46545848 -1.0785856 0.6612928 1.0333323 -0.5077691 0.6242116 -0.15197052
1.1175609 -1.7127436 1.6919247 1.2199318 -0.15100421 -1.6145597 1.1381263 -2.7825983
-0.033989117 -0.72465956 0.83217835 0.722584 -0.32637468 -0.99313074 0.78339475 0.787066
-0.90609676 -0.45370924 -1.5670555 0.8147156 -0.12288571 0.8312864 0.32516596 0.6571749
0.44059533 0.07263139 -0.6830151 0.51381236 -1.1819834 1.4263065 -0.012582535 -1.0729753
1.1774902 -1.8955945 -1.8934973 0.59738904 -0.72666425 -0.13612387 0.27106914 0.82425475
0.84438056 -1.9795675 0.44212884 1.4836929 -0.29793784 -4.959874 1.9484593 -1.0429925
-1.2817152 2.175075 -0.36764872 -0.25615445 -0.19242571 1.1571068 0.45454392 -1.8381451
-0.6663186 0.5756132 0.41584542 1.2388179 -1.180469 -0.60604984 0.74987304 0.1457129
0.3510627 1.367227 -0.32648915 0.18225434 -0.6279863 0.3991384 -1.4753971 -0.3334032
-0.15657026 -0.18082914 -0.85510033 -0.6073305 0.7116315 0.11031992 1.1772877 -1.2324237
00000000: 9ced 1abe 4cff 6b3f d91d 113e bef1 8ebe
00000010: 473b a53e ba60 223e 353e cfbe ef13 f0be
00000020: e872 a8bf 8d51 27c0 738b b33f b33f 94bf
00000030: 354e 88be 7234 df3f 3093 4b40 df8e 99bf
00000040: 6595 683e d4a2 06bf ef69 253e d92a d4be
00000050: e1b0 e3bf b0b3 c03f 38ae 0f3f f53e 6dbf
00000060: 2eb0 1dbf 82b4 a33f 6185 dfbc 11c5 89bf
00000070: 8820 993d ad35 563f bdab ae3f 0da0 cabf
00000080: b6c3 f83e d52f 513b f024 83be fd5d e4be
00000090: 55c6 80bf 16dc b13f 44d0 e53e 3b64 66bf
000000a0: 5b55 7d3f c0c0 2bc0 d3cb 97be 2731 9b3f
000000b0: 2cad 2140 4c04 40c0 c729 d3bd 42ba 283e
000000c0: adc9 b6bf 5756 cebe dae1 75bf 8f1f f4be
000000d0: cbc0 a83f 7104 b1bf 5c6c e53f c062 5b3f
000000e0: ba8c 92bf 4d08 06c0 d500 47bf 191c 08bf
000000f0: c8d4 8a3f 3efa 88bf ff0a 3840 fc6c 413f
00000100: 3623 90be dc8a 08c0 37d0 acbf e88c c7bd
00000110: 17cc 983f 973d a3be 7ef4 a43e 8efb dc3f
00000120: 53af 3c3f 01ce c9bf 5185 273f 41e2 febf
00000130: b1cc c1be 7409 843e b240 803f c29c 763f
00000140: 25a6 423f 0798 52bf 6d14 f5bd ca6f 77bf
00000150: 1616 9cbe 8259 0abf 41f6 363f cd3e df3e
00000160: 5b55 4fbf 9890 21c0 c0ef 44bf 8089 6f3e
00000170: d1cc 263f 61f6 9c3f 62ff 613f f95c ae3d
00000180: 8bbe 8bbf b31f 06c0 35a9 c53e b650 8b3f
00000190: aadf b7bf 8982 8e3f c3e1 1bbf b290 2940
000001a0: 64e1 043f 6b3c c5bf c30e b23d 49c6 0b40
000001b0: 318b 42bf 08ad f4bf 084e d53e 172b 6f3f
000001c0: cb29 793f 36ff cbbf 6834 7e3d 4b12 293f
000001d0: 6e86 7ebf b034 60bf 8f69 883d 55f3 bd3f
000001e0: 84ce e03c 10ec 49bf 7038 46bc f886 123e
000001f0: 48ef bdbe 81dd 98bf 4224 693f f810 af3f
00000200: 2ba5 923e a161 05c0 2120 8a3f b0fc a73f
00000210: 35bf bcbf 9110 28bf 10ed 9f3d ff27 cf3f
00000220: 00c1 3bbf 56b6 a9bf 6c71 1dbf efcb 0040
00000230: f60e 9abe f0bb e13e ef8c 3a3f abb7 4bbe
00000240: b82a 913f 6c8b 86be 9109 dfbe b2c1 2ebf
00000250: 100c 983f 9df9 34bf f0c4 05be a5f3 58be
00000260: 0997 3b3d 8dfe 49bf 0c2e 10bf 41e3 c4be
00000270: f6b7 e7be b7c3 bebe bd21 7b3f fd78 703f
00000280: cef1 64bf 51fa 11bf c170 cb3e 680c fc3f
00000290: c576 27bf 36b5 92bf 9ffd 04bf c1f3 a93f
000002a0: 9eb9 abbf 9350 eebe 180f 8abf 7c4a 293f
000002b0: 3c44 843f 28fd 01bf 55cc 1f3f 299e 1bbe
000002c0: 3c0c 8f3f 2f3b dbbf fd90 d83f ba26 9c3f
000002d0: d9a0 1abe e4a9 cebf 1fae 913f 1716 32c0
000002e0: 2c38 0bbd 4a83 39bf a409 553f 44fb 383f
000002f0: 951a a7be d13d 7ebf 8f8c 483f 287d 493f
00000300: f5f5 67bf 944c e8be 4695 c8bf 3491 503f
00000310: 81ab fbbd 2fcf 543f 277c a63e 9d3c 283f
00000320: b695 e13e c4bf 943d 14da 2ebf 3589 033f
00000330: 3b4b 97bf 3691 b63f fa26 4ebc 4157 89bf
00000340: 00b8 963f d7a2 f2bf 1f5e f2bf 7dee 183f
00000350: ab06 3abf 0e64 0bbe 93c9 8a3e 5c02 533f
00000360: 5329 583f 7862 fdbf b65e e23e a6e9 bd3f
00000370: 4f8b 98be 4ab7 9ec0 1d67 f93f c780 85bf
00000380: 3e0f a4bf 6e34 0b40 743c bcbe ad26 83be
00000390: 3f0b 45be 131c 943f fbb9 e83e 5748 ebbf
000003a0: db93 2abf 635b 133f b1e9 d43e 9691 9e3f
000003b0: 9c19 97bf 1526 1bbf aef7 3f3f c335 153e
000003c0: 7dbe b33e 4b01 af3f 9629 a7be e2a0 3a3e
000003d0: b6c3 20bf de5b cc3e d0d9 bcbf d3b3 aabe
000003e0: f453 20be 462b 39be dbe7 5abf 037a 1bbf
000003f0: 7b2d 363f 69ef e13d 5db1 963f 0fc0 9dbf

input_embeddings.embeddings.art.weight f4 [174, 8]
0.25831455 -0.0025786639 -0.429429 0.48656195 -0.7974535 -0.23239967 0.5622174 0.13949236
-0.9503852 -0.3841928 -0.66083986 -0.20758834 0.74073875 0.9919566 0.6558755 -0.35598713
-0.35660648 0.0045470847 -0.31268832 -0.027191805 -0.010116914 0.92026794 0.86779594 -0.60671794
0.83971524 -1.3321024 0.58869994 0.21358854 -0.98813134 -0.51990265 0.01814933 1.6490729
-0.8691387 0.8387088 -1.42355 -0.04950366 0.5396372 0.5506732 0.09712622 -0.080180004
-0.35626733 0.7824061 -1.1746861 0.7799462 0.13110462 -0.07113596 0.36804706 -0.08385152
0.33053753 -0.3469966 0.833093 0.14205995 -0.36595944 0.48584676 -0.28529915 -0.32374454
0.030899504 -0.146338 0.24225795 -0.017170282 -0.21585743 0.5499785 0.167133 -0.67765135
-0.62890965 0.6230263 0.5829517 -0.6294768 1.1323457 -0.14373012 -0.026491642 -0.6236734
-1.4093126 -1.6432222 0.4451378 0.89453393 1.1702002 -1.0080259 -0.53256935 1.3958639
0.042868856 -0.3199099 -0.3959816 0.33910355 -0.29375315 0.22196236 0.1217864 -0.0140142245
0.20567307 -0.2720264 -0.14358927 -0.0907641 -0.30706334 0.6179728 0.30613458 0.26908162
0.16269328 -0.25150526 0.07152255 -0.18321063 -0.19573985 -0.64418304 -0.2451133 1.7198812
-0.5041509 0.4216909 0.3231799 0.8599063 2.7887442 1.8818364 -1.290338 -2.0838757
0.26100826 -0.37659353 -0.8974293 0.066946045 1.6835432 2.4311118 -0.35207582 -2.111217
-0.6000859 -0.6353964 0.11370533 -0.7217841 -0.56444174 0.8906594 0.19343576 1.785022
0.79067016 0.19246635 -0.9196388 0.19111136 -0.8403583 -0.5960528 0.185937 0.3865079
-0.1346285 0.28026482 -0.9674253 0.451266 0.3824526 -0.15631542 0.01726044 0.011196812
-0.5398608 0.6120632 -0.6426951 -0.011074821 -0.011587694 -0.5314831 0.6176011 0.13871226
-0.5525022 0.13824679 -1.5719268 0.8482973 0.49134284 -0.55629647 -0.3338666 1.9722075
-0.577552 0.4991249 -0.78895295 0.597959 0.10945483 -0.49949247 -0.14187194 0.38690686
-0.25985375 -0.22183584 0.0903191 0.29486957 0.29015437 -0.3327763 0.17805047 -0.09462003
-0.4296658 0.08849935 -0.08303404 0.44795763 0.3085419 -0.14119054 0.01405494 -0.052796867
-1.6688867 0.06753586 -0.97205377 -1.4599591 0.26917008 0.7231068 0.08252222 1.3283483
0.22551444 -0.44703755 0.5816812 0.6642627 0.91028476 -2.9365578 -0.7134031 1.0985605
0.7086016 -1.275396 0.6919328 0.031276256 0.31300774 0.1368361 -0.7582744 0.35939685
0.68736625 -1.0012784 -0.24910922 0.37314013 -0.28266206 0.5565414 -0.42547134 0.44948122
0.5382582 -1.1991494 -0.2948864 0.34551114 -0.70071816 0.41537187 -0.36661497 1.0909973
1.0672032 -0.98397845 0.5993037 0.50639486 -0.5490352 -0.07647606 -0.32095823 -0.44830227
0.21022533 -0.95331705 1.3035522 0.5244528 -0.2620661 -0.517068 -0.8518897 0.17057344
0.79764074 -1.0423015 0.71256673 0.58253366 -0.5855908 0.19959655 -0.40151837 -0.55496
0.6387101 -1.0886259 0.87672037 0.2943731 -0.48948395 0.32672352 -0.40744975 -0.57202953
00000000: ce41 843e cdfe 28bb 1ede dbbe a61e f93e
00000010: ea25 4cbf 2efa 6dbe 7bed 0f3f 16d7 0e3e
00000020: 724c 73bf ebb4 c4be cd2c 29bf 0a92 54be
00000030: 0ea1 3d3f def0 7d3f 75e7 273f f243 b6be
00000040: 2095 b6be b6ff 943b af18 a0be 59c1 debc
00000050: 6ac1 25bc ae96 6b3f e027 5e3f de51 1bbf
00000060: 94f7 563f 5582 aabf 0ab5 163f f4b6 5a3e
00000070: 2df6 7cbf 5718 05bf e7ad 943c d214 d33f
00000080: e07f 5ebf 9fb5 563f e336 b6bf 5ac4 4abd
00000090: aa25 0a3f ebf8 0c3f 1dea c63d 6a35 a4bd
000000a0: ac68 b6be c44b 483f 1d5c 96bf 8eaa 473f
000000b0: 4a40 063e bbaf 91bd aa70 bc3e 59ba abbd
000000c0: 373c a93e 8aa9 b1be 9545 553f 2a78 113e
000000d0: 095f bbbe e8c0 f83e bb12 92be d8c1 a5be
000000e0: f520 fd3c a1d9 15be 7812 783e b1a8 8cbc
000000f0: bb09 5dbe 64cb 0c3f ea24 2b3e 8f7a 2dbf
00000100: 3900 21bf a77e 1f3f 533c 153f 6425 21bf
00000110: b4f0 903f fd2d 13be 0005 d9bc 0fa9 1fbf
00000120: 5b64 b4bf 1b55 d2bf 1ae9 e33e 2d00 653f
00000130: 1fc9 953f fe06 81bf 7756 08bf abab b23f
00000140: 4197 2f3d 3bcb a3be 1abe cabe fb9e ad3e
00000150: d066 96be 1a4a 633e 266b f93d eb9b 65bc
00000160: f69b 523e 0b47 8bbe 1109 13be 87e2 b9bd
00000170: 6837 9dbe 7733 1e3f acbd 9c3e 11c5 893e
00000180: 1199 263e 4cc5 80be 6a7a 923d 919b 3bbe
00000190: 0770 48be 2ee9 24bf fbfe 7abe 1125 dc3f
000001a0: 0910 01bf dfe7 d73e d677 a53e d222 5c3f
000001b0: c97a 3240 04e0 f03f cc29 a5bf 385e 05c0
000001c0: e0a2 853e ded0 c0be edbd 65bf 021b 893d
000001d0: 587e d73f 5697 1b40 4843 b4be 2e1e 07c0
000001e0: 3b9f 19bf 57a9 22bf 57de e83d d8c6 38bf
000001f0: 417f 10bf 4102 643f 0614 463e 9a7b e43f
00000200: 5c69 4a3f e615 453e 736d 6bbf b2b2 433e
00000210: b921 57bf eb96 18bf 4566 3e3e 5de4 c53e
00000220: 0edc 09be df7e 8f3e 2fa9 77bf 560c e73e
00000230: d4d0 c33e 2611 20be c465 8d3c d572 373c
00000240: 5134 0abf 2db0 1c3f ab87 24bf 2b73 35bc
00000250: 50da 3dbc 470f 08bf 1b1b 1e3f 960a 0e3e
00000260: c970 0dbf 9190 0d3e e634 c9bf 032a 593f
00000270: 4a91 fb3e 7269 0ebf 90f0 aabe 4c71 fc3f
00000280: 73da 13bf 4d8d ff3e d2f8 49bf d713 193f
00000290: db29 e03d 7abd ffbe e146 11be a818 c63e
000002a0: 8d0b 85be ef28 63be 38f9 b83d 25f9 963e
000002b0: 1d8f 943e a861 aabe dd52 363e 25c8 c1bd
000002c0: 28fd dbbe 263f b53d c00d aabd b45a e53e
000002d0: 34f9 9d3e 4194 10be b146 663c 8741 58bd
000002e0: 149e d5bf 3e50 8a3d 84d8 78bf f1df babf
000002f0: a9d0 893e 871d 393f 6901 a93d 5107 aa3f
00000300: 42ed 663e 1be2 e4be 0fe9 143f 1f0d 2a3f
00000310: 6c08 693f 90f0 3bc0 96a1 36bf a19d 8c3f
00000320: ea66 353f 2d40 a3bf 8222 313f 881b 003d
00000330: 8d42 a03e c31e 0c3e 451e 42bf dd02 b83e
00000340: 3cf7 2f3f e429 80bf 7d16 7fbe 390c bf3e
00000350: 15b9 90be 7f79 0e3f 61d7 d9be 6722 e63e
00000360: 4acb 093f ba7d 99bf 5afb 96be d6e6 b03e
00000370: 4462 33bf 9fab d43e f5b4 bbbe cda5 8b3f
00000380: 1d9a 883f 03e6 7bbf f86b 193f 18a3 013f
00000390: 928d 0cbf 7b9f 9cbd a354 a4be e087 e5be
000003a0: 4f45 573e 960c 74bf ccda a63f 8a42 063f
000003b0: 872d 86be 925e 04bf 7215 5abf ceaa 2e3e
000003c0: 2f32 4c3f 236a 85bf c66a 363f ed20 153f
000003d0: 47e9 15bf 0a63 4c3e d193 cdbe dc11 0ebf
000003e0: 8182 233f 1858 8bbf bf70 603f 12b8 963e
000003f0: a49d fabe 4e48 a73e 419d d0be 8770 12bf

input_embeddings.embeddings.pos.weight f4 [45, 8]
0.39777294 0.8222888 0.82778907 -2.151469 0.8700387 -0.5107649 -1.019782 0.36096516
0.32719702 1.6987019 0.20891126 1.0890794 1.9486871 -1.0974073 1.1072277 -1.8609827
0.50078315 -0.80264795 -0.5328685 0.89319307 0.5171166 -0.91416174 0.32247365 -0.09052683
0.04865478 -1.0744002 0.30408043 0.12369968 0.6016434 -1.4348274 0.28570887 0.33634916
0.6305121 -0.023855062 -1.0294574 -0.9492242 0.77721965 0.5715817 0.18696174 -0.5731255
0.6823289 -0.05380917 -0.41822448 -1.0210795 0.9189955 -0.48990533 -0.04566932 -0.1812693
0.92093545 -0.2871113 0.0025051113 -0.67321354 0.61115617 -1.3707712 -0.16670229 0.87470984
0.091780476 -1.8511138 -0.063544974 -0.7761907 0.0584007 -1.2355163 0.9152968 1.6029652
0.16425875 0.7311159 -1.2182802 -1.9490235 1.2642521 1.2024317 0.3841336 -0.42629328
0.034072805 -0.040233094 0.05352266 -0.45804894 -0.17273438 0.5193459 0.10148651 0.118920095
-0.21777567 -1.1024528 -0.6884338 1.6367762 0.1253888 -0.6262145 0.8831584 -0.4425847
-0.591871 -0.5190099 -0.3583641 -0.13285196 -0.14363156 -0.006441356 1.3185867 0.09654779
-0.6784538 0.8102735 1.0598556 -1.1240853 0.95755535 -0.02008433 -0.5751438 -0.11791897
-0.29303384 0.709993 0.15606578 -0.7109645 -0.67725706 0.10740235 0.7374606 -0.13855496
-0.61773056 0.09738288 0.23653074 -0.17188074 0.02071391 -0.58737314 0.914035 -0.12767373
-0.16033347 0.25523978 0.65817714 -0.39079514 0.11863141 -0.6111881 1.0456464 -0.5806132
0.16213435 0.10902663 0.2999762 -0.093459174 -0.67880225 0.39290708 -0.31341985 0.17527738
-0.5034624 -0.152012 0.2591621 0.3419364 0.97322816 -0.51325315 0.47265446 -0.5415852
-0.29950294 -0.49254593 0.07055741 -0.29632092 1.530321 -0.21902414 0.013331336 -0.16184936
0.076692015 -1.263956 1.1777691 0.2348446 0.57416403 -1.3023666 0.54254997 0.6294225
-1.243135 -0.4311845 0.069363065 0.07529937 1.5783645 -0.91062486 0.014827093 -0.024545616
0.009286562 -0.8068433 -0.17413802 0.14803188 0.79555476 0.87236834 0.07878082 -0.03555883
-0.81017345 -0.30602655 -0.01085805 -0.08082033 1.0636423 -0.74195033 0.66993994 0.17481747
0.17283963 0.44732204 0.49132347 -0.9188399 -0.048773576 0.69001997 -0.5571869 0.17594655
0.11243249 -0.038282774 -0.25995302 -0.10072661 0.0026359612 0.62427956 -0.087475315 -0.19951566
0.02389554 -0.910172 -0.07014774 -0.8509228 0.48362747 0.6767096 0.761009 0.47120333
0.21150258 0.062797755 0.16426602 -0.20416424 -0.6279528 0.34646213 0.18466437 -0.038468372
-0.012195105 -0.79875964 0.28658706 -1.1987696 0.6741037 -0.4173131 0.9217046 0.17466839
-0.22581753 0.40141502 0.044208203 -0.19452067 -0.071585365 0.19006214 0.32702288 -0.19623457
0.14198513 0.6016007 -0.22510318 -0.5696764 -0.2649251 0.83494556 -0.13746732 -0.35599637
0.10744388 0.2002609 0.046259046 0.18037695 -0.8884817 0.6064513 -0.68499476 0.2704985
0.11380822 0.11693066 -0.10982119 1.008338 -0.4565445 -0.13782527 -0.43781435 -0.09586475
00000000: e5a8 cb3e 8581 523f fce9 533f abb1 09c0
00000010: dbba 5e3f 7dc1 02bf 3788 82bf 6dd0 b83e
00000020: 5e86 a73e 106f d93f d5ec 553e f466 8b3f
00000030: 946e f93f d877 8cbf a3b9 8d3f ae34 eebf
00000040: 5333 003f 567a 4dbf 126a 08bf 4da8 643f
00000050: c161 043f 8106 6abf 441b a53e 2166 b9bd
00000060: 3c4a 473d f285 89bf 6eb0 9b3e 4256 fd3d
00000070: 4d05 1a3f 6da8 b7bf 6f48 923e f535 ac3e
00000080: 3e69 213f b16b c3bc 43c5 83bf 5b00 73bf
00000090: def7 463f 2e53 123f e672 3f3e 5ab8 12bf
000000a0: 1bad 2e3f 0167 5cbd 8521 d6be bcb2 82bf
000000b0: 4a43 6b3f dfd4 fabe c10f 3bbd a99e 39be
000000c0: 6dc2 6b3f 4100 93be cb2c 243b b957 2cbf
000000d0: bb74 1c3f 6e75 afbf 01b4 2abe fcec 5f3f
000000e0: 67f7 bb3d 4cf1 ecbf de23 82bd 6fb4 46bf
000000f0: 9335 6f3d 6625 9ebf e450 6a3f f72d cd3f
00000100: 7233 283e 692a 3b3f 9bf0 9bbf 9a79 f9bf
00000110: 03d3 a13f 48e9 993f 29ad c43e 1d43 dabe
00000120: ed8f 0b3d 75cb 24bd 943a 5b3d 6485 eabe
00000130: 48e1 30be daf3 043f 29d8 cf3d 618c f33d
00000140: 9600 5fbe 2c1d 8dbf 333d 30bf e281 d13f
00000150: ec65 003e 984f 20bf ab16 623f 769a e2be
00000160: dc84 17bf d5dd 04bf 807b b7be 580a 08be
00000170: 2714 13be 0312 d3bb 73c7 a83f d9ba c53d
00000180: 26af 2dbf 166e 4f3f 59a9 873f 07e2 8fbf
00000190: 5922 753f e587 a4bc a03c 13bf 807f f1bd
000001a0: 8808 96be 1ac2 353f b5cf 1f3e c501 36bf
000001b0: b860 2dbf c3f5 db3d 38ca 3c3f 5ae1 0dbe
000001c0: 9723 1ebf ad70 c73d 1d35 723e 8101 30be
000001d0: 38b0 a93c 165e 16bf 33fe 693f e7bc 02be
000001e0: 752e 24be caae 823e 4c7e 283f 4d16 c8be
000001f0: 06f5 f23d d376 1cbf bed7 853f 11a3 14bf
00000200: 8c06 263e 5b49 df3d 7b96 993e 8667 bfbd
00000210: fcc5 2dbf 1e2b c93e 9178 a0be ea7b 333e
00000220: e9e2 00bf 09a9 1bbe e5b0 843e 4a12 af3e
00000230: 7b25 793f 8f64 03bf c4ff f13e 54a5 0abf
00000240: 7358 99be fb2e fcbe 6780 903d 60b7 97be
00000250: 8fe1 c33f dd47 60be ad6b 5a3c d7bb 25be
00000260: b410 9d3d 4fc9 a1bf 23c1 963f 1a7b 703e
00000270: 6afc 123f f3b3 a6bf 8ee4 0a3f d521 213f
00000280: 0c1f 9fbf 37c4 dcbe 390e 8e3d 8e36 9a3d
00000290: d907 ca3f b61e 69bf 56ed 723c e313 c9bc
000002a0: aa26 183c 488d 4ebf 3d51 32be ab95 173e
000002b0: 7aa9 4b3f 8853 5f3f d757 a13d 23a6 11bd
000002c0: 8767 4fbf 83af 9cbe f6e5 31bc 2185 a5bd
000002d0: 6e25 883f 75f0 3dbf 2f81 2b3f 5a03 333e
000002e0: dffc 303e 6507 e53e c08e fb3e 1739 6bbf
000002f0: cdc6 47bd 26a5 303f cda3 0ebf 552b 343e
00000300: 0143 e63d 66ce 1cbd 9018 85be c149 cebd
00000310: 17c0 2c3b c9d0 1f3f 4226 b3bd d54d 4cbe
00000320: 94c0 c33c 0801 69bf 9ea9 8fbd 14d6 59bf
00000330: 059e f73e d73c 2d3f 7cd1 423f 9041 f13e
00000340: 2294 583e 1c9c 803d 5a35 283e 6e10 51be
00000350: 84c1 20bf 7c63 b13e a818 3d3e 0391 1dbd
00000360: facd 47bc 837b 4cbf 8abb 923e 4871 99bf
00000370: 0f92 2c3f 10aa d5be d5f4 6b3f 45dc 323e
00000380: b63c 67be 4586 cd3e a913 353d 6d30 47be
00000390: 599b 92bd a69f 423e 8b6f a73e b7f1 48be
000003a0: 8d64 113e 8102 1a3f 7381 66be 50d6 11bf
000003b0: 43a4 87be febe 553f 3cc4 0cbe 2845 b6be
000003c0: 890b dc3d 3211 4d3e 207a 3d3d bcb4 383e
000003d0: 8973 63bf 6440 1b3f d15b 2fbf c87e 8a3e
000003e0: 4914 e93d 5879 ef3d efe9 e0bd 3811 813f
000003f0: 33c0 e9be 1122 0dbe 3429 e0be bd54 c4bd

input_embeddings.embeddings.cluster.weight f4 [15, 8]
-0.0010317116 -1.6958919 0.20267826 -0.33892792 0.332535 0.99161124 0.19258404 0.00594966
-0.11568293 -1.0345223 0.86799496 -0.0020598876 0.049486607 1.2815493 -0.9244206 -0.035374526
0.35154307 -0.3384556 -0.3701707 -0.19247192 0.120822206 -0.052960325 0.4142893 -0.2380577
0.06514149 -0.103529714 -0.10718887 0.4856121 -0.05739677 0.18660702 0.06947733 -0.49838948
0.35666063 -0.17995404 -0.31512156 -0.3603792 0.302279 -0.20370236 0.07502719 0.12822124
-0.7434425 0.67961377 1.0460539 0.31727162 -0.52167207 -0.15932332 -0.35462016 0.5296336
-0.2015622 -0.08877134 -0.9709518 -0.840097 0.14762394 -0.47738808 0.804068 0.5823996
-0.80775684 1.1379006 -0.58749986 0.8813697 0.111722946 -0.7656127 0.28437254 -0.54982775
-0.14744037 -0.3099558 0.55168194 -0.8551978 -0.568777 1.8024198 -0.24504204 0.8928009
-0.35558775 0.26758468 0.5861637 0.69515806 -0.19326164 -0.4481661 -0.265758 0.28626692
0.298398 0.31296206 -0.51059437 0.33851662 0.15966298 -1.2845359 0.29756454 -0.0016245741
-0.21361773 1.0334024 0.6165128 0.28428832 -0.23912172 -0.18786867 -0.8889611 0.16914679
-0.60961217 1.0418361 0.884793 0.67772275 -0.81981355 0.0027916227 -0.5292571 0.26988438
0.11293433 -0.07397849 -0.14353326 0.07446475 -0.09812422 -0.35958025 0.4729347 -0.34318095
0.7452505 -0.50362325 -0.4613239 0.79701966 -0.03303344 -0.06210624 0.010375944 -0.890438
00000000: 7f3a 87ba fc12 d9bf e48a 4f3e f687 adbe
00000010: 0742 aa3e 3cda 7d3f c034 453e 5ef5 c23b
00000020: 2ceb ecbd 3a6b 84bf eb34 5e3f 2eff 06bb
00000030: 78b2 4a3d cf09 a43f d4a6 6cbf e1e4 10bd
00000040: 74fd b33e 0d4a adbe 0487 bdbe 5c17 45be
00000050: a271 f73d edec 58bd ba1d d43e 66c5 73be
00000060: e768 853d 6307 d4bd d785 dbbd 26a2 f83e
00000070: e018 6bbd e915 3f3e 214a 8e3d e82c ffbe
00000080: 399c b63e df45 38be 9d57 a1be 9f83 b8be
00000090: 50c4 9a3e 5a97 50be dba7 993d 6e4c 033e
000000a0: 3f52 3ebf 2bfb 2d3f 18e5 853f 6d71 a23e
000000b0: 4d8c 05bf a725 23be c690 b5be 1196 073f
000000c0: 5266 4ebe c0cd b5bd 4c90 78bf 9910 57bf
000000d0: bb2a 173e 366c f4be 67d7 4d3f 2418 153f
000000e0: 27c9 4ebf baa6 913f 6466 16bf 72a1 613f
000000f0: 00cf e43d 32ff 43bf 4799 913e 83c1 0cbf
00000100: 9cfa 16be 87b2 9ebe 073b 0d3f 3eee 5abf
00000110: 5f9b 11bf b1b5 e63f 4dec 7abe 9a8e 643f
00000120: 990f b6be dc00 893e d30e 163f e1f5 313f
00000130: 61e6 45be 0776 e5be 6f11 88be 9491 923e
00000140: 9fc7 983e 903c a03e 50b6 02bf 0d52 ad3e
00000150: b17e 233e ac6b a4bf 615a 983e a9ef d4ba
00000160: 9bbe 5abe 8846 843f c8d3 1d3f 3d8e 913e
00000170: 53dc 74be a560 40be f492 63bf d134 2d3e
00000180: 8b0f 1cbf e35a 853f cb81 623f 3d7f 2d3f
00000190: 4ddf 51bf a8f3 363b 657d 07bf 492e 8a3e
000001a0: 1d4a e73d 0982 97bd 62fa 12be fa80 983d
000001b0: 5af5 c8bd e71a b8be 7f24 f23e 6ab5 afbe
000001c0: bdc8 3e3f 74ed 00bf a532 ecbe 7b09 4c3f
000001d0: 134e 07bd 1d63 7ebd ddff 293c bff3 63bf

input_embeddings.embeddings.weekday.weight f4 [7, 8]
0.38488638 0.4987046 -0.008977923 -0.45134497 0.1714618 -0.37266096 0.9819519 -0.5608616
-0.8640023 0.19806907 0.3616272 0.34706476 -0.5372509 0.13171053 0.2791229 -0.13194926
-0.047023315 0.35412997 0.6457229 0.12177091 -1.0889245 -0.62281656 0.19063058 0.007035774
-1.9588935 -0.12107498 0.43951243 0.32703286 0.2717663 0.112024084 0.26382777 0.45626655
0.16430093 -0.641679 0.12090238 1.3417976 0.23794734 -1.6758764 -0.31454387 0.2838546
0.9704815 -0.59039485 -0.8611652 -0.61278063 0.4320651 0.43937635 0.7667835 -0.5164609
0.50813985 0.13311118 -1.0413147 -0.38970745 0.14210558 1.7414551 -1.8032519 0.67630756
00000000: d40f c53e 3656 ff3e 2318 13bc b016 e7be
00000010: af93 2f3e 6bcd bebe 3361 7b3f a094 0fbf
00000020: 412f 5dbf 9ed2 4a3e 3327 b93e 79b2 b13e
00000030: 4689 09bf 20df 063e 32e9 8e3e b51d 07be
00000040: 859b 40bd 8650 b53e 194e 253f 0763 f93d
00000050: e161 8bbf e870 1fbf aa34 433e 5a8c e63b
00000060: 06bd fabf 29f6 f7bd c607 e13e da70 a73e
00000070: f424 8b3e e26c e53d 6f14 873e c59b e93e
00000080: 813e 283e 1345 24bf ab9b f73d 06c0 ab3f
00000090: 78a8 733e 1e83 d6bf e50b a1be 6455 913e
000000a0: 7a71 783f 1e24 17bf 5375 5cbf 31df 1cbf
000000b0: a337 dd3e f0f5 e03e ec4b 443f c836 04bf
000000c0: 7415 023f 4c4e 083e cd49 85bf bc87 c7be
000000d0: 2084 113e 00e8 de3f f5d0 e6bf 7e22 2d3f

input_embeddings.embeddings.onpromotion.weight f4 [2, 8]
0.28681335 -0.44823322 0.42998797 -0.049191456 -0.096633434 0.61723286 -0.1349775 -0.2921605
1.230594 0.4079481 -0.6995981 -0.56327945 0.07375185 0.4853021 -0.23835075 -0.20845613
00000000: 33d9 923e d37e e5be 6227 dc3e fb7c 49bd
00000010: c0e7 c5bd f902 1e3f 8b37 0abe 1096 95be
00000020: 1b84 9d3f 93de d03e dc18 33bf 1533 10bf
00000030: 360b 973d 8479 f83e 3812 74be 8675 55be

prescalers.time_idx.weight f4 [8, 1]
-0.022251753 -0.04672021 0.1583692 0.0013014486 0.13825595 -0.0824389 -0.004303904 -0.12091269
00000000: 4f49 b6bc b15d 3fbd 892b 223e 5e95 aa3a
00000010: f892 0d3e bad5 a8bd c307 8dbb 13a1 f7bd

prescalers.time_idx.bias f4 [8]
-1.0275028 0.27333853 -0.8448515 -0.34632108 -0.5783603 0.26106367 -0.06279828 -0.0518386
00000000: 3685 83bf 07f3 8b3e 3048 58bf ff50 b1be
00000010: 6c0f 14bf 23aa 853e 629c 80bd b654 54bd

prescalers.doy_sine.weight f4 [8, 1]
-0.005174714 -0.050785724 0.016036544 0.016673792 0.070894785 -0.027116384 0.025452262 -0.037559025
00000000: a690 a9bb b104 50bd 125f 833c 7a97 883c
00000010: 4931 913d 2e23 debc 4381 d03c 7ed7 19bd

prescalers.doy_sine.bias f4 [8]
-0.98909444 0.18413167 -0.5974385 0.2387541 0.6056844 -0.18353435 0.6532031 -0.054485496
00000000: 4b35 7dbf 038d 3c3e bbf1 18bf f47b 743e
00000010: 220e 1b3f 6ef0 3bbe 5238 273f 2f2c 5fbd

prescalers.doy_cosine.weight f4 [8, 1]
0.061201192 -0.09449724 0.08158943 0.02718472 -0.15629236 0.045916278 -0.015565522 0.05709004
00000000: 1aae 7a3d c587 c1bd 5c18 a73d 7db2 de3c
00000010: 1b0b 20be b512 3c3d 8806 7fbc 3fd7 693d

prescalers.doy_cosine.bias f4 [8]
-0.73323745 0.4063485 1.0704763 0.33984026 -0.44781575 -0.7384344 0.23673064 0.2704364
00000000: 73b5 3bbf e90c d03e 5e05 893f 8bff ad3e
00000010: 1b48 e5be 090a 3dbf 8469 723e a476 8a3e

prescalers.relative_time_idx.weight f4 [8, 1]
1.0054945 -1.1906971 0.47873217 -1.042591 2.7746022 -3.907772 1.9404995 -3.2430205
00000000: 0bb4 803f c368 98bf 621c f53e 9f73 85bf
00000010: 1593 3140 f018 7ac0 4a62 f83f a68d 4fc0

prescalers.relative_time_idx.bias f4 [8]
0.73115706 -0.6245419 0.56867534 -1.1777165 0.9246275 -0.8239009 -0.5271204 -1.1131775
00000000: 1c2d 3b3f fae1 1fbf b594 113f 6abf 96bf
00000010: 63b4 6c3f 2beb 52bf 5df1 06bf 9a7c 8ebf

prescalers.sales.weight f4 [8, 1]
-0.999035 0.35919586 0.28326803 0.9215559 -0.89486396 0.2704386 0.98128927 -0.6043385
00000000: c2c0 7fbf 85e8 b73e 8208 913e 16eb 6b3f
00000010: ce15 65bf ee76 8a3e c635 7b3f eeb5 1abf

prescalers.sales.bias f4 [8]
0.2751101 0.29862437 -0.18136062 -0.5569459 -0.008537652 -0.6498058 -0.025060315 -1.2832912
00000000: 3bdb 8c3e 4be5 983e 99b6 39be 0294 0ebf
00000010: 82e1 0bbc ac59 26bf 4a4b cdbc e342 a4bf

prescalers.dcoilwtico.weight f4 [8, 1]
0.14943585 -0.24534257 -0.020802954 -0.0031075557 0.16262338 0.06923494 -0.08071078 -0.11246927
00000000: b605 193e 153b 7bbe f56a aabc 22a8 4bbb
00000010: be86 263e 0ccb 8d3d b24b a5bd 4a56 e6bd

prescalers.dcoilwtico.bias f4 [8]
1.7945157 1.0744716 -0.3315322 -0.19626896 0.7812846 -1.0241795 -0.08036923 -0.2972925
00000000: b1b2 e53f 4988 893f 97be a9be bbfa 48be
00000010: 4402 483f 5018 83bf 9f98 a4bd b936 98be

causal_lns.weekday.weight f4 [8]
2.170577 0.43426192 0.73457116 1.898703 1.5314586 3.643577 5.0458584 1.831642
00000000: bcea 0a40 9457 de3e db0c 3c3f b308 f33f
00000010: d606 c43f 5e30 6940 ac77 a140 3f73 ea3f

causal_lns.onpromotion.weight f4 [8]
2.1277704 7.17746 6.667998 3.175446 2.359893 -0.5007947 2.9608402 3.161952
00000000: 642d 0840 c1ad e540 3d60 d540 823a 4b40
00000010: 7d08 1740 1534 00bf 687e 3d40 6c5d 4a40

causal_lns.national_holiday.weight f4 [8]
0.7628535 1.214206 4.5860796 4.649628 2.3064768 5.2549744 3.7908897 9.275459
00000000: 5e4a 433f 1a6b 9b3f 2ac1 9240 c1c9 9440
00000010: 519d 1340 c028 a840 f09d 7240 4868 1441

causal_lns.regional_holiday.weight f4 [8]
6.481183 4.724604 2.2400467 0.14570032 -1.025907 3.8999383 18.934404 0.36684534
00000000: da65 cf40 f52f 9740 ed5c 0f40 7732 153e
00000010: ec50 83bf 9798 7940 a979 9741 27d3 bb3e

causal_lns.local_holiday.weight f4 [8]
2.2126675 1.3960928 2.8994424 4.016931 3.1706297 11.236164 2.9961867 1.0364534
00000000: 589c 0d40 2bb3 b23f 7790 3940 b38a 8040
00000010: 99eb 4a40 54c7 3341 86c1 3f40 81aa 843f

past_ln.weight f4 [8]
0.783606 0.024538107 0.7073462 0.71279514 0.70185673 0.6685701 0.8061879 0.5448414
00000000: 679a 483f 2404 c93c a414 353f be79 363f
00000010: e2ac 333f 6927 2b3f 5562 4e3f ba7a 0b3f

post_lns.weekday.weight f4 [8]
0.55967724 1.105463 0.8569568 0.6191083 0.76373935 0.3816842 0.1555021 0.6361036
00000000: 0247 0f3f d07f 8d3f 8561 5b3f e27d 1e3f
00000010: 6c84 433f 1d6c c33e f13b 1f3e afd7 223f

post_lns.onpromotion.weight f4 [8]
0.4798775 0.22668143 0.79454386 0.026652647 0.84686995 1.337282 0.7894919 0.624302
00000000: 81b2 f53e 2d1f 683e 3a67 4b3f a756 da3c
00000010: 78cc 583f 0e2c ab3f 241c 4a3f 42d2 1f3f

post_lns.national_holiday.weight f4 [8]
1.2882075 1.3963176 0.30024496 0.29479352 0.74797624 0.22706364 0.40248576 0.099799246
00000000: fce3 a43f 89ba b23f b5b9 993e 2def 963e
00000010: 5f7b 3f3f 5f83 683e 9d12 ce3e 8c63 cc3d

post_lns.regional_holiday.weight f4 [8]
-0.17197084 -0.3240227 -0.13247307 0.0041444693 0.0514231 -0.028837845 -0.12250721 -0.3051752
00000000: 2019 30be 4ee6 a5be 05a7 07be 54ce 873b
00000010: 07a1 523d 583d ecbc 0fe5 fabd ec3f 9cbe

post_lns.local_holiday.weight f4 [8]
0.6958445 0.62519795 0.45611152 0.2934419 0.607803 0.01693859 0.3842202 0.4805631
00000000: dd22 323f f90c 203f 7387 e93e 043e 963e
00000010: fa98 1b3f ccc2 8a3c 83b8 c43e 5e0c f63e

trend_block.gru.weight_ih_l0 f4 [24, 8]
0.8198939 0.5135122 -0.29767653 0.81755894 -0.76222414 0.21948157 -2.4162924 -0.21623054
0.6970505 -0.2740419 0.74937147 1.1891456 -1.1709639 -0.7579746 -2.3058877 0.43002194
0.9187441 -0.26079676 -2.466753 2.3816023 -0.11963896 0.04208293 -2.310691 -0.7185938
0.79634696 -0.5269675 -0.33364034 -0.8913293 0.49289268 0.37186474 -1.5826349 0.3540177
1.6235535 -0.35157618 -1.0363512 -1.6414437 0.3513544 0.40129125 -1.530806 0.6480349
-0.62842256 0.28935856 -0.2051839 0.019466346 0.4023077 0.913456 -1.0482323 -0.5165947
-0.14261466 -0.0070967474 0.07440414 -1.4944197 0.91409177 -0.01807831 1.1793127 -0.021204457
0.1488661 -0.1659046 1.7821685 -0.4232582 1.3522129 -1.1635158 0.30427706 -0.96414465
0.6443749 0.5914133 0.5960728 -0.18311691 0.67617357 -0.5696041 0.10789351 -1.4302349
0.47648978 0.08665427 2.5354342 0.26058623 -0.25734857 -0.25768676 -0.52178514 -1.1471306
1.169993 0.50440353 -0.53178585 -1.3193822 1.8252614 -0.36005226 -0.102825604 -2.664817
0.18744913 0.3195067 0.8941497 0.67362756 -0.58141965 0.49577636 -0.025030728 0.024423324
0.97659856 -0.009435769 -0.24565162 -0.6323149 -0.101124175 0.3901518 -0.315306 0.26525456
-0.14613535 -0.09250815 0.7916972 -0.3853127 1.1332309 -0.5034343 -1.0375043 -0.7448275
-1.4845611 -0.25685418 -0.23506376 -1.2292681 -0.8048222 0.93809736 -0.8120493 0.48267537
0.5857876 0.00306918 -0.48850647 -0.9898675 0.44926342 -0.5516695 0.62166595 0.019323459
-0.72804254 0.15671816 -0.024600513 0.56577027 -0.3138257 0.3985972 0.4021665 0.25322136
0.06081131 -0.07978875 0.22945249 -0.53360337 0.5576424 -0.5872769 0.3694484 -0.77486
0.273308 0.006848655 -0.11747191 -0.30179003 -0.18252519 -0.10134491 1.4424014 -0.16536333
-0.80877715 -0.046420798 0.13623449 1.0441179 -1.1842848 0.12685381 -0.04036663 -0.020476785
0.7962013 0.026972435 0.26814723 -0.39582115 -0.022349183 0.12024576 0.03548567 -0.17994744
-0.37260473 0.34217107 -0.08798863 0.9880836 0.28717977 0.4357881 -0.9247418 -1.4049217
0.011145896 -0.15824315 -0.09634559 -0.16824251 0.19630226 -0.19072194 1.3448837 0.0099531
0.7372039 0.15325461 -0.05891159 -0.8321554 0.41103217 -0.06869559 -0.5355415 0.34610775
00000000: 91e4 513f 8975 033f 0f69 98be 8b4b 513f
00000010: 1f21 43bf c7bf 603e 89a4 1ac0 8a6b 5dbe
00000020: e771 323f 384f 8cbe cfd6 3f3f ec35 983f
00000030: 25e2 95bf a00a 42bf aa93 13c0 d62b dc3e
00000040: d032 6b3f 2787 85be 48df 1dc0 2c6c 1840
00000050: 4505 f5bd 275f 2c3d 5de2 13c0 c3f5 37bf
00000060: 65dd 4b3f 58e7 06bf e8d2 aabe 282e 64bf
00000070: 6e5c fc3e 0e65 be3e c893 cabf cf41 b53e
00000080: 9ad0 cf3f cb01 b4be 28a7 84bf d41a d2bf
00000090: b9e4 b33e 0c76 cd3e 73f1 c3bf 9de5 253f
000000a0: 4de0 20bf ce26 943e ba1b 52be e377 9f3c
000000b0: 46fb cd3e 41d8 693f 7a2c 86bf 8d3f 04bf
000000c0: 9409 12be d58b e8bb 3361 983d 2549 bfbf
000000d0: eb01 6a3f f718 94bc b8f3 963f f8b4 adbc
000000e0: 5b70 183e e5e2 29be 191e e43f 4cb5 d8be
000000f0: 5015 ad3f 16ee 94bf 34ca 9b3e 2fd2 76bf
00000100: c1f5 243f dd66 173f 3a98 183f 0083 3bbe
00000110: b619 2d3f 93d1 11bf 46f7 dc3d f011 b7bf
00000120: 78f6 f33e cb77 b13d 8e44 2240 8f6b 853e
00000130: 31c3 83be 85ef 83be b693 05bf 2dd5 92bf
00000140: 55c2 953f 9720 013f 1e23 08bf 84e1 a8bf
00000150: 2aa2 e93f c558 b8be 3b96 d2bd 5d8c 2ac0
00000160: aaf2 3f3e 6296 a33e ffe6 643f db72 2c3f
00000170: ebd7 14bf 66d6 fd3e 3e0d cdbc 6c13 c83c
00000180: 5d02 7a3f 7c98 1abc 198c 7bbe 64df 21bf
00000190: 311a cfbd fac1 c73e ca6f a1be 72cf 873e
000001a0: 81a4 15be ea74 bdbd abac 4a3f b547 c5be
000001b0: b60d 913f 12e1 00bf f1cc 84bf 04ad 3ebf
000001c0: 1906 bebf 6482 83be 8eb4 70be a858 9dbf
000001d0: d408 4ebf 2627 703f 77e2 4fbf 3a21 f73e
000001e0: 2df6 153f 4c24 493b 851d fabe f567 7dbf
000001f0: db05 e63e 363a 0dbf 8025 1f3f 3b4c 9e3c
00000200: ff60 3abf ba7a 203e 0487 c9bc 52d6 103f
00000210: c3ad a0be ef14 cc3e c4e8 cd3e 3ba6 813e
00000220: 4815 793d 4968 a3bd 98f5 6a3e 3b9a 08bf
00000230: a7c1 0e3f c757 16bf 5728 bd3e 3a5d 46bf
00000240: 07ef 8b3e af6a e03b 1d95 f0bd 3984 9abe
00000250: e2e7 3abe ec8d cfbd 9ca0 b83f 0155 29be
00000260: 050c 4fbf bc23 3ebd 0e81 0b3e a8a5 853f
00000270: a596 97bf f7e5 013e 7b57 25bd eebe a7bc
00000280: d9d3 4b3f 4cf5 dc3c 984a 893e 12a9 cabe
00000290: a215 b7bc 6943 f63d 6c59 113d 2444 38be
000002a0: 0cc6 bebe 0c31 af3e 6233 b4bd 0cf3 7c3f
000002b0: 3a09 933e 9e1f df3e e1bb 6cbf 79d4 b3bf
000002c0: 479d 363c 7e0a 22be d650 c5bd c447 2cbe
000002d0: 7603 493e 9d4c 43be 2625 ac3f 5412 233c
000002e0: 65b9 3c3f c7ee 1c3e 484d 71bd 2308 55bf
000002f0: cf72 d23e 46b0 8cbd 3f19 09bf 0935 b13e

trend_block.gru.weight_hh_l0 f4 [24, 8]
-1.3242421 1.4054816 0.18085872 1.0304646 -1.1868448 -0.26869738 -0.6406561 -1.0732591
-1.5192078 0.65605104 -0.39578697 -0.42261383 0.27802452 -0.49226558 1.4825451 1.0966276
-0.18958282 0.05738972 -1.349863 -0.18137917 0.07134207 -0.15985884 -1.2957984 -0.26976272
2.106824 -0.15719377 0.8595466 -0.008826448 -1.1853099 0.4358525 -0.58766013 0.62522626
1.90817 1.4570788 0.5660113 -0.21303566 -0.44265366 1.0495548 -0.78243285 0.2413587
0.016662091 -0.0799381 -0.84373266 1.8813297 -0.4139966 0.050733004 0.22798336 -0.20194887
-1.5612322 2.098624 -2.8572462 -1.3091713 -0.09144327 0.23986396 1.0161607 -0.32149786
-0.88656276 -1.3689778 0.72407526 -0.29803124 -0.23880191 1.581068 -0.7816563 0.46287245
0.702824 -0.57871246 -0.38468614 -0.056827713 -0.69062334 0.43258178 0.48486212 -0.12834275
0.36687833 -0.6358625 -0.19528645 -1.8458437 0.2461142 0.9542197 1.0111617 -0.08564294
0.07239711 0.18230379 -1.0881337 0.07830337 -1.2347044 0.4576777 -1.184992 0.13209873
0.71346813 -0.19413121 0.8497471 0.40403906 0.11051683 -0.0619715 -0.4080813 -0.26631364
-0.9873791 1.2657677 -2.1375444 1.3110579 -0.82134795 -0.34530202 0.15017782 0.33138093
0.005237629 1.040987 0.7473843 -1.2363653 -0.217381 -0.52454334 1.0196651 0.5490849
1.1527214 -0.4387776 2.067518 -0.13875835 -0.2607789 -0.0010175942 0.3881123 -0.18339115
-2.0667171 1.6258954 -0.9183869 0.17459442 0.99626917 0.36925128 -0.11009612 -1.985587
0.06398719 -0.4658887 0.5825583 0.03898471 0.61707187 0.1228677 2.056754 -1.3760326
0.12304593 1.103947 -1.5458624 0.017331082 -0.25330934 1.2905111 -1.2690166 -0.82826185
-0.21900408 -1.5152906 0.584479 1.0621736 -0.75732636 -0.1836325 -1.7860451 -1.6666625
-0.8903787 -0.90554893 -0.4268144 0.7583163 0.67175835 -2.0368717 -0.087662384 0.075387575
-0.5274385 0.48829708 -1.0713673 -0.8768074 -0.24843659 -0.30725014 0.28998438 1.7057819
0.41680887 0.12887968 -0.7756733 2.1254425 -1.0677911 -0.25708017 0.61728424 -0.39483848
-1.5189155 -0.7451541 -0.909873 1.5099096 -0.6954302 -0.333275 0.27679235 -2.15047
1.440295 1.2124244 0.4213532 -1.6201595 -0.122250445 0.22336185 -0.041241225 1.1213415
00000000: c480 a9bf d2e6 b33f 0733 393e 44e6 833f
00000010: 88ea 97bf b492 89be 0a02 24bf 8e60 89bf
00000020: 6775 c2bf f6f2 273f 97a4 cabe d760 d8be
00000030: 3b59 8e3e 3c0a fcbe 0ac4 bd3f 4b5e 8c3f
00000040: 0022 42be 7c11 6b3d 50c8 acbf 76bb 39be
00000050: cb1b 923d 09b2 23be b9dc a5bf 571e 8abe
00000060: 34d6 0640 67f7 20be 3f0b 5c3f ce9c 10bc
00000070: 3cb8 97bf 0f28 df3e e570 16bf d40e 203f
00000080: ea3e f43f 8f81 ba3f 1ee6 103f 0526 5abe
00000090: 80a3 e2be d057 863f 854d 48bf bc26 773e
000000a0: f07e 883c 96b6 a3bd ddfe 57bf 69cf f03f
000000b0: 5df7 d3be 69cd 4f3d 7874 693e afcb 4ebe
000000c0: 75d6 c7bf db4f 0640 1fdd 36c0 ed92 a7bf
000000d0: 9c46 bbbd e69e 753e 8e11 823f 5e9b a4be
000000e0: c7f5 62bf aa3a afbf ff5c 393f 8d97 98be
000000f0: 7d88 74be 7060 ca3f a11a 48bf 9efd ec3e
00000100: 46ec 333f 8026 14bf 95f5 c4be 2dc4 68bd
00000110: b1cc 30bf 5c7b dd3e d93f f83e 486c 03be
00000120: 7ad7 bb3e e3c7 22bf 2cf9 47be 9b44 ecbf
00000130: 5c05 7c3e be47 743f bf6d 813f 9165 afbd
00000140: f044 943d d8ad 3a3e f747 8bbf 845d a03d
00000150: cb0a 9ebf bb54 ea3e d1ad 97bf e444 073e
00000160: d9a5 363f 55ca 46be 0789 593f 35de ce3e
00000170: a656 e23d d4d5 7dbd 08f0 d0be 435a 88be
00000180: e0c4 7cbf ad04 a23f 87cd 08c0 bfd0 a73f
00000190: dc43 52bf 6dcb b0be 37c8 193e c3aa a93e
000001a0: 6ba0 ab3b 103f 853f 9454 3f3f 3841 9ebf
000001b0: 2099 5ebe 7948 06bf 6384 823f d490 0c3f
000001c0: 608c 933f 75a7 e0be 3752 0440 ab16 0ebe
000001d0: d084 85be cc60 85ba a8b6 c63e e4ca 3bbe
000001e0: 1845 04c0 571d d03f 671b 6bbf e1c8 323e
000001f0: 7f0b 7f3f 810e bd3e 137a e1bd b727 febf
00000200: b70b 833d f788 eebe 8a22 153f 6eae 1f3d
00000210: 6cf8 1d3f 10a2 fb3d dca1 0340 d621 b0bf
00000220: 81ff fb3d 234e 8d3f d2de c5bf eaf9 8d3c
00000230: c3b1 81be 782f a53f 236f a2bf f808 54bf
00000240: 9b42 60be 0bf5 c1bf 6aa0 153f 4ef5 873f
00000250: 24e0 41bf 280a 3cbe 209d e4bf 3255 d5bf
00000260: dcef 63bf 0ed2 67bf 6b87 dabe 0421 423f
00000270: 5bf8 2b3f 1b5c 02c0 5688 b3bd cd64 9a3d
00000280: 3606 07bf 1302 fa3e 9022 89bf 7376 60bf
00000290: 2966 7ebe e44f 9dbe d578 943e 1057 da3f
000002a0: f967 d53e 09f9 033e 8692 46bf 4007 0840
000002b0: 61ad 88bf 03a0 83be 5706 1e3f 4528 cabe
000002c0: d36b c2bf 6bc2 3ebf 70ed 68bf b844 c13f
000002d0: b707 32bf 05a3 aabe bab7 8d3e 4da1 09c0
000002e0: 965b b83f b930 9b3f 9bbb d73e 6361 cfbf
000002f0: 715e fabd f8b8 643e 8fec 28bd 1e88 8f3f

trend_block.gru.bias_ih_l0 f4 [24]
1.1137824 1.5962262 -0.40898234 1.1236933 -0.2263783 -0.6773644 -0.3880285 -0.068780854
1.6095831 2.3641868 1.8509729 0.87635213 0.74843085 2.548597 1.7228824 0.1755972
-0.034299914 1.3628477 0.3687712 2.8677065 2.6339276 0.066313185 -0.14455119 2.478289
00000000: 6c90 8e3f 2451 cc3f 2266 d1be 2fd5 8f3f
00000010: b7cf 67be c167 2dbf acab c6be fadc 8cbd
00000020: d206 ce3f d64e 1740 aeec ec3f 9d58 603f
00000030: 2a99 3f3f 371c 2340 6987 dc3f c1cf 333e
00000040: 117e 0cbd cb71 ae3f 94cf bc3e 8188 3740
00000050: 4592 2840 35cf 873d 3a05 14be 499c 1e40

trend_block.gru.bias_hh_l0 f4 [24]
0.7278947 1.5384879 -0.1845867 1.0779786 0.33036235 -0.615559 -0.5069191 -0.041810002
1.416649 2.2205021 1.5356407 0.42300656 0.8160801 2.4268737 1.2638324 0.6844781
0.81525016 -2.4637444 -1.1359059 -1.5517119 -4.436717 3.673518 0.8043521 -3.779271
00000000: 4f57 3a3f 2ced c43f 4c04 3dbe 34fb 893f
00000010: 4125 a93e 4695 1dbf 73c5 01bf f740 2bbd
00000020: c154 b53f b51c 0e40 e08f c43f 5194 d83e
00000030: a0ea 503f e651 1b40 43c5 a13f f539 2f3f
00000040: 3cb4 503f fdad 1dc0 5d65 91bf 7f9e c6bf
00000050: 96f9 8dc0 eb1a 6b40 05ea 4d3f 93df 71c0

trend_block.param_projection.weight f4 [3, 8]
0.9448333 -0.538782 -0.21031028 0.5372054 0.11175069 -0.45942324 1.6770706 1.9083347
-0.46297562 -0.2144286 -0.4944311 1.0835749 -1.5460576 0.62184846 -0.40459004 0.49120402
1.56699 -0.3150753 1.1575654 -1.4955411 -2.00246 0.09466642 1.2362822 -0.1193697
00000000: 98e0 713f 9eed 09bf 945b 57be 4b86 093f
00000010: 8cdd e43d 8639 ebbe 40aa d63f 5044 f43f
00000020: 240b edbe 2c93 5bbe 1326 fdbe 95b2 8a3f
00000030: 37e5 c5bf 7631 1f3f 6d26 cfbe 187f fb3e
00000040: 2193 c83f 8d51 a1be 1a2b 943f e46d bfbf
00000050: 4e28 00c0 78e0 c13d 7f3e 9e3f 1a78 f4bd

trend_block.param_projection.bias f4 [3]
-2.929539 -2.6346602 -3.7874422
00000000: 917d 3bc0 469e 28c0 7465 72c0
